#loc = loc("/home/zhenyu/tmd/test/Triton/mm_fixed_strides/mm.py":17:0)
module {
  tt.func public @matmul_kernel(%arg0: !tt.ptr<f32> {tt.divisibility = 16 : i32} loc("/home/zhenyu/tmd/test/Triton/mm_fixed_strides/mm.py":17:0), %arg1: !tt.ptr<f32> {tt.divisibility = 16 : i32} loc("/home/zhenyu/tmd/test/Triton/mm_fixed_strides/mm.py":17:0), %arg2: !tt.ptr<f32> {tt.divisibility = 16 : i32} loc("/home/zhenyu/tmd/test/Triton/mm_fixed_strides/mm.py":17:0)) attributes {noinline = false} {
    %cst = arith.constant dense<512> : tensor<128x1xi64> loc(#loc1)
    %cst_0 = arith.constant dense<512> : tensor<32x1xi64> loc(#loc1)
    %c4_i32 = arith.constant 4 : i32 loc(#loc1)
    %c1_i32 = arith.constant 1 : i32 loc(#loc1)
    %c0_i32 = arith.constant 0 : i32 loc(#loc1)
    %cst_1 = arith.constant dense<0.000000e+00> : tensor<32x32xf32> loc(#loc1)
    %c128_i32 = arith.constant 128 : i32 loc(#loc1)
    %c32_i32 = arith.constant 32 : i32 loc(#loc1)
    %0 = tt.get_program_id x : i32 loc(#loc2)
    %1 = tt.get_program_id y : i32 loc(#loc3)
    %2 = arith.muli %0, %c32_i32 : i32 loc(#loc4)
    %3 = arith.muli %1, %c32_i32 : i32 loc(#loc5)
    %4 = arith.extsi %2 : i32 to i64 loc(#loc6)
    %5 = arith.extsi %3 : i32 to i64 loc(#loc7)
    %6 = tt.splat %arg0 : !tt.ptr<f32> -> tensor<32x128x!tt.ptr<f32>> loc(#loc8)
    %7 = tt.splat %4 : i64 -> tensor<32xi64> loc(#loc8)
    %8 = tt.make_range {end = 32 : i32, start = 0 : i32} : tensor<32xi32> loc(#loc8)
    %9 = arith.extsi %8 : tensor<32xi32> to tensor<32xi64> loc(#loc8)
    %10 = arith.addi %7, %9 : tensor<32xi64> loc(#loc8)
    %11 = tt.expand_dims %10 {axis = 1 : i32} : tensor<32xi64> -> tensor<32x1xi64> loc(#loc8)
    %12 = arith.muli %11, %cst_0 : tensor<32x1xi64> loc(#loc8)
    %13 = tt.broadcast %12 : tensor<32x1xi64> -> tensor<32x128xi64> loc(#loc8)
    %14 = tt.make_range {end = 128 : i32, start = 0 : i32} : tensor<128xi32> loc(#loc8)
    %15 = arith.extsi %14 : tensor<128xi32> to tensor<128xi64> loc(#loc8)
    %16 = tt.splat %arg1 : !tt.ptr<f32> -> tensor<128x32x!tt.ptr<f32>> loc(#loc9)
    %17 = tt.splat %5 : i64 -> tensor<32xi64> loc(#loc9)
    %18 = arith.addi %17, %9 : tensor<32xi64> loc(#loc9)
    %19 = tt.expand_dims %18 {axis = 0 : i32} : tensor<32xi64> -> tensor<1x32xi64> loc(#loc9)
    %20 = tt.broadcast %19 : tensor<1x32xi64> -> tensor<128x32xi64> loc(#loc9)
    %21 = scf.for %arg3 = %c0_i32 to %c4_i32 step %c1_i32 iter_args(%arg4 = %cst_1) -> (tensor<32x32xf32>)  : i32 {
      %27 = arith.muli %arg3, %c128_i32 : i32 loc(#loc11)
      %28 = arith.extsi %27 : i32 to i64 loc(#loc6)
      %29 = tt.splat %28 : i64 -> tensor<128xi64> loc(#loc8)
      %30 = arith.addi %29, %15 : tensor<128xi64> loc(#loc8)
      %31 = tt.expand_dims %30 {axis = 0 : i32} : tensor<128xi64> -> tensor<1x128xi64> loc(#loc8)
      %32 = tt.broadcast %31 : tensor<1x128xi64> -> tensor<32x128xi64> loc(#loc8)
      %33 = arith.addi %13, %32 : tensor<32x128xi64> loc(#loc8)
      %34 = tt.addptr %6, %33 : tensor<32x128x!tt.ptr<f32>>, tensor<32x128xi64> loc(#loc8)
      %35 = tt.load %34 : tensor<32x128x!tt.ptr<f32>> loc(#loc8)
      %36 = tt.expand_dims %30 {axis = 1 : i32} : tensor<128xi64> -> tensor<128x1xi64> loc(#loc9)
      %37 = arith.muli %36, %cst : tensor<128x1xi64> loc(#loc9)
      %38 = tt.broadcast %37 : tensor<128x1xi64> -> tensor<128x32xi64> loc(#loc9)
      %39 = arith.addi %38, %20 : tensor<128x32xi64> loc(#loc9)
      %40 = tt.addptr %16, %39 : tensor<128x32x!tt.ptr<f32>>, tensor<128x32xi64> loc(#loc9)
      %41 = tt.load %40 : tensor<128x32x!tt.ptr<f32>> loc(#loc9)
      %42 = tt.dot %35, %41, %arg4 : tensor<32x128xf32> * tensor<128x32xf32> -> tensor<32x32xf32> loc(#loc12)
      scf.yield %42 : tensor<32x32xf32> loc(#loc13)
    } loc(#loc10)
    %22 = tt.splat %arg2 : !tt.ptr<f32> -> tensor<32x32x!tt.ptr<f32>> loc(#loc14)
    %23 = tt.broadcast %12 : tensor<32x1xi64> -> tensor<32x32xi64> loc(#loc14)
    %24 = tt.broadcast %19 : tensor<1x32xi64> -> tensor<32x32xi64> loc(#loc14)
    %25 = arith.addi %23, %24 : tensor<32x32xi64> loc(#loc14)
    %26 = tt.addptr %22, %25 : tensor<32x32x!tt.ptr<f32>>, tensor<32x32xi64> loc(#loc14)
    tt.store %26, %21 : tensor<32x32x!tt.ptr<f32>> loc(#loc14)
    tt.return loc(#loc15)
  } loc(#loc)
} loc(#loc)
#loc1 = loc(unknown)
#loc2 = loc("/home/zhenyu/tmd/test/Triton/mm_fixed_strides/mm.py":41:26)
#loc3 = loc("/home/zhenyu/tmd/test/Triton/mm_fixed_strides/mm.py":42:26)
#loc4 = loc("/home/zhenyu/tmd/test/Triton/mm_fixed_strides/mm.py":44:21)
#loc5 = loc("/home/zhenyu/tmd/test/Triton/mm_fixed_strides/mm.py":45:21)
#loc6 = loc("/home/zhenyu/tmd/test/Triton/mm_fixed_strides/mm.py":58:12)
#loc7 = loc("/home/zhenyu/tmd/test/Triton/mm_fixed_strides/mm.py":67:12)
#loc8 = loc("/home/zhenyu/tmd/test/Triton/mm_fixed_strides/mm.py":73:20)
#loc9 = loc("/home/zhenyu/tmd/test/Triton/mm_fixed_strides/mm.py":74:20)
#loc10 = loc("/home/zhenyu/tmd/test/Triton/mm_fixed_strides/mm.py":49:23)
#loc11 = loc("/home/zhenyu/tmd/test/Triton/mm_fixed_strides/mm.py":50:22)
#loc12 = loc("/home/zhenyu/tmd/test/Triton/mm_fixed_strides/mm.py":75:25)
#loc13 = loc("/home/zhenyu/tmd/test/Triton/mm_fixed_strides/mm.py":75:8)
#loc14 = loc("/home/zhenyu/tmd/test/Triton/mm_fixed_strides/mm.py":85:22)
#loc15 = loc("/home/zhenyu/tmd/test/Triton/mm_fixed_strides/mm.py":85:4)
