module {
  %0 = df.mat "FPU" {shape = [32, 32, 32]}
  %1 = df.vec "SFPU" {shape = [32]}
  %2 = df.spatial_dim "x", 8
  %3 = df.spatial_dim "y", 8
  %4 = df.core "core" {scaleout=(%2, %3) , scalein=(%0, %1, [8, 1])}
  %5 = df.memory "L1" {scaleout=(%2, %3) , size = 32768, bandwidth = 64}
  %6 = df.mux %4 : !df.compute, %5 : !df.memory  {map = affine_map<(d0, d1) -> (d0, d1)>}
  %7 = df.interconnects "horizontal_links" %5 : !df.memory, %5 : !df.memory  {bandwidth = 128 : i64, map = affine_map<(d0, d1) -> ((d0 + 1) mod 8, d1)>, spatial_dims = [@y]} : !df.interconnect
  %8 = df.interconnects "vertical_links" %5 : !df.memory, %5 : !df.memory  {bandwidth = 128 : i64, map = affine_map<(d0, d1) -> (d0, (d1 + 1) mod 8)>, spatial_dims = [@x]} : !df.interconnect
  %9 = df.spatial_dim "d", 4
  %10 = df.memory "DRAM" {scaleout=(%9) , size = 34359738368, bandwidth = 512}
  %11 = df.interconnects "NoC" %5 : !df.memory, %10 : !df.memory  {map = affine_map<(d0, d1) -> (d0 ceildiv 4 + (d1 ceildiv 4) * 2)>} : !df.interconnect
  func.func @matmul_kernel__d0i0_d1i0__f01__d_d(%arg0: memref<*xf32> {tt.divisibility = 16 : i32}, %arg1: memref<*xf32> {tt.divisibility = 16 : i32}, %arg2: memref<*xf32> {tt.divisibility = 16 : i32}, %arg3: index, %arg4: index, %arg5: index, %arg6: index, %arg7: index, %arg8: index) {
    %c8 = arith.constant 8 : index
    %c0 = arith.constant 0 : index
    %cst = arith.constant 0.000000e+00 : f32
    %c64 = arith.constant 64 : index
    %c1 = arith.constant 1 : index
    %c512 = arith.constant 512 : index
    affine.parallel (%arg9) = (0) to (8) {
      affine.parallel (%arg10) = (0) to (8) {
        affine.for %arg11 = 0 to affine_map<()[s0] -> ((s0 ceildiv 8) ceildiv 8)>()[%arg3] {
          affine.for %arg12 = 0 to %arg4 {
            %12 = affine.apply affine_map<(d0, d1, d2) -> (d0 * 8 + d1 * 8 + d2)>(%arg9, %arg10, %arg11)
            %13 = tensor.empty() : tensor<64x64xf32>
            %14 = linalg.fill ins(%cst : f32) outs(%13 : tensor<64x64xf32>) -> tensor<64x64xf32>
            %15 = arith.muli %12, %c64 : index
            %16 = arith.muli %arg12, %c64 : index
            %17 = scf.for %arg13 = %c0 to %c8 step %c1 iter_args(%arg14 = %14) -> (tensor<64x64xf32>) {
              %21 = arith.muli %arg13, %c64 : index
              %22 = arith.muli %15, %c512 : index
              %23 = arith.addi %22, %21 : index
              %24 = loom.reinterpret_cast %arg0 to offset : [%23], sizes : [%c64, %c64], strides : [%c512, %c1], reuse : [seq = false, spat = false, temp = true] : memref<*xf32> to memref<?x?xf32, strided<[?, ?], offset: ?>>
              %alloc = memref.alloc() : memref<64x64xf32>
              loom.copy %24, %alloc, interconnect : [], broadcast : [1, 1] : memref<?x?xf32, strided<[?, ?], offset: ?>> to memref<64x64xf32>
              %25 = bufferization.to_tensor %alloc restrict writable : memref<64x64xf32> to tensor<64x64xf32>
              %26 = arith.muli %21, %c512 : index
              %27 = arith.addi %26, %16 : index
              %28 = loom.reinterpret_cast %arg1 to offset : [%27], sizes : [%c64, %c64], strides : [%c512, %c1], reuse : [seq = false, spat = true, temp = true] : memref<*xf32> to memref<?x?xf32, strided<[?, ?], offset: ?>>
              %alloc_0 = memref.alloc() : memref<64x64xf32>
              loom.copy %28, %alloc_0, interconnect : [], broadcast : [1, 1] : memref<?x?xf32, strided<[?, ?], offset: ?>> to memref<64x64xf32>
              %29 = bufferization.to_tensor %alloc_0 restrict writable : memref<64x64xf32> to tensor<64x64xf32>
              %30 = linalg.matmul ins(%25, %29 : tensor<64x64xf32>, tensor<64x64xf32>) outs(%14 : tensor<64x64xf32>) -> tensor<64x64xf32>
              %31 = linalg.generic {indexing_maps = [affine_map<(d0, d1) -> (d0, d1)>, affine_map<(d0, d1) -> (d0, d1)>, affine_map<(d0, d1) -> (d0, d1)>], iterator_types = ["parallel", "parallel"]} ins(%arg14, %30 : tensor<64x64xf32>, tensor<64x64xf32>) outs(%arg14 : tensor<64x64xf32>) {
              ^bb0(%in: f32, %in_1: f32, %out: f32):
                %32 = arith.addf %in, %in_1 : f32
                linalg.yield %32 : f32
              } -> tensor<64x64xf32>
              scf.yield %31 : tensor<64x64xf32>
            }
            %18 = arith.muli %15, %c512 : index
            %19 = arith.addi %18, %16 : index
            %20 = loom.reinterpret_cast %arg2 to offset : [%19], sizes : [%c64, %c64], strides : [%c512, %c1], reuse : [seq = false, spat = false, temp = false] : memref<*xf32> to memref<?x?xf32, strided<[?, ?], offset: ?>>
            bufferization.materialize_in_destination %17 in writable %20 : (tensor<64x64xf32>, memref<?x?xf32, strided<[?, ?], offset: ?>>) -> ()
          }
        }
      } {loom.mapped_to = @y}
    } {loom.mapped_to = @x}
    return
  }
  func.func @matmul_kernel__d0i0_d1i0__f01__d_a(%arg0: memref<*xf32> {tt.divisibility = 16 : i32}, %arg1: memref<*xf32> {tt.divisibility = 16 : i32}, %arg2: memref<*xf32> {tt.divisibility = 16 : i32}, %arg3: index, %arg4: index, %arg5: index, %arg6: index, %arg7: index, %arg8: index) {
    %c8 = arith.constant 8 : index
    %c0 = arith.constant 0 : index
    %cst = arith.constant 0.000000e+00 : f32
    %c64 = arith.constant 64 : index
    %c1 = arith.constant 1 : index
    %c512 = arith.constant 512 : index
    affine.parallel (%arg9) = (0) to (8) {
      affine.parallel (%arg10) = (0) to (8) {
        affine.for %arg11 = 0 to affine_map<()[s0] -> ((s0 ceildiv 8) ceildiv 8)>()[%arg3] {
          affine.for %arg12 = 0 to %arg4 {
            %12 = affine.apply affine_map<(d0, d1, d2) -> (d0 * 8 + d1 * 8 + d2)>(%arg9, %arg10, %arg11)
            %13 = tensor.empty() : tensor<64x64xf32>
            %14 = linalg.fill ins(%cst : f32) outs(%13 : tensor<64x64xf32>) -> tensor<64x64xf32>
            %15 = arith.muli %12, %c64 : index
            %16 = arith.muli %arg12, %c64 : index
            %17 = scf.for %arg13 = %c0 to %c8 step %c1 iter_args(%arg14 = %14) -> (tensor<64x64xf32>) {
              %21 = arith.muli %arg13, %c64 : index
              %22 = arith.muli %15, %c512 : index
              %23 = arith.addi %22, %21 : index
              %24 = loom.reinterpret_cast %arg0 to offset : [%23], sizes : [%c64, %c64], strides : [%c512, %c1], reuse : [seq = false, spat = false, temp = true] : memref<*xf32> to memref<?x?xf32, strided<[?, ?], offset: ?>>
              %alloc = memref.alloc() : memref<64x64xf32>
              loom.copy %24, %alloc, interconnect : [], broadcast : [1, 1] : memref<?x?xf32, strided<[?, ?], offset: ?>> to memref<64x64xf32>
              %25 = bufferization.to_tensor %alloc restrict writable : memref<64x64xf32> to tensor<64x64xf32>
              %26 = arith.muli %21, %c512 : index
              %27 = arith.addi %26, %16 : index
              %28 = loom.reinterpret_cast %arg1 to offset : [%27], sizes : [%c64, %c64], strides : [%c512, %c1], reuse : [seq = false, spat = true, temp = true] : memref<*xf32> to memref<?x?xf32, strided<[?, ?], offset: ?>>
              %alloc_0 = memref.alloc() : memref<64x64xf32>
              loom.copy %28, %alloc_0, interconnect : [@horizontal_links, @vertical_links], broadcast : [8, 8] : memref<?x?xf32, strided<[?, ?], offset: ?>> to memref<64x64xf32>
              %29 = bufferization.to_tensor %alloc_0 restrict writable : memref<64x64xf32> to tensor<64x64xf32>
              %30 = linalg.matmul ins(%25, %29 : tensor<64x64xf32>, tensor<64x64xf32>) outs(%14 : tensor<64x64xf32>) -> tensor<64x64xf32>
              %31 = linalg.generic {indexing_maps = [affine_map<(d0, d1) -> (d0, d1)>, affine_map<(d0, d1) -> (d0, d1)>, affine_map<(d0, d1) -> (d0, d1)>], iterator_types = ["parallel", "parallel"]} ins(%arg14, %30 : tensor<64x64xf32>, tensor<64x64xf32>) outs(%arg14 : tensor<64x64xf32>) {
              ^bb0(%in: f32, %in_1: f32, %out: f32):
                %32 = arith.addf %in, %in_1 : f32
                linalg.yield %32 : f32
              } -> tensor<64x64xf32>
              scf.yield %31 : tensor<64x64xf32>
            }
            %18 = arith.muli %15, %c512 : index
            %19 = arith.addi %18, %16 : index
            %20 = loom.reinterpret_cast %arg2 to offset : [%19], sizes : [%c64, %c64], strides : [%c512, %c1], reuse : [seq = false, spat = false, temp = false] : memref<*xf32> to memref<?x?xf32, strided<[?, ?], offset: ?>>
            bufferization.materialize_in_destination %17 in writable %20 : (tensor<64x64xf32>, memref<?x?xf32, strided<[?, ?], offset: ?>>) -> ()
          }
        }
      } {loom.mapped_to = @y}
    } {loom.mapped_to = @x}
    return
  }
  func.func @matmul_kernel__d0i0_d1i0__f01__d_h(%arg0: memref<*xf32> {tt.divisibility = 16 : i32}, %arg1: memref<*xf32> {tt.divisibility = 16 : i32}, %arg2: memref<*xf32> {tt.divisibility = 16 : i32}, %arg3: index, %arg4: index, %arg5: index, %arg6: index, %arg7: index, %arg8: index) {
    %c8 = arith.constant 8 : index
    %c0 = arith.constant 0 : index
    %cst = arith.constant 0.000000e+00 : f32
    %c64 = arith.constant 64 : index
    %c1 = arith.constant 1 : index
    %c512 = arith.constant 512 : index
    affine.parallel (%arg9) = (0) to (8) {
      affine.parallel (%arg10) = (0) to (8) {
        affine.for %arg11 = 0 to affine_map<()[s0] -> ((s0 ceildiv 8) ceildiv 8)>()[%arg3] {
          affine.for %arg12 = 0 to %arg4 {
            %12 = affine.apply affine_map<(d0, d1, d2) -> (d0 * 8 + d1 * 8 + d2)>(%arg9, %arg10, %arg11)
            %13 = tensor.empty() : tensor<64x64xf32>
            %14 = linalg.fill ins(%cst : f32) outs(%13 : tensor<64x64xf32>) -> tensor<64x64xf32>
            %15 = arith.muli %12, %c64 : index
            %16 = arith.muli %arg12, %c64 : index
            %17 = scf.for %arg13 = %c0 to %c8 step %c1 iter_args(%arg14 = %14) -> (tensor<64x64xf32>) {
              %21 = arith.muli %arg13, %c64 : index
              %22 = arith.muli %15, %c512 : index
              %23 = arith.addi %22, %21 : index
              %24 = loom.reinterpret_cast %arg0 to offset : [%23], sizes : [%c64, %c64], strides : [%c512, %c1], reuse : [seq = false, spat = false, temp = true] : memref<*xf32> to memref<?x?xf32, strided<[?, ?], offset: ?>>
              %alloc = memref.alloc() : memref<64x64xf32>
              loom.copy %24, %alloc, interconnect : [], broadcast : [1, 1] : memref<?x?xf32, strided<[?, ?], offset: ?>> to memref<64x64xf32>
              %25 = bufferization.to_tensor %alloc restrict writable : memref<64x64xf32> to tensor<64x64xf32>
              %26 = arith.muli %21, %c512 : index
              %27 = arith.addi %26, %16 : index
              %28 = loom.reinterpret_cast %arg1 to offset : [%27], sizes : [%c64, %c64], strides : [%c512, %c1], reuse : [seq = false, spat = true, temp = true] : memref<*xf32> to memref<?x?xf32, strided<[?, ?], offset: ?>>
              %alloc_0 = memref.alloc() : memref<64x64xf32>
              loom.copy %28, %alloc_0, interconnect : [@horizontal_links], broadcast : [1, 8] : memref<?x?xf32, strided<[?, ?], offset: ?>> to memref<64x64xf32>
              %29 = bufferization.to_tensor %alloc_0 restrict writable : memref<64x64xf32> to tensor<64x64xf32>
              %30 = linalg.matmul ins(%25, %29 : tensor<64x64xf32>, tensor<64x64xf32>) outs(%14 : tensor<64x64xf32>) -> tensor<64x64xf32>
              %31 = linalg.generic {indexing_maps = [affine_map<(d0, d1) -> (d0, d1)>, affine_map<(d0, d1) -> (d0, d1)>, affine_map<(d0, d1) -> (d0, d1)>], iterator_types = ["parallel", "parallel"]} ins(%arg14, %30 : tensor<64x64xf32>, tensor<64x64xf32>) outs(%arg14 : tensor<64x64xf32>) {
              ^bb0(%in: f32, %in_1: f32, %out: f32):
                %32 = arith.addf %in, %in_1 : f32
                linalg.yield %32 : f32
              } -> tensor<64x64xf32>
              scf.yield %31 : tensor<64x64xf32>
            }
            %18 = arith.muli %15, %c512 : index
            %19 = arith.addi %18, %16 : index
            %20 = loom.reinterpret_cast %arg2 to offset : [%19], sizes : [%c64, %c64], strides : [%c512, %c1], reuse : [seq = false, spat = false, temp = false] : memref<*xf32> to memref<?x?xf32, strided<[?, ?], offset: ?>>
            bufferization.materialize_in_destination %17 in writable %20 : (tensor<64x64xf32>, memref<?x?xf32, strided<[?, ?], offset: ?>>) -> ()
          }
        }
      } {loom.mapped_to = @y}
    } {loom.mapped_to = @x}
    return
  }
  func.func @matmul_kernel__d0i0_d1i0__f01__d_v(%arg0: memref<*xf32> {tt.divisibility = 16 : i32}, %arg1: memref<*xf32> {tt.divisibility = 16 : i32}, %arg2: memref<*xf32> {tt.divisibility = 16 : i32}, %arg3: index, %arg4: index, %arg5: index, %arg6: index, %arg7: index, %arg8: index) {
    %c8 = arith.constant 8 : index
    %c0 = arith.constant 0 : index
    %cst = arith.constant 0.000000e+00 : f32
    %c64 = arith.constant 64 : index
    %c1 = arith.constant 1 : index
    %c512 = arith.constant 512 : index
    affine.parallel (%arg9) = (0) to (8) {
      affine.parallel (%arg10) = (0) to (8) {
        affine.for %arg11 = 0 to affine_map<()[s0] -> ((s0 ceildiv 8) ceildiv 8)>()[%arg3] {
          affine.for %arg12 = 0 to %arg4 {
            %12 = affine.apply affine_map<(d0, d1, d2) -> (d0 * 8 + d1 * 8 + d2)>(%arg9, %arg10, %arg11)
            %13 = tensor.empty() : tensor<64x64xf32>
            %14 = linalg.fill ins(%cst : f32) outs(%13 : tensor<64x64xf32>) -> tensor<64x64xf32>
            %15 = arith.muli %12, %c64 : index
            %16 = arith.muli %arg12, %c64 : index
            %17 = scf.for %arg13 = %c0 to %c8 step %c1 iter_args(%arg14 = %14) -> (tensor<64x64xf32>) {
              %21 = arith.muli %arg13, %c64 : index
              %22 = arith.muli %15, %c512 : index
              %23 = arith.addi %22, %21 : index
              %24 = loom.reinterpret_cast %arg0 to offset : [%23], sizes : [%c64, %c64], strides : [%c512, %c1], reuse : [seq = false, spat = false, temp = true] : memref<*xf32> to memref<?x?xf32, strided<[?, ?], offset: ?>>
              %alloc = memref.alloc() : memref<64x64xf32>
              loom.copy %24, %alloc, interconnect : [], broadcast : [1, 1] : memref<?x?xf32, strided<[?, ?], offset: ?>> to memref<64x64xf32>
              %25 = bufferization.to_tensor %alloc restrict writable : memref<64x64xf32> to tensor<64x64xf32>
              %26 = arith.muli %21, %c512 : index
              %27 = arith.addi %26, %16 : index
              %28 = loom.reinterpret_cast %arg1 to offset : [%27], sizes : [%c64, %c64], strides : [%c512, %c1], reuse : [seq = false, spat = true, temp = true] : memref<*xf32> to memref<?x?xf32, strided<[?, ?], offset: ?>>
              %alloc_0 = memref.alloc() : memref<64x64xf32>
              loom.copy %28, %alloc_0, interconnect : [@vertical_links], broadcast : [8, 1] : memref<?x?xf32, strided<[?, ?], offset: ?>> to memref<64x64xf32>
              %29 = bufferization.to_tensor %alloc_0 restrict writable : memref<64x64xf32> to tensor<64x64xf32>
              %30 = linalg.matmul ins(%25, %29 : tensor<64x64xf32>, tensor<64x64xf32>) outs(%14 : tensor<64x64xf32>) -> tensor<64x64xf32>
              %31 = linalg.generic {indexing_maps = [affine_map<(d0, d1) -> (d0, d1)>, affine_map<(d0, d1) -> (d0, d1)>, affine_map<(d0, d1) -> (d0, d1)>], iterator_types = ["parallel", "parallel"]} ins(%arg14, %30 : tensor<64x64xf32>, tensor<64x64xf32>) outs(%arg14 : tensor<64x64xf32>) {
              ^bb0(%in: f32, %in_1: f32, %out: f32):
                %32 = arith.addf %in, %in_1 : f32
                linalg.yield %32 : f32
              } -> tensor<64x64xf32>
              scf.yield %31 : tensor<64x64xf32>
            }
            %18 = arith.muli %15, %c512 : index
            %19 = arith.addi %18, %16 : index
            %20 = loom.reinterpret_cast %arg2 to offset : [%19], sizes : [%c64, %c64], strides : [%c512, %c1], reuse : [seq = false, spat = false, temp = false] : memref<*xf32> to memref<?x?xf32, strided<[?, ?], offset: ?>>
            bufferization.materialize_in_destination %17 in writable %20 : (tensor<64x64xf32>, memref<?x?xf32, strided<[?, ?], offset: ?>>) -> ()
          }
        }
      } {loom.mapped_to = @y}
    } {loom.mapped_to = @x}
    return
  }
  func.func @matmul_kernel__d0i0_d1i0__f01__hoist_block_0__d_d(%arg0: memref<*xf32> {tt.divisibility = 16 : i32}, %arg1: memref<*xf32> {tt.divisibility = 16 : i32}, %arg2: memref<*xf32> {tt.divisibility = 16 : i32}, %arg3: index, %arg4: index, %arg5: index, %arg6: index, %arg7: index, %arg8: index) {
    %c32768 = arith.constant 32768 : index
    %c8 = arith.constant 8 : index
    %c0 = arith.constant 0 : index
    %cst = arith.constant 0.000000e+00 : f32
    %c64 = arith.constant 64 : index
    %c1 = arith.constant 1 : index
    %c512 = arith.constant 512 : index
    affine.parallel (%arg9) = (0) to (8) {
      affine.parallel (%arg10) = (0) to (8) {
        affine.for %arg11 = 0 to affine_map<()[s0] -> ((s0 ceildiv 8) ceildiv 8)>()[%arg3] {
          affine.for %arg12 = 0 to %arg4 {
            %12 = affine.apply affine_map<(d0, d1, d2) -> (d0 * 8 + d1 * 8 + d2)>(%arg9, %arg10, %arg11)
            %13 = tensor.empty() : tensor<64x64xf32>
            %14 = linalg.fill ins(%cst : f32) outs(%13 : tensor<64x64xf32>) -> tensor<64x64xf32>
            %15 = arith.muli %12, %c64 : index
            %16 = arith.muli %arg12, %c64 : index
            %17 = arith.muli %15, %c512 : index
            %18 = loom.reinterpret_cast %arg0 to offset : [%17], sizes : [%c8, %c64, %c64], strides : [%c32768, %c512, %c1], reuse : [seq = false, spat = false, temp = true] : memref<*xf32> to memref<?x?x?xf32, strided<[?, ?, ?], offset: ?>>
            %alloc = memref.alloc() : memref<8x64x64xf32>
            loom.copy %18, %alloc, interconnect : [], broadcast : [1, 1] : memref<?x?x?xf32, strided<[?, ?, ?], offset: ?>> to memref<8x64x64xf32>
            %19 = scf.for %arg13 = %c0 to %c8 step %c1 iter_args(%arg14 = %14) -> (tensor<64x64xf32>) {
              %23 = arith.muli %arg13, %c64 : index
              %subview = memref.subview %alloc[%arg13, 0, 0] [1, 64, 64] [1, 1, 1] : memref<8x64x64xf32> to memref<64x64xf32, strided<[64, 1], offset: ?>>
              %24 = bufferization.to_tensor %subview restrict writable : memref<64x64xf32, strided<[64, 1], offset: ?>> to tensor<64x64xf32>
              %25 = arith.muli %23, %c512 : index
              %26 = arith.addi %25, %16 : index
              %27 = loom.reinterpret_cast %arg1 to offset : [%26], sizes : [%c64, %c64], strides : [%c512, %c1], reuse : [seq = false, spat = true, temp = true] : memref<*xf32> to memref<?x?xf32, strided<[?, ?], offset: ?>>
              %alloc_0 = memref.alloc() : memref<64x64xf32>
              loom.copy %27, %alloc_0, interconnect : [], broadcast : [1, 1] : memref<?x?xf32, strided<[?, ?], offset: ?>> to memref<64x64xf32>
              %28 = bufferization.to_tensor %alloc_0 restrict writable : memref<64x64xf32> to tensor<64x64xf32>
              %29 = linalg.matmul ins(%24, %28 : tensor<64x64xf32>, tensor<64x64xf32>) outs(%14 : tensor<64x64xf32>) -> tensor<64x64xf32>
              %30 = linalg.generic {indexing_maps = [affine_map<(d0, d1) -> (d0, d1)>, affine_map<(d0, d1) -> (d0, d1)>, affine_map<(d0, d1) -> (d0, d1)>], iterator_types = ["parallel", "parallel"]} ins(%arg14, %29 : tensor<64x64xf32>, tensor<64x64xf32>) outs(%arg14 : tensor<64x64xf32>) {
              ^bb0(%in: f32, %in_1: f32, %out: f32):
                %31 = arith.addf %in, %in_1 : f32
                linalg.yield %31 : f32
              } -> tensor<64x64xf32>
              scf.yield %30 : tensor<64x64xf32>
            }
            %20 = arith.muli %15, %c512 : index
            %21 = arith.addi %20, %16 : index
            %22 = loom.reinterpret_cast %arg2 to offset : [%21], sizes : [%c64, %c64], strides : [%c512, %c1], reuse : [seq = false, spat = false, temp = false] : memref<*xf32> to memref<?x?xf32, strided<[?, ?], offset: ?>>
            bufferization.materialize_in_destination %19 in writable %22 : (tensor<64x64xf32>, memref<?x?xf32, strided<[?, ?], offset: ?>>) -> ()
          }
        }
      } {loom.mapped_to = @y}
    } {loom.mapped_to = @x}
    return
  }
  func.func @matmul_kernel__d0i0_d1i0__f01__hoist_block_0__d_a(%arg0: memref<*xf32> {tt.divisibility = 16 : i32}, %arg1: memref<*xf32> {tt.divisibility = 16 : i32}, %arg2: memref<*xf32> {tt.divisibility = 16 : i32}, %arg3: index, %arg4: index, %arg5: index, %arg6: index, %arg7: index, %arg8: index) {
    %c32768 = arith.constant 32768 : index
    %c8 = arith.constant 8 : index
    %c0 = arith.constant 0 : index
    %cst = arith.constant 0.000000e+00 : f32
    %c64 = arith.constant 64 : index
    %c1 = arith.constant 1 : index
    %c512 = arith.constant 512 : index
    affine.parallel (%arg9) = (0) to (8) {
      affine.parallel (%arg10) = (0) to (8) {
        affine.for %arg11 = 0 to affine_map<()[s0] -> ((s0 ceildiv 8) ceildiv 8)>()[%arg3] {
          affine.for %arg12 = 0 to %arg4 {
            %12 = affine.apply affine_map<(d0, d1, d2) -> (d0 * 8 + d1 * 8 + d2)>(%arg9, %arg10, %arg11)
            %13 = tensor.empty() : tensor<64x64xf32>
            %14 = linalg.fill ins(%cst : f32) outs(%13 : tensor<64x64xf32>) -> tensor<64x64xf32>
            %15 = arith.muli %12, %c64 : index
            %16 = arith.muli %arg12, %c64 : index
            %17 = arith.muli %15, %c512 : index
            %18 = loom.reinterpret_cast %arg0 to offset : [%17], sizes : [%c8, %c64, %c64], strides : [%c32768, %c512, %c1], reuse : [seq = false, spat = false, temp = true] : memref<*xf32> to memref<?x?x?xf32, strided<[?, ?, ?], offset: ?>>
            %alloc = memref.alloc() : memref<8x64x64xf32>
            loom.copy %18, %alloc, interconnect : [], broadcast : [1, 1] : memref<?x?x?xf32, strided<[?, ?, ?], offset: ?>> to memref<8x64x64xf32>
            %19 = scf.for %arg13 = %c0 to %c8 step %c1 iter_args(%arg14 = %14) -> (tensor<64x64xf32>) {
              %23 = arith.muli %arg13, %c64 : index
              %subview = memref.subview %alloc[%arg13, 0, 0] [1, 64, 64] [1, 1, 1] : memref<8x64x64xf32> to memref<64x64xf32, strided<[64, 1], offset: ?>>
              %24 = bufferization.to_tensor %subview restrict writable : memref<64x64xf32, strided<[64, 1], offset: ?>> to tensor<64x64xf32>
              %25 = arith.muli %23, %c512 : index
              %26 = arith.addi %25, %16 : index
              %27 = loom.reinterpret_cast %arg1 to offset : [%26], sizes : [%c64, %c64], strides : [%c512, %c1], reuse : [seq = false, spat = true, temp = true] : memref<*xf32> to memref<?x?xf32, strided<[?, ?], offset: ?>>
              %alloc_0 = memref.alloc() : memref<64x64xf32>
              loom.copy %27, %alloc_0, interconnect : [@horizontal_links, @vertical_links], broadcast : [8, 8] : memref<?x?xf32, strided<[?, ?], offset: ?>> to memref<64x64xf32>
              %28 = bufferization.to_tensor %alloc_0 restrict writable : memref<64x64xf32> to tensor<64x64xf32>
              %29 = linalg.matmul ins(%24, %28 : tensor<64x64xf32>, tensor<64x64xf32>) outs(%14 : tensor<64x64xf32>) -> tensor<64x64xf32>
              %30 = linalg.generic {indexing_maps = [affine_map<(d0, d1) -> (d0, d1)>, affine_map<(d0, d1) -> (d0, d1)>, affine_map<(d0, d1) -> (d0, d1)>], iterator_types = ["parallel", "parallel"]} ins(%arg14, %29 : tensor<64x64xf32>, tensor<64x64xf32>) outs(%arg14 : tensor<64x64xf32>) {
              ^bb0(%in: f32, %in_1: f32, %out: f32):
                %31 = arith.addf %in, %in_1 : f32
                linalg.yield %31 : f32
              } -> tensor<64x64xf32>
              scf.yield %30 : tensor<64x64xf32>
            }
            %20 = arith.muli %15, %c512 : index
            %21 = arith.addi %20, %16 : index
            %22 = loom.reinterpret_cast %arg2 to offset : [%21], sizes : [%c64, %c64], strides : [%c512, %c1], reuse : [seq = false, spat = false, temp = false] : memref<*xf32> to memref<?x?xf32, strided<[?, ?], offset: ?>>
            bufferization.materialize_in_destination %19 in writable %22 : (tensor<64x64xf32>, memref<?x?xf32, strided<[?, ?], offset: ?>>) -> ()
          }
        }
      } {loom.mapped_to = @y}
    } {loom.mapped_to = @x}
    return
  }
  func.func @matmul_kernel__d0i0_d1i0__f01__hoist_block_0__d_h(%arg0: memref<*xf32> {tt.divisibility = 16 : i32}, %arg1: memref<*xf32> {tt.divisibility = 16 : i32}, %arg2: memref<*xf32> {tt.divisibility = 16 : i32}, %arg3: index, %arg4: index, %arg5: index, %arg6: index, %arg7: index, %arg8: index) {
    %c32768 = arith.constant 32768 : index
    %c8 = arith.constant 8 : index
    %c0 = arith.constant 0 : index
    %cst = arith.constant 0.000000e+00 : f32
    %c64 = arith.constant 64 : index
    %c1 = arith.constant 1 : index
    %c512 = arith.constant 512 : index
    affine.parallel (%arg9) = (0) to (8) {
      affine.parallel (%arg10) = (0) to (8) {
        affine.for %arg11 = 0 to affine_map<()[s0] -> ((s0 ceildiv 8) ceildiv 8)>()[%arg3] {
          affine.for %arg12 = 0 to %arg4 {
            %12 = affine.apply affine_map<(d0, d1, d2) -> (d0 * 8 + d1 * 8 + d2)>(%arg9, %arg10, %arg11)
            %13 = tensor.empty() : tensor<64x64xf32>
            %14 = linalg.fill ins(%cst : f32) outs(%13 : tensor<64x64xf32>) -> tensor<64x64xf32>
            %15 = arith.muli %12, %c64 : index
            %16 = arith.muli %arg12, %c64 : index
            %17 = arith.muli %15, %c512 : index
            %18 = loom.reinterpret_cast %arg0 to offset : [%17], sizes : [%c8, %c64, %c64], strides : [%c32768, %c512, %c1], reuse : [seq = false, spat = false, temp = true] : memref<*xf32> to memref<?x?x?xf32, strided<[?, ?, ?], offset: ?>>
            %alloc = memref.alloc() : memref<8x64x64xf32>
            loom.copy %18, %alloc, interconnect : [], broadcast : [1, 1] : memref<?x?x?xf32, strided<[?, ?, ?], offset: ?>> to memref<8x64x64xf32>
            %19 = scf.for %arg13 = %c0 to %c8 step %c1 iter_args(%arg14 = %14) -> (tensor<64x64xf32>) {
              %23 = arith.muli %arg13, %c64 : index
              %subview = memref.subview %alloc[%arg13, 0, 0] [1, 64, 64] [1, 1, 1] : memref<8x64x64xf32> to memref<64x64xf32, strided<[64, 1], offset: ?>>
              %24 = bufferization.to_tensor %subview restrict writable : memref<64x64xf32, strided<[64, 1], offset: ?>> to tensor<64x64xf32>
              %25 = arith.muli %23, %c512 : index
              %26 = arith.addi %25, %16 : index
              %27 = loom.reinterpret_cast %arg1 to offset : [%26], sizes : [%c64, %c64], strides : [%c512, %c1], reuse : [seq = false, spat = true, temp = true] : memref<*xf32> to memref<?x?xf32, strided<[?, ?], offset: ?>>
              %alloc_0 = memref.alloc() : memref<64x64xf32>
              loom.copy %27, %alloc_0, interconnect : [@horizontal_links], broadcast : [1, 8] : memref<?x?xf32, strided<[?, ?], offset: ?>> to memref<64x64xf32>
              %28 = bufferization.to_tensor %alloc_0 restrict writable : memref<64x64xf32> to tensor<64x64xf32>
              %29 = linalg.matmul ins(%24, %28 : tensor<64x64xf32>, tensor<64x64xf32>) outs(%14 : tensor<64x64xf32>) -> tensor<64x64xf32>
              %30 = linalg.generic {indexing_maps = [affine_map<(d0, d1) -> (d0, d1)>, affine_map<(d0, d1) -> (d0, d1)>, affine_map<(d0, d1) -> (d0, d1)>], iterator_types = ["parallel", "parallel"]} ins(%arg14, %29 : tensor<64x64xf32>, tensor<64x64xf32>) outs(%arg14 : tensor<64x64xf32>) {
              ^bb0(%in: f32, %in_1: f32, %out: f32):
                %31 = arith.addf %in, %in_1 : f32
                linalg.yield %31 : f32
              } -> tensor<64x64xf32>
              scf.yield %30 : tensor<64x64xf32>
            }
            %20 = arith.muli %15, %c512 : index
            %21 = arith.addi %20, %16 : index
            %22 = loom.reinterpret_cast %arg2 to offset : [%21], sizes : [%c64, %c64], strides : [%c512, %c1], reuse : [seq = false, spat = false, temp = false] : memref<*xf32> to memref<?x?xf32, strided<[?, ?], offset: ?>>
            bufferization.materialize_in_destination %19 in writable %22 : (tensor<64x64xf32>, memref<?x?xf32, strided<[?, ?], offset: ?>>) -> ()
          }
        }
      } {loom.mapped_to = @y}
    } {loom.mapped_to = @x}
    return
  }
  func.func @matmul_kernel__d0i0_d1i0__f01__hoist_block_0__d_v(%arg0: memref<*xf32> {tt.divisibility = 16 : i32}, %arg1: memref<*xf32> {tt.divisibility = 16 : i32}, %arg2: memref<*xf32> {tt.divisibility = 16 : i32}, %arg3: index, %arg4: index, %arg5: index, %arg6: index, %arg7: index, %arg8: index) {
    %c32768 = arith.constant 32768 : index
    %c8 = arith.constant 8 : index
    %c0 = arith.constant 0 : index
    %cst = arith.constant 0.000000e+00 : f32
    %c64 = arith.constant 64 : index
    %c1 = arith.constant 1 : index
    %c512 = arith.constant 512 : index
    affine.parallel (%arg9) = (0) to (8) {
      affine.parallel (%arg10) = (0) to (8) {
        affine.for %arg11 = 0 to affine_map<()[s0] -> ((s0 ceildiv 8) ceildiv 8)>()[%arg3] {
          affine.for %arg12 = 0 to %arg4 {
            %12 = affine.apply affine_map<(d0, d1, d2) -> (d0 * 8 + d1 * 8 + d2)>(%arg9, %arg10, %arg11)
            %13 = tensor.empty() : tensor<64x64xf32>
            %14 = linalg.fill ins(%cst : f32) outs(%13 : tensor<64x64xf32>) -> tensor<64x64xf32>
            %15 = arith.muli %12, %c64 : index
            %16 = arith.muli %arg12, %c64 : index
            %17 = arith.muli %15, %c512 : index
            %18 = loom.reinterpret_cast %arg0 to offset : [%17], sizes : [%c8, %c64, %c64], strides : [%c32768, %c512, %c1], reuse : [seq = false, spat = false, temp = true] : memref<*xf32> to memref<?x?x?xf32, strided<[?, ?, ?], offset: ?>>
            %alloc = memref.alloc() : memref<8x64x64xf32>
            loom.copy %18, %alloc, interconnect : [], broadcast : [1, 1] : memref<?x?x?xf32, strided<[?, ?, ?], offset: ?>> to memref<8x64x64xf32>
            %19 = scf.for %arg13 = %c0 to %c8 step %c1 iter_args(%arg14 = %14) -> (tensor<64x64xf32>) {
              %23 = arith.muli %arg13, %c64 : index
              %subview = memref.subview %alloc[%arg13, 0, 0] [1, 64, 64] [1, 1, 1] : memref<8x64x64xf32> to memref<64x64xf32, strided<[64, 1], offset: ?>>
              %24 = bufferization.to_tensor %subview restrict writable : memref<64x64xf32, strided<[64, 1], offset: ?>> to tensor<64x64xf32>
              %25 = arith.muli %23, %c512 : index
              %26 = arith.addi %25, %16 : index
              %27 = loom.reinterpret_cast %arg1 to offset : [%26], sizes : [%c64, %c64], strides : [%c512, %c1], reuse : [seq = false, spat = true, temp = true] : memref<*xf32> to memref<?x?xf32, strided<[?, ?], offset: ?>>
              %alloc_0 = memref.alloc() : memref<64x64xf32>
              loom.copy %27, %alloc_0, interconnect : [@vertical_links], broadcast : [8, 1] : memref<?x?xf32, strided<[?, ?], offset: ?>> to memref<64x64xf32>
              %28 = bufferization.to_tensor %alloc_0 restrict writable : memref<64x64xf32> to tensor<64x64xf32>
              %29 = linalg.matmul ins(%24, %28 : tensor<64x64xf32>, tensor<64x64xf32>) outs(%14 : tensor<64x64xf32>) -> tensor<64x64xf32>
              %30 = linalg.generic {indexing_maps = [affine_map<(d0, d1) -> (d0, d1)>, affine_map<(d0, d1) -> (d0, d1)>, affine_map<(d0, d1) -> (d0, d1)>], iterator_types = ["parallel", "parallel"]} ins(%arg14, %29 : tensor<64x64xf32>, tensor<64x64xf32>) outs(%arg14 : tensor<64x64xf32>) {
              ^bb0(%in: f32, %in_1: f32, %out: f32):
                %31 = arith.addf %in, %in_1 : f32
                linalg.yield %31 : f32
              } -> tensor<64x64xf32>
              scf.yield %30 : tensor<64x64xf32>
            }
            %20 = arith.muli %15, %c512 : index
            %21 = arith.addi %20, %16 : index
            %22 = loom.reinterpret_cast %arg2 to offset : [%21], sizes : [%c64, %c64], strides : [%c512, %c1], reuse : [seq = false, spat = false, temp = false] : memref<*xf32> to memref<?x?xf32, strided<[?, ?], offset: ?>>
            bufferization.materialize_in_destination %19 in writable %22 : (tensor<64x64xf32>, memref<?x?xf32, strided<[?, ?], offset: ?>>) -> ()
          }
        }
      } {loom.mapped_to = @y}
    } {loom.mapped_to = @x}
    return
  }
  func.func @matmul_kernel__d0i0_d1i0__f01__hoist_block_1__d_d(%arg0: memref<*xf32> {tt.divisibility = 16 : i32}, %arg1: memref<*xf32> {tt.divisibility = 16 : i32}, %arg2: memref<*xf32> {tt.divisibility = 16 : i32}, %arg3: index, %arg4: index, %arg5: index, %arg6: index, %arg7: index, %arg8: index) {
    %c32768 = arith.constant 32768 : index
    %c8 = arith.constant 8 : index
    %c0 = arith.constant 0 : index
    %cst = arith.constant 0.000000e+00 : f32
    %c64 = arith.constant 64 : index
    %c1 = arith.constant 1 : index
    %c512 = arith.constant 512 : index
    affine.parallel (%arg9) = (0) to (8) {
      affine.parallel (%arg10) = (0) to (8) {
        affine.for %arg11 = 0 to affine_map<()[s0] -> ((s0 ceildiv 8) ceildiv 8)>()[%arg3] {
          affine.for %arg12 = 0 to %arg4 {
            %12 = affine.apply affine_map<(d0, d1, d2) -> (d0 * 8 + d1 * 8 + d2)>(%arg9, %arg10, %arg11)
            %13 = tensor.empty() : tensor<64x64xf32>
            %14 = linalg.fill ins(%cst : f32) outs(%13 : tensor<64x64xf32>) -> tensor<64x64xf32>
            %15 = arith.muli %12, %c64 : index
            %16 = arith.muli %arg12, %c64 : index
            %17 = loom.reinterpret_cast %arg1 to offset : [%16], sizes : [%c8, %c64, %c64], strides : [%c32768, %c512, %c1], reuse : [seq = false, spat = true, temp = true] : memref<*xf32> to memref<?x?x?xf32, strided<[?, ?, ?], offset: ?>>
            %alloc = memref.alloc() : memref<8x64x64xf32>
            loom.copy %17, %alloc, interconnect : [], broadcast : [1, 1] : memref<?x?x?xf32, strided<[?, ?, ?], offset: ?>> to memref<8x64x64xf32>
            %18 = scf.for %arg13 = %c0 to %c8 step %c1 iter_args(%arg14 = %14) -> (tensor<64x64xf32>) {
              %22 = arith.muli %arg13, %c64 : index
              %23 = arith.muli %15, %c512 : index
              %24 = arith.addi %23, %22 : index
              %25 = loom.reinterpret_cast %arg0 to offset : [%24], sizes : [%c64, %c64], strides : [%c512, %c1], reuse : [seq = false, spat = false, temp = true] : memref<*xf32> to memref<?x?xf32, strided<[?, ?], offset: ?>>
              %alloc_0 = memref.alloc() : memref<64x64xf32>
              loom.copy %25, %alloc_0, interconnect : [], broadcast : [1, 1] : memref<?x?xf32, strided<[?, ?], offset: ?>> to memref<64x64xf32>
              %26 = bufferization.to_tensor %alloc_0 restrict writable : memref<64x64xf32> to tensor<64x64xf32>
              %subview = memref.subview %alloc[%arg13, 0, 0] [1, 64, 64] [1, 1, 1] : memref<8x64x64xf32> to memref<64x64xf32, strided<[64, 1], offset: ?>>
              %27 = bufferization.to_tensor %subview restrict writable : memref<64x64xf32, strided<[64, 1], offset: ?>> to tensor<64x64xf32>
              %28 = linalg.matmul ins(%26, %27 : tensor<64x64xf32>, tensor<64x64xf32>) outs(%14 : tensor<64x64xf32>) -> tensor<64x64xf32>
              %29 = linalg.generic {indexing_maps = [affine_map<(d0, d1) -> (d0, d1)>, affine_map<(d0, d1) -> (d0, d1)>, affine_map<(d0, d1) -> (d0, d1)>], iterator_types = ["parallel", "parallel"]} ins(%arg14, %28 : tensor<64x64xf32>, tensor<64x64xf32>) outs(%arg14 : tensor<64x64xf32>) {
              ^bb0(%in: f32, %in_1: f32, %out: f32):
                %30 = arith.addf %in, %in_1 : f32
                linalg.yield %30 : f32
              } -> tensor<64x64xf32>
              scf.yield %29 : tensor<64x64xf32>
            }
            %19 = arith.muli %15, %c512 : index
            %20 = arith.addi %19, %16 : index
            %21 = loom.reinterpret_cast %arg2 to offset : [%20], sizes : [%c64, %c64], strides : [%c512, %c1], reuse : [seq = false, spat = false, temp = false] : memref<*xf32> to memref<?x?xf32, strided<[?, ?], offset: ?>>
            bufferization.materialize_in_destination %18 in writable %21 : (tensor<64x64xf32>, memref<?x?xf32, strided<[?, ?], offset: ?>>) -> ()
          }
        }
      } {loom.mapped_to = @y}
    } {loom.mapped_to = @x}
    return
  }
  func.func @matmul_kernel__d0i0_d1i0__f01__hoist_block_1__a_d(%arg0: memref<*xf32> {tt.divisibility = 16 : i32}, %arg1: memref<*xf32> {tt.divisibility = 16 : i32}, %arg2: memref<*xf32> {tt.divisibility = 16 : i32}, %arg3: index, %arg4: index, %arg5: index, %arg6: index, %arg7: index, %arg8: index) {
    %c32768 = arith.constant 32768 : index
    %c8 = arith.constant 8 : index
    %c0 = arith.constant 0 : index
    %cst = arith.constant 0.000000e+00 : f32
    %c64 = arith.constant 64 : index
    %c1 = arith.constant 1 : index
    %c512 = arith.constant 512 : index
    affine.parallel (%arg9) = (0) to (8) {
      affine.parallel (%arg10) = (0) to (8) {
        affine.for %arg11 = 0 to affine_map<()[s0] -> ((s0 ceildiv 8) ceildiv 8)>()[%arg3] {
          affine.for %arg12 = 0 to %arg4 {
            %12 = affine.apply affine_map<(d0, d1, d2) -> (d0 * 8 + d1 * 8 + d2)>(%arg9, %arg10, %arg11)
            %13 = tensor.empty() : tensor<64x64xf32>
            %14 = linalg.fill ins(%cst : f32) outs(%13 : tensor<64x64xf32>) -> tensor<64x64xf32>
            %15 = arith.muli %12, %c64 : index
            %16 = arith.muli %arg12, %c64 : index
            %17 = loom.reinterpret_cast %arg1 to offset : [%16], sizes : [%c8, %c64, %c64], strides : [%c32768, %c512, %c1], reuse : [seq = false, spat = true, temp = true] : memref<*xf32> to memref<?x?x?xf32, strided<[?, ?, ?], offset: ?>>
            %alloc = memref.alloc() : memref<8x64x64xf32>
            loom.copy %17, %alloc, interconnect : [@horizontal_links, @vertical_links], broadcast : [8, 8] : memref<?x?x?xf32, strided<[?, ?, ?], offset: ?>> to memref<8x64x64xf32>
            %18 = scf.for %arg13 = %c0 to %c8 step %c1 iter_args(%arg14 = %14) -> (tensor<64x64xf32>) {
              %22 = arith.muli %arg13, %c64 : index
              %23 = arith.muli %15, %c512 : index
              %24 = arith.addi %23, %22 : index
              %25 = loom.reinterpret_cast %arg0 to offset : [%24], sizes : [%c64, %c64], strides : [%c512, %c1], reuse : [seq = false, spat = false, temp = true] : memref<*xf32> to memref<?x?xf32, strided<[?, ?], offset: ?>>
              %alloc_0 = memref.alloc() : memref<64x64xf32>
              loom.copy %25, %alloc_0, interconnect : [], broadcast : [1, 1] : memref<?x?xf32, strided<[?, ?], offset: ?>> to memref<64x64xf32>
              %26 = bufferization.to_tensor %alloc_0 restrict writable : memref<64x64xf32> to tensor<64x64xf32>
              %subview = memref.subview %alloc[%arg13, 0, 0] [1, 64, 64] [1, 1, 1] : memref<8x64x64xf32> to memref<64x64xf32, strided<[64, 1], offset: ?>>
              %27 = bufferization.to_tensor %subview restrict writable : memref<64x64xf32, strided<[64, 1], offset: ?>> to tensor<64x64xf32>
              %28 = linalg.matmul ins(%26, %27 : tensor<64x64xf32>, tensor<64x64xf32>) outs(%14 : tensor<64x64xf32>) -> tensor<64x64xf32>
              %29 = linalg.generic {indexing_maps = [affine_map<(d0, d1) -> (d0, d1)>, affine_map<(d0, d1) -> (d0, d1)>, affine_map<(d0, d1) -> (d0, d1)>], iterator_types = ["parallel", "parallel"]} ins(%arg14, %28 : tensor<64x64xf32>, tensor<64x64xf32>) outs(%arg14 : tensor<64x64xf32>) {
              ^bb0(%in: f32, %in_1: f32, %out: f32):
                %30 = arith.addf %in, %in_1 : f32
                linalg.yield %30 : f32
              } -> tensor<64x64xf32>
              scf.yield %29 : tensor<64x64xf32>
            }
            %19 = arith.muli %15, %c512 : index
            %20 = arith.addi %19, %16 : index
            %21 = loom.reinterpret_cast %arg2 to offset : [%20], sizes : [%c64, %c64], strides : [%c512, %c1], reuse : [seq = false, spat = false, temp = false] : memref<*xf32> to memref<?x?xf32, strided<[?, ?], offset: ?>>
            bufferization.materialize_in_destination %18 in writable %21 : (tensor<64x64xf32>, memref<?x?xf32, strided<[?, ?], offset: ?>>) -> ()
          }
        }
      } {loom.mapped_to = @y}
    } {loom.mapped_to = @x}
    return
  }
  func.func @matmul_kernel__d0i0_d1i0__f01__hoist_block_1__h_d(%arg0: memref<*xf32> {tt.divisibility = 16 : i32}, %arg1: memref<*xf32> {tt.divisibility = 16 : i32}, %arg2: memref<*xf32> {tt.divisibility = 16 : i32}, %arg3: index, %arg4: index, %arg5: index, %arg6: index, %arg7: index, %arg8: index) {
    %c32768 = arith.constant 32768 : index
    %c8 = arith.constant 8 : index
    %c0 = arith.constant 0 : index
    %cst = arith.constant 0.000000e+00 : f32
    %c64 = arith.constant 64 : index
    %c1 = arith.constant 1 : index
    %c512 = arith.constant 512 : index
    affine.parallel (%arg9) = (0) to (8) {
      affine.parallel (%arg10) = (0) to (8) {
        affine.for %arg11 = 0 to affine_map<()[s0] -> ((s0 ceildiv 8) ceildiv 8)>()[%arg3] {
          affine.for %arg12 = 0 to %arg4 {
            %12 = affine.apply affine_map<(d0, d1, d2) -> (d0 * 8 + d1 * 8 + d2)>(%arg9, %arg10, %arg11)
            %13 = tensor.empty() : tensor<64x64xf32>
            %14 = linalg.fill ins(%cst : f32) outs(%13 : tensor<64x64xf32>) -> tensor<64x64xf32>
            %15 = arith.muli %12, %c64 : index
            %16 = arith.muli %arg12, %c64 : index
            %17 = loom.reinterpret_cast %arg1 to offset : [%16], sizes : [%c8, %c64, %c64], strides : [%c32768, %c512, %c1], reuse : [seq = false, spat = true, temp = true] : memref<*xf32> to memref<?x?x?xf32, strided<[?, ?, ?], offset: ?>>
            %alloc = memref.alloc() : memref<8x64x64xf32>
            loom.copy %17, %alloc, interconnect : [@horizontal_links], broadcast : [1, 8] : memref<?x?x?xf32, strided<[?, ?, ?], offset: ?>> to memref<8x64x64xf32>
            %18 = scf.for %arg13 = %c0 to %c8 step %c1 iter_args(%arg14 = %14) -> (tensor<64x64xf32>) {
              %22 = arith.muli %arg13, %c64 : index
              %23 = arith.muli %15, %c512 : index
              %24 = arith.addi %23, %22 : index
              %25 = loom.reinterpret_cast %arg0 to offset : [%24], sizes : [%c64, %c64], strides : [%c512, %c1], reuse : [seq = false, spat = false, temp = true] : memref<*xf32> to memref<?x?xf32, strided<[?, ?], offset: ?>>
              %alloc_0 = memref.alloc() : memref<64x64xf32>
              loom.copy %25, %alloc_0, interconnect : [], broadcast : [1, 1] : memref<?x?xf32, strided<[?, ?], offset: ?>> to memref<64x64xf32>
              %26 = bufferization.to_tensor %alloc_0 restrict writable : memref<64x64xf32> to tensor<64x64xf32>
              %subview = memref.subview %alloc[%arg13, 0, 0] [1, 64, 64] [1, 1, 1] : memref<8x64x64xf32> to memref<64x64xf32, strided<[64, 1], offset: ?>>
              %27 = bufferization.to_tensor %subview restrict writable : memref<64x64xf32, strided<[64, 1], offset: ?>> to tensor<64x64xf32>
              %28 = linalg.matmul ins(%26, %27 : tensor<64x64xf32>, tensor<64x64xf32>) outs(%14 : tensor<64x64xf32>) -> tensor<64x64xf32>
              %29 = linalg.generic {indexing_maps = [affine_map<(d0, d1) -> (d0, d1)>, affine_map<(d0, d1) -> (d0, d1)>, affine_map<(d0, d1) -> (d0, d1)>], iterator_types = ["parallel", "parallel"]} ins(%arg14, %28 : tensor<64x64xf32>, tensor<64x64xf32>) outs(%arg14 : tensor<64x64xf32>) {
              ^bb0(%in: f32, %in_1: f32, %out: f32):
                %30 = arith.addf %in, %in_1 : f32
                linalg.yield %30 : f32
              } -> tensor<64x64xf32>
              scf.yield %29 : tensor<64x64xf32>
            }
            %19 = arith.muli %15, %c512 : index
            %20 = arith.addi %19, %16 : index
            %21 = loom.reinterpret_cast %arg2 to offset : [%20], sizes : [%c64, %c64], strides : [%c512, %c1], reuse : [seq = false, spat = false, temp = false] : memref<*xf32> to memref<?x?xf32, strided<[?, ?], offset: ?>>
            bufferization.materialize_in_destination %18 in writable %21 : (tensor<64x64xf32>, memref<?x?xf32, strided<[?, ?], offset: ?>>) -> ()
          }
        }
      } {loom.mapped_to = @y}
    } {loom.mapped_to = @x}
    return
  }
  func.func @matmul_kernel__d0i0_d1i0__f01__hoist_block_1__v_d(%arg0: memref<*xf32> {tt.divisibility = 16 : i32}, %arg1: memref<*xf32> {tt.divisibility = 16 : i32}, %arg2: memref<*xf32> {tt.divisibility = 16 : i32}, %arg3: index, %arg4: index, %arg5: index, %arg6: index, %arg7: index, %arg8: index) {
    %c32768 = arith.constant 32768 : index
    %c8 = arith.constant 8 : index
    %c0 = arith.constant 0 : index
    %cst = arith.constant 0.000000e+00 : f32
    %c64 = arith.constant 64 : index
    %c1 = arith.constant 1 : index
    %c512 = arith.constant 512 : index
    affine.parallel (%arg9) = (0) to (8) {
      affine.parallel (%arg10) = (0) to (8) {
        affine.for %arg11 = 0 to affine_map<()[s0] -> ((s0 ceildiv 8) ceildiv 8)>()[%arg3] {
          affine.for %arg12 = 0 to %arg4 {
            %12 = affine.apply affine_map<(d0, d1, d2) -> (d0 * 8 + d1 * 8 + d2)>(%arg9, %arg10, %arg11)
            %13 = tensor.empty() : tensor<64x64xf32>
            %14 = linalg.fill ins(%cst : f32) outs(%13 : tensor<64x64xf32>) -> tensor<64x64xf32>
            %15 = arith.muli %12, %c64 : index
            %16 = arith.muli %arg12, %c64 : index
            %17 = loom.reinterpret_cast %arg1 to offset : [%16], sizes : [%c8, %c64, %c64], strides : [%c32768, %c512, %c1], reuse : [seq = false, spat = true, temp = true] : memref<*xf32> to memref<?x?x?xf32, strided<[?, ?, ?], offset: ?>>
            %alloc = memref.alloc() : memref<8x64x64xf32>
            loom.copy %17, %alloc, interconnect : [@vertical_links], broadcast : [8, 1] : memref<?x?x?xf32, strided<[?, ?, ?], offset: ?>> to memref<8x64x64xf32>
            %18 = scf.for %arg13 = %c0 to %c8 step %c1 iter_args(%arg14 = %14) -> (tensor<64x64xf32>) {
              %22 = arith.muli %arg13, %c64 : index
              %23 = arith.muli %15, %c512 : index
              %24 = arith.addi %23, %22 : index
              %25 = loom.reinterpret_cast %arg0 to offset : [%24], sizes : [%c64, %c64], strides : [%c512, %c1], reuse : [seq = false, spat = false, temp = true] : memref<*xf32> to memref<?x?xf32, strided<[?, ?], offset: ?>>
              %alloc_0 = memref.alloc() : memref<64x64xf32>
              loom.copy %25, %alloc_0, interconnect : [], broadcast : [1, 1] : memref<?x?xf32, strided<[?, ?], offset: ?>> to memref<64x64xf32>
              %26 = bufferization.to_tensor %alloc_0 restrict writable : memref<64x64xf32> to tensor<64x64xf32>
              %subview = memref.subview %alloc[%arg13, 0, 0] [1, 64, 64] [1, 1, 1] : memref<8x64x64xf32> to memref<64x64xf32, strided<[64, 1], offset: ?>>
              %27 = bufferization.to_tensor %subview restrict writable : memref<64x64xf32, strided<[64, 1], offset: ?>> to tensor<64x64xf32>
              %28 = linalg.matmul ins(%26, %27 : tensor<64x64xf32>, tensor<64x64xf32>) outs(%14 : tensor<64x64xf32>) -> tensor<64x64xf32>
              %29 = linalg.generic {indexing_maps = [affine_map<(d0, d1) -> (d0, d1)>, affine_map<(d0, d1) -> (d0, d1)>, affine_map<(d0, d1) -> (d0, d1)>], iterator_types = ["parallel", "parallel"]} ins(%arg14, %28 : tensor<64x64xf32>, tensor<64x64xf32>) outs(%arg14 : tensor<64x64xf32>) {
              ^bb0(%in: f32, %in_1: f32, %out: f32):
                %30 = arith.addf %in, %in_1 : f32
                linalg.yield %30 : f32
              } -> tensor<64x64xf32>
              scf.yield %29 : tensor<64x64xf32>
            }
            %19 = arith.muli %15, %c512 : index
            %20 = arith.addi %19, %16 : index
            %21 = loom.reinterpret_cast %arg2 to offset : [%20], sizes : [%c64, %c64], strides : [%c512, %c1], reuse : [seq = false, spat = false, temp = false] : memref<*xf32> to memref<?x?xf32, strided<[?, ?], offset: ?>>
            bufferization.materialize_in_destination %18 in writable %21 : (tensor<64x64xf32>, memref<?x?xf32, strided<[?, ?], offset: ?>>) -> ()
          }
        }
      } {loom.mapped_to = @y}
    } {loom.mapped_to = @x}
    return
  }
  func.func @matmul_kernel__d0i0_d1i0__f10__d_d(%arg0: memref<*xf32> {tt.divisibility = 16 : i32}, %arg1: memref<*xf32> {tt.divisibility = 16 : i32}, %arg2: memref<*xf32> {tt.divisibility = 16 : i32}, %arg3: index, %arg4: index, %arg5: index, %arg6: index, %arg7: index, %arg8: index) {
    %c8 = arith.constant 8 : index
    %c0 = arith.constant 0 : index
    %cst = arith.constant 0.000000e+00 : f32
    %c64 = arith.constant 64 : index
    %c1 = arith.constant 1 : index
    %c512 = arith.constant 512 : index
    affine.parallel (%arg9) = (0) to (8) {
      affine.parallel (%arg10) = (0) to (8) {
        affine.for %arg11 = 0 to %arg4 {
          affine.for %arg12 = 0 to affine_map<()[s0] -> ((s0 ceildiv 8) ceildiv 8)>()[%arg3] {
            %12 = affine.apply affine_map<(d0, d1, d2) -> (d0 * 8 + d1 * 8 + d2)>(%arg9, %arg10, %arg12)
            %13 = tensor.empty() : tensor<64x64xf32>
            %14 = linalg.fill ins(%cst : f32) outs(%13 : tensor<64x64xf32>) -> tensor<64x64xf32>
            %15 = arith.muli %12, %c64 : index
            %16 = arith.muli %arg11, %c64 : index
            %17 = scf.for %arg13 = %c0 to %c8 step %c1 iter_args(%arg14 = %14) -> (tensor<64x64xf32>) {
              %21 = arith.muli %arg13, %c64 : index
              %22 = arith.muli %15, %c512 : index
              %23 = arith.addi %22, %21 : index
              %24 = loom.reinterpret_cast %arg0 to offset : [%23], sizes : [%c64, %c64], strides : [%c512, %c1], reuse : [seq = false, spat = false, temp = true] : memref<*xf32> to memref<?x?xf32, strided<[?, ?], offset: ?>>
              %alloc = memref.alloc() : memref<64x64xf32>
              loom.copy %24, %alloc, interconnect : [], broadcast : [1, 1] : memref<?x?xf32, strided<[?, ?], offset: ?>> to memref<64x64xf32>
              %25 = bufferization.to_tensor %alloc restrict writable : memref<64x64xf32> to tensor<64x64xf32>
              %26 = arith.muli %21, %c512 : index
              %27 = arith.addi %26, %16 : index
              %28 = loom.reinterpret_cast %arg1 to offset : [%27], sizes : [%c64, %c64], strides : [%c512, %c1], reuse : [seq = false, spat = true, temp = true] : memref<*xf32> to memref<?x?xf32, strided<[?, ?], offset: ?>>
              %alloc_0 = memref.alloc() : memref<64x64xf32>
              loom.copy %28, %alloc_0, interconnect : [], broadcast : [1, 1] : memref<?x?xf32, strided<[?, ?], offset: ?>> to memref<64x64xf32>
              %29 = bufferization.to_tensor %alloc_0 restrict writable : memref<64x64xf32> to tensor<64x64xf32>
              %30 = linalg.matmul ins(%25, %29 : tensor<64x64xf32>, tensor<64x64xf32>) outs(%14 : tensor<64x64xf32>) -> tensor<64x64xf32>
              %31 = linalg.generic {indexing_maps = [affine_map<(d0, d1) -> (d0, d1)>, affine_map<(d0, d1) -> (d0, d1)>, affine_map<(d0, d1) -> (d0, d1)>], iterator_types = ["parallel", "parallel"]} ins(%arg14, %30 : tensor<64x64xf32>, tensor<64x64xf32>) outs(%arg14 : tensor<64x64xf32>) {
              ^bb0(%in: f32, %in_1: f32, %out: f32):
                %32 = arith.addf %in, %in_1 : f32
                linalg.yield %32 : f32
              } -> tensor<64x64xf32>
              scf.yield %31 : tensor<64x64xf32>
            }
            %18 = arith.muli %15, %c512 : index
            %19 = arith.addi %18, %16 : index
            %20 = loom.reinterpret_cast %arg2 to offset : [%19], sizes : [%c64, %c64], strides : [%c512, %c1], reuse : [seq = false, spat = false, temp = false] : memref<*xf32> to memref<?x?xf32, strided<[?, ?], offset: ?>>
            bufferization.materialize_in_destination %17 in writable %20 : (tensor<64x64xf32>, memref<?x?xf32, strided<[?, ?], offset: ?>>) -> ()
          }
        }
      } {loom.mapped_to = @y}
    } {loom.mapped_to = @x}
    return
  }
  func.func @matmul_kernel__d0i0_d1i0__f10__d_a(%arg0: memref<*xf32> {tt.divisibility = 16 : i32}, %arg1: memref<*xf32> {tt.divisibility = 16 : i32}, %arg2: memref<*xf32> {tt.divisibility = 16 : i32}, %arg3: index, %arg4: index, %arg5: index, %arg6: index, %arg7: index, %arg8: index) {
    %c8 = arith.constant 8 : index
    %c0 = arith.constant 0 : index
    %cst = arith.constant 0.000000e+00 : f32
    %c64 = arith.constant 64 : index
    %c1 = arith.constant 1 : index
    %c512 = arith.constant 512 : index
    affine.parallel (%arg9) = (0) to (8) {
      affine.parallel (%arg10) = (0) to (8) {
        affine.for %arg11 = 0 to %arg4 {
          affine.for %arg12 = 0 to affine_map<()[s0] -> ((s0 ceildiv 8) ceildiv 8)>()[%arg3] {
            %12 = affine.apply affine_map<(d0, d1, d2) -> (d0 * 8 + d1 * 8 + d2)>(%arg9, %arg10, %arg12)
            %13 = tensor.empty() : tensor<64x64xf32>
            %14 = linalg.fill ins(%cst : f32) outs(%13 : tensor<64x64xf32>) -> tensor<64x64xf32>
            %15 = arith.muli %12, %c64 : index
            %16 = arith.muli %arg11, %c64 : index
            %17 = scf.for %arg13 = %c0 to %c8 step %c1 iter_args(%arg14 = %14) -> (tensor<64x64xf32>) {
              %21 = arith.muli %arg13, %c64 : index
              %22 = arith.muli %15, %c512 : index
              %23 = arith.addi %22, %21 : index
              %24 = loom.reinterpret_cast %arg0 to offset : [%23], sizes : [%c64, %c64], strides : [%c512, %c1], reuse : [seq = false, spat = false, temp = true] : memref<*xf32> to memref<?x?xf32, strided<[?, ?], offset: ?>>
              %alloc = memref.alloc() : memref<64x64xf32>
              loom.copy %24, %alloc, interconnect : [], broadcast : [1, 1] : memref<?x?xf32, strided<[?, ?], offset: ?>> to memref<64x64xf32>
              %25 = bufferization.to_tensor %alloc restrict writable : memref<64x64xf32> to tensor<64x64xf32>
              %26 = arith.muli %21, %c512 : index
              %27 = arith.addi %26, %16 : index
              %28 = loom.reinterpret_cast %arg1 to offset : [%27], sizes : [%c64, %c64], strides : [%c512, %c1], reuse : [seq = false, spat = true, temp = true] : memref<*xf32> to memref<?x?xf32, strided<[?, ?], offset: ?>>
              %alloc_0 = memref.alloc() : memref<64x64xf32>
              loom.copy %28, %alloc_0, interconnect : [@horizontal_links, @vertical_links], broadcast : [8, 8] : memref<?x?xf32, strided<[?, ?], offset: ?>> to memref<64x64xf32>
              %29 = bufferization.to_tensor %alloc_0 restrict writable : memref<64x64xf32> to tensor<64x64xf32>
              %30 = linalg.matmul ins(%25, %29 : tensor<64x64xf32>, tensor<64x64xf32>) outs(%14 : tensor<64x64xf32>) -> tensor<64x64xf32>
              %31 = linalg.generic {indexing_maps = [affine_map<(d0, d1) -> (d0, d1)>, affine_map<(d0, d1) -> (d0, d1)>, affine_map<(d0, d1) -> (d0, d1)>], iterator_types = ["parallel", "parallel"]} ins(%arg14, %30 : tensor<64x64xf32>, tensor<64x64xf32>) outs(%arg14 : tensor<64x64xf32>) {
              ^bb0(%in: f32, %in_1: f32, %out: f32):
                %32 = arith.addf %in, %in_1 : f32
                linalg.yield %32 : f32
              } -> tensor<64x64xf32>
              scf.yield %31 : tensor<64x64xf32>
            }
            %18 = arith.muli %15, %c512 : index
            %19 = arith.addi %18, %16 : index
            %20 = loom.reinterpret_cast %arg2 to offset : [%19], sizes : [%c64, %c64], strides : [%c512, %c1], reuse : [seq = false, spat = false, temp = false] : memref<*xf32> to memref<?x?xf32, strided<[?, ?], offset: ?>>
            bufferization.materialize_in_destination %17 in writable %20 : (tensor<64x64xf32>, memref<?x?xf32, strided<[?, ?], offset: ?>>) -> ()
          }
        }
      } {loom.mapped_to = @y}
    } {loom.mapped_to = @x}
    return
  }
  func.func @matmul_kernel__d0i0_d1i0__f10__d_h(%arg0: memref<*xf32> {tt.divisibility = 16 : i32}, %arg1: memref<*xf32> {tt.divisibility = 16 : i32}, %arg2: memref<*xf32> {tt.divisibility = 16 : i32}, %arg3: index, %arg4: index, %arg5: index, %arg6: index, %arg7: index, %arg8: index) {
    %c8 = arith.constant 8 : index
    %c0 = arith.constant 0 : index
    %cst = arith.constant 0.000000e+00 : f32
    %c64 = arith.constant 64 : index
    %c1 = arith.constant 1 : index
    %c512 = arith.constant 512 : index
    affine.parallel (%arg9) = (0) to (8) {
      affine.parallel (%arg10) = (0) to (8) {
        affine.for %arg11 = 0 to %arg4 {
          affine.for %arg12 = 0 to affine_map<()[s0] -> ((s0 ceildiv 8) ceildiv 8)>()[%arg3] {
            %12 = affine.apply affine_map<(d0, d1, d2) -> (d0 * 8 + d1 * 8 + d2)>(%arg9, %arg10, %arg12)
            %13 = tensor.empty() : tensor<64x64xf32>
            %14 = linalg.fill ins(%cst : f32) outs(%13 : tensor<64x64xf32>) -> tensor<64x64xf32>
            %15 = arith.muli %12, %c64 : index
            %16 = arith.muli %arg11, %c64 : index
            %17 = scf.for %arg13 = %c0 to %c8 step %c1 iter_args(%arg14 = %14) -> (tensor<64x64xf32>) {
              %21 = arith.muli %arg13, %c64 : index
              %22 = arith.muli %15, %c512 : index
              %23 = arith.addi %22, %21 : index
              %24 = loom.reinterpret_cast %arg0 to offset : [%23], sizes : [%c64, %c64], strides : [%c512, %c1], reuse : [seq = false, spat = false, temp = true] : memref<*xf32> to memref<?x?xf32, strided<[?, ?], offset: ?>>
              %alloc = memref.alloc() : memref<64x64xf32>
              loom.copy %24, %alloc, interconnect : [], broadcast : [1, 1] : memref<?x?xf32, strided<[?, ?], offset: ?>> to memref<64x64xf32>
              %25 = bufferization.to_tensor %alloc restrict writable : memref<64x64xf32> to tensor<64x64xf32>
              %26 = arith.muli %21, %c512 : index
              %27 = arith.addi %26, %16 : index
              %28 = loom.reinterpret_cast %arg1 to offset : [%27], sizes : [%c64, %c64], strides : [%c512, %c1], reuse : [seq = false, spat = true, temp = true] : memref<*xf32> to memref<?x?xf32, strided<[?, ?], offset: ?>>
              %alloc_0 = memref.alloc() : memref<64x64xf32>
              loom.copy %28, %alloc_0, interconnect : [@horizontal_links], broadcast : [1, 8] : memref<?x?xf32, strided<[?, ?], offset: ?>> to memref<64x64xf32>
              %29 = bufferization.to_tensor %alloc_0 restrict writable : memref<64x64xf32> to tensor<64x64xf32>
              %30 = linalg.matmul ins(%25, %29 : tensor<64x64xf32>, tensor<64x64xf32>) outs(%14 : tensor<64x64xf32>) -> tensor<64x64xf32>
              %31 = linalg.generic {indexing_maps = [affine_map<(d0, d1) -> (d0, d1)>, affine_map<(d0, d1) -> (d0, d1)>, affine_map<(d0, d1) -> (d0, d1)>], iterator_types = ["parallel", "parallel"]} ins(%arg14, %30 : tensor<64x64xf32>, tensor<64x64xf32>) outs(%arg14 : tensor<64x64xf32>) {
              ^bb0(%in: f32, %in_1: f32, %out: f32):
                %32 = arith.addf %in, %in_1 : f32
                linalg.yield %32 : f32
              } -> tensor<64x64xf32>
              scf.yield %31 : tensor<64x64xf32>
            }
            %18 = arith.muli %15, %c512 : index
            %19 = arith.addi %18, %16 : index
            %20 = loom.reinterpret_cast %arg2 to offset : [%19], sizes : [%c64, %c64], strides : [%c512, %c1], reuse : [seq = false, spat = false, temp = false] : memref<*xf32> to memref<?x?xf32, strided<[?, ?], offset: ?>>
            bufferization.materialize_in_destination %17 in writable %20 : (tensor<64x64xf32>, memref<?x?xf32, strided<[?, ?], offset: ?>>) -> ()
          }
        }
      } {loom.mapped_to = @y}
    } {loom.mapped_to = @x}
    return
  }
  func.func @matmul_kernel__d0i0_d1i0__f10__d_v(%arg0: memref<*xf32> {tt.divisibility = 16 : i32}, %arg1: memref<*xf32> {tt.divisibility = 16 : i32}, %arg2: memref<*xf32> {tt.divisibility = 16 : i32}, %arg3: index, %arg4: index, %arg5: index, %arg6: index, %arg7: index, %arg8: index) {
    %c8 = arith.constant 8 : index
    %c0 = arith.constant 0 : index
    %cst = arith.constant 0.000000e+00 : f32
    %c64 = arith.constant 64 : index
    %c1 = arith.constant 1 : index
    %c512 = arith.constant 512 : index
    affine.parallel (%arg9) = (0) to (8) {
      affine.parallel (%arg10) = (0) to (8) {
        affine.for %arg11 = 0 to %arg4 {
          affine.for %arg12 = 0 to affine_map<()[s0] -> ((s0 ceildiv 8) ceildiv 8)>()[%arg3] {
            %12 = affine.apply affine_map<(d0, d1, d2) -> (d0 * 8 + d1 * 8 + d2)>(%arg9, %arg10, %arg12)
            %13 = tensor.empty() : tensor<64x64xf32>
            %14 = linalg.fill ins(%cst : f32) outs(%13 : tensor<64x64xf32>) -> tensor<64x64xf32>
            %15 = arith.muli %12, %c64 : index
            %16 = arith.muli %arg11, %c64 : index
            %17 = scf.for %arg13 = %c0 to %c8 step %c1 iter_args(%arg14 = %14) -> (tensor<64x64xf32>) {
              %21 = arith.muli %arg13, %c64 : index
              %22 = arith.muli %15, %c512 : index
              %23 = arith.addi %22, %21 : index
              %24 = loom.reinterpret_cast %arg0 to offset : [%23], sizes : [%c64, %c64], strides : [%c512, %c1], reuse : [seq = false, spat = false, temp = true] : memref<*xf32> to memref<?x?xf32, strided<[?, ?], offset: ?>>
              %alloc = memref.alloc() : memref<64x64xf32>
              loom.copy %24, %alloc, interconnect : [], broadcast : [1, 1] : memref<?x?xf32, strided<[?, ?], offset: ?>> to memref<64x64xf32>
              %25 = bufferization.to_tensor %alloc restrict writable : memref<64x64xf32> to tensor<64x64xf32>
              %26 = arith.muli %21, %c512 : index
              %27 = arith.addi %26, %16 : index
              %28 = loom.reinterpret_cast %arg1 to offset : [%27], sizes : [%c64, %c64], strides : [%c512, %c1], reuse : [seq = false, spat = true, temp = true] : memref<*xf32> to memref<?x?xf32, strided<[?, ?], offset: ?>>
              %alloc_0 = memref.alloc() : memref<64x64xf32>
              loom.copy %28, %alloc_0, interconnect : [@vertical_links], broadcast : [8, 1] : memref<?x?xf32, strided<[?, ?], offset: ?>> to memref<64x64xf32>
              %29 = bufferization.to_tensor %alloc_0 restrict writable : memref<64x64xf32> to tensor<64x64xf32>
              %30 = linalg.matmul ins(%25, %29 : tensor<64x64xf32>, tensor<64x64xf32>) outs(%14 : tensor<64x64xf32>) -> tensor<64x64xf32>
              %31 = linalg.generic {indexing_maps = [affine_map<(d0, d1) -> (d0, d1)>, affine_map<(d0, d1) -> (d0, d1)>, affine_map<(d0, d1) -> (d0, d1)>], iterator_types = ["parallel", "parallel"]} ins(%arg14, %30 : tensor<64x64xf32>, tensor<64x64xf32>) outs(%arg14 : tensor<64x64xf32>) {
              ^bb0(%in: f32, %in_1: f32, %out: f32):
                %32 = arith.addf %in, %in_1 : f32
                linalg.yield %32 : f32
              } -> tensor<64x64xf32>
              scf.yield %31 : tensor<64x64xf32>
            }
            %18 = arith.muli %15, %c512 : index
            %19 = arith.addi %18, %16 : index
            %20 = loom.reinterpret_cast %arg2 to offset : [%19], sizes : [%c64, %c64], strides : [%c512, %c1], reuse : [seq = false, spat = false, temp = false] : memref<*xf32> to memref<?x?xf32, strided<[?, ?], offset: ?>>
            bufferization.materialize_in_destination %17 in writable %20 : (tensor<64x64xf32>, memref<?x?xf32, strided<[?, ?], offset: ?>>) -> ()
          }
        }
      } {loom.mapped_to = @y}
    } {loom.mapped_to = @x}
    return
  }
  func.func @matmul_kernel__d0i0_d1i0__f10__hoist_block_0__d_d(%arg0: memref<*xf32> {tt.divisibility = 16 : i32}, %arg1: memref<*xf32> {tt.divisibility = 16 : i32}, %arg2: memref<*xf32> {tt.divisibility = 16 : i32}, %arg3: index, %arg4: index, %arg5: index, %arg6: index, %arg7: index, %arg8: index) {
    %c32768 = arith.constant 32768 : index
    %c8 = arith.constant 8 : index
    %c0 = arith.constant 0 : index
    %cst = arith.constant 0.000000e+00 : f32
    %c64 = arith.constant 64 : index
    %c1 = arith.constant 1 : index
    %c512 = arith.constant 512 : index
    affine.parallel (%arg9) = (0) to (8) {
      affine.parallel (%arg10) = (0) to (8) {
        affine.for %arg11 = 0 to %arg4 {
          affine.for %arg12 = 0 to affine_map<()[s0] -> ((s0 ceildiv 8) ceildiv 8)>()[%arg3] {
            %12 = affine.apply affine_map<(d0, d1, d2) -> (d0 * 8 + d1 * 8 + d2)>(%arg9, %arg10, %arg12)
            %13 = tensor.empty() : tensor<64x64xf32>
            %14 = linalg.fill ins(%cst : f32) outs(%13 : tensor<64x64xf32>) -> tensor<64x64xf32>
            %15 = arith.muli %12, %c64 : index
            %16 = arith.muli %arg11, %c64 : index
            %17 = arith.muli %15, %c512 : index
            %18 = loom.reinterpret_cast %arg0 to offset : [%17], sizes : [%c8, %c64, %c64], strides : [%c32768, %c512, %c1], reuse : [seq = false, spat = false, temp = true] : memref<*xf32> to memref<?x?x?xf32, strided<[?, ?, ?], offset: ?>>
            %alloc = memref.alloc() : memref<8x64x64xf32>
            loom.copy %18, %alloc, interconnect : [], broadcast : [1, 1] : memref<?x?x?xf32, strided<[?, ?, ?], offset: ?>> to memref<8x64x64xf32>
            %19 = scf.for %arg13 = %c0 to %c8 step %c1 iter_args(%arg14 = %14) -> (tensor<64x64xf32>) {
              %23 = arith.muli %arg13, %c64 : index
              %subview = memref.subview %alloc[%arg13, 0, 0] [1, 64, 64] [1, 1, 1] : memref<8x64x64xf32> to memref<64x64xf32, strided<[64, 1], offset: ?>>
              %24 = bufferization.to_tensor %subview restrict writable : memref<64x64xf32, strided<[64, 1], offset: ?>> to tensor<64x64xf32>
              %25 = arith.muli %23, %c512 : index
              %26 = arith.addi %25, %16 : index
              %27 = loom.reinterpret_cast %arg1 to offset : [%26], sizes : [%c64, %c64], strides : [%c512, %c1], reuse : [seq = false, spat = true, temp = true] : memref<*xf32> to memref<?x?xf32, strided<[?, ?], offset: ?>>
              %alloc_0 = memref.alloc() : memref<64x64xf32>
              loom.copy %27, %alloc_0, interconnect : [], broadcast : [1, 1] : memref<?x?xf32, strided<[?, ?], offset: ?>> to memref<64x64xf32>
              %28 = bufferization.to_tensor %alloc_0 restrict writable : memref<64x64xf32> to tensor<64x64xf32>
              %29 = linalg.matmul ins(%24, %28 : tensor<64x64xf32>, tensor<64x64xf32>) outs(%14 : tensor<64x64xf32>) -> tensor<64x64xf32>
              %30 = linalg.generic {indexing_maps = [affine_map<(d0, d1) -> (d0, d1)>, affine_map<(d0, d1) -> (d0, d1)>, affine_map<(d0, d1) -> (d0, d1)>], iterator_types = ["parallel", "parallel"]} ins(%arg14, %29 : tensor<64x64xf32>, tensor<64x64xf32>) outs(%arg14 : tensor<64x64xf32>) {
              ^bb0(%in: f32, %in_1: f32, %out: f32):
                %31 = arith.addf %in, %in_1 : f32
                linalg.yield %31 : f32
              } -> tensor<64x64xf32>
              scf.yield %30 : tensor<64x64xf32>
            }
            %20 = arith.muli %15, %c512 : index
            %21 = arith.addi %20, %16 : index
            %22 = loom.reinterpret_cast %arg2 to offset : [%21], sizes : [%c64, %c64], strides : [%c512, %c1], reuse : [seq = false, spat = false, temp = false] : memref<*xf32> to memref<?x?xf32, strided<[?, ?], offset: ?>>
            bufferization.materialize_in_destination %19 in writable %22 : (tensor<64x64xf32>, memref<?x?xf32, strided<[?, ?], offset: ?>>) -> ()
          }
        }
      } {loom.mapped_to = @y}
    } {loom.mapped_to = @x}
    return
  }
  func.func @matmul_kernel__d0i0_d1i0__f10__hoist_block_0__d_a(%arg0: memref<*xf32> {tt.divisibility = 16 : i32}, %arg1: memref<*xf32> {tt.divisibility = 16 : i32}, %arg2: memref<*xf32> {tt.divisibility = 16 : i32}, %arg3: index, %arg4: index, %arg5: index, %arg6: index, %arg7: index, %arg8: index) {
    %c32768 = arith.constant 32768 : index
    %c8 = arith.constant 8 : index
    %c0 = arith.constant 0 : index
    %cst = arith.constant 0.000000e+00 : f32
    %c64 = arith.constant 64 : index
    %c1 = arith.constant 1 : index
    %c512 = arith.constant 512 : index
    affine.parallel (%arg9) = (0) to (8) {
      affine.parallel (%arg10) = (0) to (8) {
        affine.for %arg11 = 0 to %arg4 {
          affine.for %arg12 = 0 to affine_map<()[s0] -> ((s0 ceildiv 8) ceildiv 8)>()[%arg3] {
            %12 = affine.apply affine_map<(d0, d1, d2) -> (d0 * 8 + d1 * 8 + d2)>(%arg9, %arg10, %arg12)
            %13 = tensor.empty() : tensor<64x64xf32>
            %14 = linalg.fill ins(%cst : f32) outs(%13 : tensor<64x64xf32>) -> tensor<64x64xf32>
            %15 = arith.muli %12, %c64 : index
            %16 = arith.muli %arg11, %c64 : index
            %17 = arith.muli %15, %c512 : index
            %18 = loom.reinterpret_cast %arg0 to offset : [%17], sizes : [%c8, %c64, %c64], strides : [%c32768, %c512, %c1], reuse : [seq = false, spat = false, temp = true] : memref<*xf32> to memref<?x?x?xf32, strided<[?, ?, ?], offset: ?>>
            %alloc = memref.alloc() : memref<8x64x64xf32>
            loom.copy %18, %alloc, interconnect : [], broadcast : [1, 1] : memref<?x?x?xf32, strided<[?, ?, ?], offset: ?>> to memref<8x64x64xf32>
            %19 = scf.for %arg13 = %c0 to %c8 step %c1 iter_args(%arg14 = %14) -> (tensor<64x64xf32>) {
              %23 = arith.muli %arg13, %c64 : index
              %subview = memref.subview %alloc[%arg13, 0, 0] [1, 64, 64] [1, 1, 1] : memref<8x64x64xf32> to memref<64x64xf32, strided<[64, 1], offset: ?>>
              %24 = bufferization.to_tensor %subview restrict writable : memref<64x64xf32, strided<[64, 1], offset: ?>> to tensor<64x64xf32>
              %25 = arith.muli %23, %c512 : index
              %26 = arith.addi %25, %16 : index
              %27 = loom.reinterpret_cast %arg1 to offset : [%26], sizes : [%c64, %c64], strides : [%c512, %c1], reuse : [seq = false, spat = true, temp = true] : memref<*xf32> to memref<?x?xf32, strided<[?, ?], offset: ?>>
              %alloc_0 = memref.alloc() : memref<64x64xf32>
              loom.copy %27, %alloc_0, interconnect : [@horizontal_links, @vertical_links], broadcast : [8, 8] : memref<?x?xf32, strided<[?, ?], offset: ?>> to memref<64x64xf32>
              %28 = bufferization.to_tensor %alloc_0 restrict writable : memref<64x64xf32> to tensor<64x64xf32>
              %29 = linalg.matmul ins(%24, %28 : tensor<64x64xf32>, tensor<64x64xf32>) outs(%14 : tensor<64x64xf32>) -> tensor<64x64xf32>
              %30 = linalg.generic {indexing_maps = [affine_map<(d0, d1) -> (d0, d1)>, affine_map<(d0, d1) -> (d0, d1)>, affine_map<(d0, d1) -> (d0, d1)>], iterator_types = ["parallel", "parallel"]} ins(%arg14, %29 : tensor<64x64xf32>, tensor<64x64xf32>) outs(%arg14 : tensor<64x64xf32>) {
              ^bb0(%in: f32, %in_1: f32, %out: f32):
                %31 = arith.addf %in, %in_1 : f32
                linalg.yield %31 : f32
              } -> tensor<64x64xf32>
              scf.yield %30 : tensor<64x64xf32>
            }
            %20 = arith.muli %15, %c512 : index
            %21 = arith.addi %20, %16 : index
            %22 = loom.reinterpret_cast %arg2 to offset : [%21], sizes : [%c64, %c64], strides : [%c512, %c1], reuse : [seq = false, spat = false, temp = false] : memref<*xf32> to memref<?x?xf32, strided<[?, ?], offset: ?>>
            bufferization.materialize_in_destination %19 in writable %22 : (tensor<64x64xf32>, memref<?x?xf32, strided<[?, ?], offset: ?>>) -> ()
          }
        }
      } {loom.mapped_to = @y}
    } {loom.mapped_to = @x}
    return
  }
  func.func @matmul_kernel__d0i0_d1i0__f10__hoist_block_0__d_h(%arg0: memref<*xf32> {tt.divisibility = 16 : i32}, %arg1: memref<*xf32> {tt.divisibility = 16 : i32}, %arg2: memref<*xf32> {tt.divisibility = 16 : i32}, %arg3: index, %arg4: index, %arg5: index, %arg6: index, %arg7: index, %arg8: index) {
    %c32768 = arith.constant 32768 : index
    %c8 = arith.constant 8 : index
    %c0 = arith.constant 0 : index
    %cst = arith.constant 0.000000e+00 : f32
    %c64 = arith.constant 64 : index
    %c1 = arith.constant 1 : index
    %c512 = arith.constant 512 : index
    affine.parallel (%arg9) = (0) to (8) {
      affine.parallel (%arg10) = (0) to (8) {
        affine.for %arg11 = 0 to %arg4 {
          affine.for %arg12 = 0 to affine_map<()[s0] -> ((s0 ceildiv 8) ceildiv 8)>()[%arg3] {
            %12 = affine.apply affine_map<(d0, d1, d2) -> (d0 * 8 + d1 * 8 + d2)>(%arg9, %arg10, %arg12)
            %13 = tensor.empty() : tensor<64x64xf32>
            %14 = linalg.fill ins(%cst : f32) outs(%13 : tensor<64x64xf32>) -> tensor<64x64xf32>
            %15 = arith.muli %12, %c64 : index
            %16 = arith.muli %arg11, %c64 : index
            %17 = arith.muli %15, %c512 : index
            %18 = loom.reinterpret_cast %arg0 to offset : [%17], sizes : [%c8, %c64, %c64], strides : [%c32768, %c512, %c1], reuse : [seq = false, spat = false, temp = true] : memref<*xf32> to memref<?x?x?xf32, strided<[?, ?, ?], offset: ?>>
            %alloc = memref.alloc() : memref<8x64x64xf32>
            loom.copy %18, %alloc, interconnect : [], broadcast : [1, 1] : memref<?x?x?xf32, strided<[?, ?, ?], offset: ?>> to memref<8x64x64xf32>
            %19 = scf.for %arg13 = %c0 to %c8 step %c1 iter_args(%arg14 = %14) -> (tensor<64x64xf32>) {
              %23 = arith.muli %arg13, %c64 : index
              %subview = memref.subview %alloc[%arg13, 0, 0] [1, 64, 64] [1, 1, 1] : memref<8x64x64xf32> to memref<64x64xf32, strided<[64, 1], offset: ?>>
              %24 = bufferization.to_tensor %subview restrict writable : memref<64x64xf32, strided<[64, 1], offset: ?>> to tensor<64x64xf32>
              %25 = arith.muli %23, %c512 : index
              %26 = arith.addi %25, %16 : index
              %27 = loom.reinterpret_cast %arg1 to offset : [%26], sizes : [%c64, %c64], strides : [%c512, %c1], reuse : [seq = false, spat = true, temp = true] : memref<*xf32> to memref<?x?xf32, strided<[?, ?], offset: ?>>
              %alloc_0 = memref.alloc() : memref<64x64xf32>
              loom.copy %27, %alloc_0, interconnect : [@horizontal_links], broadcast : [1, 8] : memref<?x?xf32, strided<[?, ?], offset: ?>> to memref<64x64xf32>
              %28 = bufferization.to_tensor %alloc_0 restrict writable : memref<64x64xf32> to tensor<64x64xf32>
              %29 = linalg.matmul ins(%24, %28 : tensor<64x64xf32>, tensor<64x64xf32>) outs(%14 : tensor<64x64xf32>) -> tensor<64x64xf32>
              %30 = linalg.generic {indexing_maps = [affine_map<(d0, d1) -> (d0, d1)>, affine_map<(d0, d1) -> (d0, d1)>, affine_map<(d0, d1) -> (d0, d1)>], iterator_types = ["parallel", "parallel"]} ins(%arg14, %29 : tensor<64x64xf32>, tensor<64x64xf32>) outs(%arg14 : tensor<64x64xf32>) {
              ^bb0(%in: f32, %in_1: f32, %out: f32):
                %31 = arith.addf %in, %in_1 : f32
                linalg.yield %31 : f32
              } -> tensor<64x64xf32>
              scf.yield %30 : tensor<64x64xf32>
            }
            %20 = arith.muli %15, %c512 : index
            %21 = arith.addi %20, %16 : index
            %22 = loom.reinterpret_cast %arg2 to offset : [%21], sizes : [%c64, %c64], strides : [%c512, %c1], reuse : [seq = false, spat = false, temp = false] : memref<*xf32> to memref<?x?xf32, strided<[?, ?], offset: ?>>
            bufferization.materialize_in_destination %19 in writable %22 : (tensor<64x64xf32>, memref<?x?xf32, strided<[?, ?], offset: ?>>) -> ()
          }
        }
      } {loom.mapped_to = @y}
    } {loom.mapped_to = @x}
    return
  }
  func.func @matmul_kernel__d0i0_d1i0__f10__hoist_block_0__d_v(%arg0: memref<*xf32> {tt.divisibility = 16 : i32}, %arg1: memref<*xf32> {tt.divisibility = 16 : i32}, %arg2: memref<*xf32> {tt.divisibility = 16 : i32}, %arg3: index, %arg4: index, %arg5: index, %arg6: index, %arg7: index, %arg8: index) {
    %c32768 = arith.constant 32768 : index
    %c8 = arith.constant 8 : index
    %c0 = arith.constant 0 : index
    %cst = arith.constant 0.000000e+00 : f32
    %c64 = arith.constant 64 : index
    %c1 = arith.constant 1 : index
    %c512 = arith.constant 512 : index
    affine.parallel (%arg9) = (0) to (8) {
      affine.parallel (%arg10) = (0) to (8) {
        affine.for %arg11 = 0 to %arg4 {
          affine.for %arg12 = 0 to affine_map<()[s0] -> ((s0 ceildiv 8) ceildiv 8)>()[%arg3] {
            %12 = affine.apply affine_map<(d0, d1, d2) -> (d0 * 8 + d1 * 8 + d2)>(%arg9, %arg10, %arg12)
            %13 = tensor.empty() : tensor<64x64xf32>
            %14 = linalg.fill ins(%cst : f32) outs(%13 : tensor<64x64xf32>) -> tensor<64x64xf32>
            %15 = arith.muli %12, %c64 : index
            %16 = arith.muli %arg11, %c64 : index
            %17 = arith.muli %15, %c512 : index
            %18 = loom.reinterpret_cast %arg0 to offset : [%17], sizes : [%c8, %c64, %c64], strides : [%c32768, %c512, %c1], reuse : [seq = false, spat = false, temp = true] : memref<*xf32> to memref<?x?x?xf32, strided<[?, ?, ?], offset: ?>>
            %alloc = memref.alloc() : memref<8x64x64xf32>
            loom.copy %18, %alloc, interconnect : [], broadcast : [1, 1] : memref<?x?x?xf32, strided<[?, ?, ?], offset: ?>> to memref<8x64x64xf32>
            %19 = scf.for %arg13 = %c0 to %c8 step %c1 iter_args(%arg14 = %14) -> (tensor<64x64xf32>) {
              %23 = arith.muli %arg13, %c64 : index
              %subview = memref.subview %alloc[%arg13, 0, 0] [1, 64, 64] [1, 1, 1] : memref<8x64x64xf32> to memref<64x64xf32, strided<[64, 1], offset: ?>>
              %24 = bufferization.to_tensor %subview restrict writable : memref<64x64xf32, strided<[64, 1], offset: ?>> to tensor<64x64xf32>
              %25 = arith.muli %23, %c512 : index
              %26 = arith.addi %25, %16 : index
              %27 = loom.reinterpret_cast %arg1 to offset : [%26], sizes : [%c64, %c64], strides : [%c512, %c1], reuse : [seq = false, spat = true, temp = true] : memref<*xf32> to memref<?x?xf32, strided<[?, ?], offset: ?>>
              %alloc_0 = memref.alloc() : memref<64x64xf32>
              loom.copy %27, %alloc_0, interconnect : [@vertical_links], broadcast : [8, 1] : memref<?x?xf32, strided<[?, ?], offset: ?>> to memref<64x64xf32>
              %28 = bufferization.to_tensor %alloc_0 restrict writable : memref<64x64xf32> to tensor<64x64xf32>
              %29 = linalg.matmul ins(%24, %28 : tensor<64x64xf32>, tensor<64x64xf32>) outs(%14 : tensor<64x64xf32>) -> tensor<64x64xf32>
              %30 = linalg.generic {indexing_maps = [affine_map<(d0, d1) -> (d0, d1)>, affine_map<(d0, d1) -> (d0, d1)>, affine_map<(d0, d1) -> (d0, d1)>], iterator_types = ["parallel", "parallel"]} ins(%arg14, %29 : tensor<64x64xf32>, tensor<64x64xf32>) outs(%arg14 : tensor<64x64xf32>) {
              ^bb0(%in: f32, %in_1: f32, %out: f32):
                %31 = arith.addf %in, %in_1 : f32
                linalg.yield %31 : f32
              } -> tensor<64x64xf32>
              scf.yield %30 : tensor<64x64xf32>
            }
            %20 = arith.muli %15, %c512 : index
            %21 = arith.addi %20, %16 : index
            %22 = loom.reinterpret_cast %arg2 to offset : [%21], sizes : [%c64, %c64], strides : [%c512, %c1], reuse : [seq = false, spat = false, temp = false] : memref<*xf32> to memref<?x?xf32, strided<[?, ?], offset: ?>>
            bufferization.materialize_in_destination %19 in writable %22 : (tensor<64x64xf32>, memref<?x?xf32, strided<[?, ?], offset: ?>>) -> ()
          }
        }
      } {loom.mapped_to = @y}
    } {loom.mapped_to = @x}
    return
  }
  func.func @matmul_kernel__d0i0_d1i0__f10__hoist_block_1__d_d(%arg0: memref<*xf32> {tt.divisibility = 16 : i32}, %arg1: memref<*xf32> {tt.divisibility = 16 : i32}, %arg2: memref<*xf32> {tt.divisibility = 16 : i32}, %arg3: index, %arg4: index, %arg5: index, %arg6: index, %arg7: index, %arg8: index) {
    %c32768 = arith.constant 32768 : index
    %c8 = arith.constant 8 : index
    %c0 = arith.constant 0 : index
    %cst = arith.constant 0.000000e+00 : f32
    %c64 = arith.constant 64 : index
    %c1 = arith.constant 1 : index
    %c512 = arith.constant 512 : index
    affine.parallel (%arg9) = (0) to (8) {
      affine.parallel (%arg10) = (0) to (8) {
        affine.for %arg11 = 0 to %arg4 {
          affine.for %arg12 = 0 to affine_map<()[s0] -> ((s0 ceildiv 8) ceildiv 8)>()[%arg3] {
            %12 = affine.apply affine_map<(d0, d1, d2) -> (d0 * 8 + d1 * 8 + d2)>(%arg9, %arg10, %arg12)
            %13 = tensor.empty() : tensor<64x64xf32>
            %14 = linalg.fill ins(%cst : f32) outs(%13 : tensor<64x64xf32>) -> tensor<64x64xf32>
            %15 = arith.muli %12, %c64 : index
            %16 = arith.muli %arg11, %c64 : index
            %17 = loom.reinterpret_cast %arg1 to offset : [%16], sizes : [%c8, %c64, %c64], strides : [%c32768, %c512, %c1], reuse : [seq = false, spat = true, temp = true] : memref<*xf32> to memref<?x?x?xf32, strided<[?, ?, ?], offset: ?>>
            %alloc = memref.alloc() : memref<8x64x64xf32>
            loom.copy %17, %alloc, interconnect : [], broadcast : [1, 1] : memref<?x?x?xf32, strided<[?, ?, ?], offset: ?>> to memref<8x64x64xf32>
            %18 = scf.for %arg13 = %c0 to %c8 step %c1 iter_args(%arg14 = %14) -> (tensor<64x64xf32>) {
              %22 = arith.muli %arg13, %c64 : index
              %23 = arith.muli %15, %c512 : index
              %24 = arith.addi %23, %22 : index
              %25 = loom.reinterpret_cast %arg0 to offset : [%24], sizes : [%c64, %c64], strides : [%c512, %c1], reuse : [seq = false, spat = false, temp = true] : memref<*xf32> to memref<?x?xf32, strided<[?, ?], offset: ?>>
              %alloc_0 = memref.alloc() : memref<64x64xf32>
              loom.copy %25, %alloc_0, interconnect : [], broadcast : [1, 1] : memref<?x?xf32, strided<[?, ?], offset: ?>> to memref<64x64xf32>
              %26 = bufferization.to_tensor %alloc_0 restrict writable : memref<64x64xf32> to tensor<64x64xf32>
              %subview = memref.subview %alloc[%arg13, 0, 0] [1, 64, 64] [1, 1, 1] : memref<8x64x64xf32> to memref<64x64xf32, strided<[64, 1], offset: ?>>
              %27 = bufferization.to_tensor %subview restrict writable : memref<64x64xf32, strided<[64, 1], offset: ?>> to tensor<64x64xf32>
              %28 = linalg.matmul ins(%26, %27 : tensor<64x64xf32>, tensor<64x64xf32>) outs(%14 : tensor<64x64xf32>) -> tensor<64x64xf32>
              %29 = linalg.generic {indexing_maps = [affine_map<(d0, d1) -> (d0, d1)>, affine_map<(d0, d1) -> (d0, d1)>, affine_map<(d0, d1) -> (d0, d1)>], iterator_types = ["parallel", "parallel"]} ins(%arg14, %28 : tensor<64x64xf32>, tensor<64x64xf32>) outs(%arg14 : tensor<64x64xf32>) {
              ^bb0(%in: f32, %in_1: f32, %out: f32):
                %30 = arith.addf %in, %in_1 : f32
                linalg.yield %30 : f32
              } -> tensor<64x64xf32>
              scf.yield %29 : tensor<64x64xf32>
            }
            %19 = arith.muli %15, %c512 : index
            %20 = arith.addi %19, %16 : index
            %21 = loom.reinterpret_cast %arg2 to offset : [%20], sizes : [%c64, %c64], strides : [%c512, %c1], reuse : [seq = false, spat = false, temp = false] : memref<*xf32> to memref<?x?xf32, strided<[?, ?], offset: ?>>
            bufferization.materialize_in_destination %18 in writable %21 : (tensor<64x64xf32>, memref<?x?xf32, strided<[?, ?], offset: ?>>) -> ()
          }
        }
      } {loom.mapped_to = @y}
    } {loom.mapped_to = @x}
    return
  }
  func.func @matmul_kernel__d0i0_d1i0__f10__hoist_block_1__a_d(%arg0: memref<*xf32> {tt.divisibility = 16 : i32}, %arg1: memref<*xf32> {tt.divisibility = 16 : i32}, %arg2: memref<*xf32> {tt.divisibility = 16 : i32}, %arg3: index, %arg4: index, %arg5: index, %arg6: index, %arg7: index, %arg8: index) {
    %c32768 = arith.constant 32768 : index
    %c8 = arith.constant 8 : index
    %c0 = arith.constant 0 : index
    %cst = arith.constant 0.000000e+00 : f32
    %c64 = arith.constant 64 : index
    %c1 = arith.constant 1 : index
    %c512 = arith.constant 512 : index
    affine.parallel (%arg9) = (0) to (8) {
      affine.parallel (%arg10) = (0) to (8) {
        affine.for %arg11 = 0 to %arg4 {
          affine.for %arg12 = 0 to affine_map<()[s0] -> ((s0 ceildiv 8) ceildiv 8)>()[%arg3] {
            %12 = affine.apply affine_map<(d0, d1, d2) -> (d0 * 8 + d1 * 8 + d2)>(%arg9, %arg10, %arg12)
            %13 = tensor.empty() : tensor<64x64xf32>
            %14 = linalg.fill ins(%cst : f32) outs(%13 : tensor<64x64xf32>) -> tensor<64x64xf32>
            %15 = arith.muli %12, %c64 : index
            %16 = arith.muli %arg11, %c64 : index
            %17 = loom.reinterpret_cast %arg1 to offset : [%16], sizes : [%c8, %c64, %c64], strides : [%c32768, %c512, %c1], reuse : [seq = false, spat = true, temp = true] : memref<*xf32> to memref<?x?x?xf32, strided<[?, ?, ?], offset: ?>>
            %alloc = memref.alloc() : memref<8x64x64xf32>
            loom.copy %17, %alloc, interconnect : [@horizontal_links, @vertical_links], broadcast : [8, 8] : memref<?x?x?xf32, strided<[?, ?, ?], offset: ?>> to memref<8x64x64xf32>
            %18 = scf.for %arg13 = %c0 to %c8 step %c1 iter_args(%arg14 = %14) -> (tensor<64x64xf32>) {
              %22 = arith.muli %arg13, %c64 : index
              %23 = arith.muli %15, %c512 : index
              %24 = arith.addi %23, %22 : index
              %25 = loom.reinterpret_cast %arg0 to offset : [%24], sizes : [%c64, %c64], strides : [%c512, %c1], reuse : [seq = false, spat = false, temp = true] : memref<*xf32> to memref<?x?xf32, strided<[?, ?], offset: ?>>
              %alloc_0 = memref.alloc() : memref<64x64xf32>
              loom.copy %25, %alloc_0, interconnect : [], broadcast : [1, 1] : memref<?x?xf32, strided<[?, ?], offset: ?>> to memref<64x64xf32>
              %26 = bufferization.to_tensor %alloc_0 restrict writable : memref<64x64xf32> to tensor<64x64xf32>
              %subview = memref.subview %alloc[%arg13, 0, 0] [1, 64, 64] [1, 1, 1] : memref<8x64x64xf32> to memref<64x64xf32, strided<[64, 1], offset: ?>>
              %27 = bufferization.to_tensor %subview restrict writable : memref<64x64xf32, strided<[64, 1], offset: ?>> to tensor<64x64xf32>
              %28 = linalg.matmul ins(%26, %27 : tensor<64x64xf32>, tensor<64x64xf32>) outs(%14 : tensor<64x64xf32>) -> tensor<64x64xf32>
              %29 = linalg.generic {indexing_maps = [affine_map<(d0, d1) -> (d0, d1)>, affine_map<(d0, d1) -> (d0, d1)>, affine_map<(d0, d1) -> (d0, d1)>], iterator_types = ["parallel", "parallel"]} ins(%arg14, %28 : tensor<64x64xf32>, tensor<64x64xf32>) outs(%arg14 : tensor<64x64xf32>) {
              ^bb0(%in: f32, %in_1: f32, %out: f32):
                %30 = arith.addf %in, %in_1 : f32
                linalg.yield %30 : f32
              } -> tensor<64x64xf32>
              scf.yield %29 : tensor<64x64xf32>
            }
            %19 = arith.muli %15, %c512 : index
            %20 = arith.addi %19, %16 : index
            %21 = loom.reinterpret_cast %arg2 to offset : [%20], sizes : [%c64, %c64], strides : [%c512, %c1], reuse : [seq = false, spat = false, temp = false] : memref<*xf32> to memref<?x?xf32, strided<[?, ?], offset: ?>>
            bufferization.materialize_in_destination %18 in writable %21 : (tensor<64x64xf32>, memref<?x?xf32, strided<[?, ?], offset: ?>>) -> ()
          }
        }
      } {loom.mapped_to = @y}
    } {loom.mapped_to = @x}
    return
  }
  func.func @matmul_kernel__d0i0_d1i0__f10__hoist_block_1__h_d(%arg0: memref<*xf32> {tt.divisibility = 16 : i32}, %arg1: memref<*xf32> {tt.divisibility = 16 : i32}, %arg2: memref<*xf32> {tt.divisibility = 16 : i32}, %arg3: index, %arg4: index, %arg5: index, %arg6: index, %arg7: index, %arg8: index) {
    %c32768 = arith.constant 32768 : index
    %c8 = arith.constant 8 : index
    %c0 = arith.constant 0 : index
    %cst = arith.constant 0.000000e+00 : f32
    %c64 = arith.constant 64 : index
    %c1 = arith.constant 1 : index
    %c512 = arith.constant 512 : index
    affine.parallel (%arg9) = (0) to (8) {
      affine.parallel (%arg10) = (0) to (8) {
        affine.for %arg11 = 0 to %arg4 {
          affine.for %arg12 = 0 to affine_map<()[s0] -> ((s0 ceildiv 8) ceildiv 8)>()[%arg3] {
            %12 = affine.apply affine_map<(d0, d1, d2) -> (d0 * 8 + d1 * 8 + d2)>(%arg9, %arg10, %arg12)
            %13 = tensor.empty() : tensor<64x64xf32>
            %14 = linalg.fill ins(%cst : f32) outs(%13 : tensor<64x64xf32>) -> tensor<64x64xf32>
            %15 = arith.muli %12, %c64 : index
            %16 = arith.muli %arg11, %c64 : index
            %17 = loom.reinterpret_cast %arg1 to offset : [%16], sizes : [%c8, %c64, %c64], strides : [%c32768, %c512, %c1], reuse : [seq = false, spat = true, temp = true] : memref<*xf32> to memref<?x?x?xf32, strided<[?, ?, ?], offset: ?>>
            %alloc = memref.alloc() : memref<8x64x64xf32>
            loom.copy %17, %alloc, interconnect : [@horizontal_links], broadcast : [1, 8] : memref<?x?x?xf32, strided<[?, ?, ?], offset: ?>> to memref<8x64x64xf32>
            %18 = scf.for %arg13 = %c0 to %c8 step %c1 iter_args(%arg14 = %14) -> (tensor<64x64xf32>) {
              %22 = arith.muli %arg13, %c64 : index
              %23 = arith.muli %15, %c512 : index
              %24 = arith.addi %23, %22 : index
              %25 = loom.reinterpret_cast %arg0 to offset : [%24], sizes : [%c64, %c64], strides : [%c512, %c1], reuse : [seq = false, spat = false, temp = true] : memref<*xf32> to memref<?x?xf32, strided<[?, ?], offset: ?>>
              %alloc_0 = memref.alloc() : memref<64x64xf32>
              loom.copy %25, %alloc_0, interconnect : [], broadcast : [1, 1] : memref<?x?xf32, strided<[?, ?], offset: ?>> to memref<64x64xf32>
              %26 = bufferization.to_tensor %alloc_0 restrict writable : memref<64x64xf32> to tensor<64x64xf32>
              %subview = memref.subview %alloc[%arg13, 0, 0] [1, 64, 64] [1, 1, 1] : memref<8x64x64xf32> to memref<64x64xf32, strided<[64, 1], offset: ?>>
              %27 = bufferization.to_tensor %subview restrict writable : memref<64x64xf32, strided<[64, 1], offset: ?>> to tensor<64x64xf32>
              %28 = linalg.matmul ins(%26, %27 : tensor<64x64xf32>, tensor<64x64xf32>) outs(%14 : tensor<64x64xf32>) -> tensor<64x64xf32>
              %29 = linalg.generic {indexing_maps = [affine_map<(d0, d1) -> (d0, d1)>, affine_map<(d0, d1) -> (d0, d1)>, affine_map<(d0, d1) -> (d0, d1)>], iterator_types = ["parallel", "parallel"]} ins(%arg14, %28 : tensor<64x64xf32>, tensor<64x64xf32>) outs(%arg14 : tensor<64x64xf32>) {
              ^bb0(%in: f32, %in_1: f32, %out: f32):
                %30 = arith.addf %in, %in_1 : f32
                linalg.yield %30 : f32
              } -> tensor<64x64xf32>
              scf.yield %29 : tensor<64x64xf32>
            }
            %19 = arith.muli %15, %c512 : index
            %20 = arith.addi %19, %16 : index
            %21 = loom.reinterpret_cast %arg2 to offset : [%20], sizes : [%c64, %c64], strides : [%c512, %c1], reuse : [seq = false, spat = false, temp = false] : memref<*xf32> to memref<?x?xf32, strided<[?, ?], offset: ?>>
            bufferization.materialize_in_destination %18 in writable %21 : (tensor<64x64xf32>, memref<?x?xf32, strided<[?, ?], offset: ?>>) -> ()
          }
        }
      } {loom.mapped_to = @y}
    } {loom.mapped_to = @x}
    return
  }
  func.func @matmul_kernel__d0i0_d1i0__f10__hoist_block_1__v_d(%arg0: memref<*xf32> {tt.divisibility = 16 : i32}, %arg1: memref<*xf32> {tt.divisibility = 16 : i32}, %arg2: memref<*xf32> {tt.divisibility = 16 : i32}, %arg3: index, %arg4: index, %arg5: index, %arg6: index, %arg7: index, %arg8: index) {
    %c32768 = arith.constant 32768 : index
    %c8 = arith.constant 8 : index
    %c0 = arith.constant 0 : index
    %cst = arith.constant 0.000000e+00 : f32
    %c64 = arith.constant 64 : index
    %c1 = arith.constant 1 : index
    %c512 = arith.constant 512 : index
    affine.parallel (%arg9) = (0) to (8) {
      affine.parallel (%arg10) = (0) to (8) {
        affine.for %arg11 = 0 to %arg4 {
          affine.for %arg12 = 0 to affine_map<()[s0] -> ((s0 ceildiv 8) ceildiv 8)>()[%arg3] {
            %12 = affine.apply affine_map<(d0, d1, d2) -> (d0 * 8 + d1 * 8 + d2)>(%arg9, %arg10, %arg12)
            %13 = tensor.empty() : tensor<64x64xf32>
            %14 = linalg.fill ins(%cst : f32) outs(%13 : tensor<64x64xf32>) -> tensor<64x64xf32>
            %15 = arith.muli %12, %c64 : index
            %16 = arith.muli %arg11, %c64 : index
            %17 = loom.reinterpret_cast %arg1 to offset : [%16], sizes : [%c8, %c64, %c64], strides : [%c32768, %c512, %c1], reuse : [seq = false, spat = true, temp = true] : memref<*xf32> to memref<?x?x?xf32, strided<[?, ?, ?], offset: ?>>
            %alloc = memref.alloc() : memref<8x64x64xf32>
            loom.copy %17, %alloc, interconnect : [@vertical_links], broadcast : [8, 1] : memref<?x?x?xf32, strided<[?, ?, ?], offset: ?>> to memref<8x64x64xf32>
            %18 = scf.for %arg13 = %c0 to %c8 step %c1 iter_args(%arg14 = %14) -> (tensor<64x64xf32>) {
              %22 = arith.muli %arg13, %c64 : index
              %23 = arith.muli %15, %c512 : index
              %24 = arith.addi %23, %22 : index
              %25 = loom.reinterpret_cast %arg0 to offset : [%24], sizes : [%c64, %c64], strides : [%c512, %c1], reuse : [seq = false, spat = false, temp = true] : memref<*xf32> to memref<?x?xf32, strided<[?, ?], offset: ?>>
              %alloc_0 = memref.alloc() : memref<64x64xf32>
              loom.copy %25, %alloc_0, interconnect : [], broadcast : [1, 1] : memref<?x?xf32, strided<[?, ?], offset: ?>> to memref<64x64xf32>
              %26 = bufferization.to_tensor %alloc_0 restrict writable : memref<64x64xf32> to tensor<64x64xf32>
              %subview = memref.subview %alloc[%arg13, 0, 0] [1, 64, 64] [1, 1, 1] : memref<8x64x64xf32> to memref<64x64xf32, strided<[64, 1], offset: ?>>
              %27 = bufferization.to_tensor %subview restrict writable : memref<64x64xf32, strided<[64, 1], offset: ?>> to tensor<64x64xf32>
              %28 = linalg.matmul ins(%26, %27 : tensor<64x64xf32>, tensor<64x64xf32>) outs(%14 : tensor<64x64xf32>) -> tensor<64x64xf32>
              %29 = linalg.generic {indexing_maps = [affine_map<(d0, d1) -> (d0, d1)>, affine_map<(d0, d1) -> (d0, d1)>, affine_map<(d0, d1) -> (d0, d1)>], iterator_types = ["parallel", "parallel"]} ins(%arg14, %28 : tensor<64x64xf32>, tensor<64x64xf32>) outs(%arg14 : tensor<64x64xf32>) {
              ^bb0(%in: f32, %in_1: f32, %out: f32):
                %30 = arith.addf %in, %in_1 : f32
                linalg.yield %30 : f32
              } -> tensor<64x64xf32>
              scf.yield %29 : tensor<64x64xf32>
            }
            %19 = arith.muli %15, %c512 : index
            %20 = arith.addi %19, %16 : index
            %21 = loom.reinterpret_cast %arg2 to offset : [%20], sizes : [%c64, %c64], strides : [%c512, %c1], reuse : [seq = false, spat = false, temp = false] : memref<*xf32> to memref<?x?xf32, strided<[?, ?], offset: ?>>
            bufferization.materialize_in_destination %18 in writable %21 : (tensor<64x64xf32>, memref<?x?xf32, strided<[?, ?], offset: ?>>) -> ()
          }
        }
      } {loom.mapped_to = @y}
    } {loom.mapped_to = @x}
    return
  }
  func.func @matmul_kernel__d0i0_d1i1__f01__d_d(%arg0: memref<*xf32> {tt.divisibility = 16 : i32}, %arg1: memref<*xf32> {tt.divisibility = 16 : i32}, %arg2: memref<*xf32> {tt.divisibility = 16 : i32}, %arg3: index, %arg4: index, %arg5: index, %arg6: index, %arg7: index, %arg8: index) {
    %c8 = arith.constant 8 : index
    %c0 = arith.constant 0 : index
    %cst = arith.constant 0.000000e+00 : f32
    %c64 = arith.constant 64 : index
    %c1 = arith.constant 1 : index
    %c512 = arith.constant 512 : index
    affine.parallel (%arg9) = (0) to (8) {
      affine.parallel (%arg10) = (0) to (8) {
        affine.for %arg11 = 0 to affine_map<()[s0] -> (s0 ceildiv 8)>()[%arg3] {
          affine.for %arg12 = 0 to affine_map<()[s0] -> (s0 ceildiv 8)>()[%arg4] {
            %12 = affine.apply affine_map<(d0, d1) -> (d0 * 8 + d1)>(%arg10, %arg12)
            %13 = affine.apply affine_map<(d0, d1) -> (d0 * 8 + d1)>(%arg9, %arg11)
            %14 = tensor.empty() : tensor<64x64xf32>
            %15 = linalg.fill ins(%cst : f32) outs(%14 : tensor<64x64xf32>) -> tensor<64x64xf32>
            %16 = arith.muli %13, %c64 : index
            %17 = arith.muli %12, %c64 : index
            %18 = scf.for %arg13 = %c0 to %c8 step %c1 iter_args(%arg14 = %15) -> (tensor<64x64xf32>) {
              %22 = arith.muli %arg13, %c64 : index
              %23 = arith.muli %16, %c512 : index
              %24 = arith.addi %23, %22 : index
              %25 = loom.reinterpret_cast %arg0 to offset : [%24], sizes : [%c64, %c64], strides : [%c512, %c1], reuse : [seq = false, spat = true, temp = true] : memref<*xf32> to memref<?x?xf32, strided<[?, ?], offset: ?>>
              %alloc = memref.alloc() : memref<64x64xf32>
              loom.copy %25, %alloc, interconnect : [], broadcast : [1, 1] : memref<?x?xf32, strided<[?, ?], offset: ?>> to memref<64x64xf32>
              %26 = bufferization.to_tensor %alloc restrict writable : memref<64x64xf32> to tensor<64x64xf32>
              %27 = arith.muli %22, %c512 : index
              %28 = arith.addi %27, %17 : index
              %29 = loom.reinterpret_cast %arg1 to offset : [%28], sizes : [%c64, %c64], strides : [%c512, %c1], reuse : [seq = false, spat = true, temp = true] : memref<*xf32> to memref<?x?xf32, strided<[?, ?], offset: ?>>
              %alloc_0 = memref.alloc() : memref<64x64xf32>
              loom.copy %29, %alloc_0, interconnect : [], broadcast : [1, 1] : memref<?x?xf32, strided<[?, ?], offset: ?>> to memref<64x64xf32>
              %30 = bufferization.to_tensor %alloc_0 restrict writable : memref<64x64xf32> to tensor<64x64xf32>
              %31 = linalg.matmul ins(%26, %30 : tensor<64x64xf32>, tensor<64x64xf32>) outs(%15 : tensor<64x64xf32>) -> tensor<64x64xf32>
              %32 = linalg.generic {indexing_maps = [affine_map<(d0, d1) -> (d0, d1)>, affine_map<(d0, d1) -> (d0, d1)>, affine_map<(d0, d1) -> (d0, d1)>], iterator_types = ["parallel", "parallel"]} ins(%arg14, %31 : tensor<64x64xf32>, tensor<64x64xf32>) outs(%arg14 : tensor<64x64xf32>) {
              ^bb0(%in: f32, %in_1: f32, %out: f32):
                %33 = arith.addf %in, %in_1 : f32
                linalg.yield %33 : f32
              } -> tensor<64x64xf32>
              scf.yield %32 : tensor<64x64xf32>
            }
            %19 = arith.muli %16, %c512 : index
            %20 = arith.addi %19, %17 : index
            %21 = loom.reinterpret_cast %arg2 to offset : [%20], sizes : [%c64, %c64], strides : [%c512, %c1], reuse : [seq = false, spat = false, temp = false] : memref<*xf32> to memref<?x?xf32, strided<[?, ?], offset: ?>>
            bufferization.materialize_in_destination %18 in writable %21 : (tensor<64x64xf32>, memref<?x?xf32, strided<[?, ?], offset: ?>>) -> ()
          }
        }
      } {loom.mapped_to = @y}
    } {loom.mapped_to = @x}
    return
  }
  func.func @matmul_kernel__d0i0_d1i1__f01__d_v(%arg0: memref<*xf32> {tt.divisibility = 16 : i32}, %arg1: memref<*xf32> {tt.divisibility = 16 : i32}, %arg2: memref<*xf32> {tt.divisibility = 16 : i32}, %arg3: index, %arg4: index, %arg5: index, %arg6: index, %arg7: index, %arg8: index) {
    %c8 = arith.constant 8 : index
    %c0 = arith.constant 0 : index
    %cst = arith.constant 0.000000e+00 : f32
    %c64 = arith.constant 64 : index
    %c1 = arith.constant 1 : index
    %c512 = arith.constant 512 : index
    affine.parallel (%arg9) = (0) to (8) {
      affine.parallel (%arg10) = (0) to (8) {
        affine.for %arg11 = 0 to affine_map<()[s0] -> (s0 ceildiv 8)>()[%arg3] {
          affine.for %arg12 = 0 to affine_map<()[s0] -> (s0 ceildiv 8)>()[%arg4] {
            %12 = affine.apply affine_map<(d0, d1) -> (d0 * 8 + d1)>(%arg10, %arg12)
            %13 = affine.apply affine_map<(d0, d1) -> (d0 * 8 + d1)>(%arg9, %arg11)
            %14 = tensor.empty() : tensor<64x64xf32>
            %15 = linalg.fill ins(%cst : f32) outs(%14 : tensor<64x64xf32>) -> tensor<64x64xf32>
            %16 = arith.muli %13, %c64 : index
            %17 = arith.muli %12, %c64 : index
            %18 = scf.for %arg13 = %c0 to %c8 step %c1 iter_args(%arg14 = %15) -> (tensor<64x64xf32>) {
              %22 = arith.muli %arg13, %c64 : index
              %23 = arith.muli %16, %c512 : index
              %24 = arith.addi %23, %22 : index
              %25 = loom.reinterpret_cast %arg0 to offset : [%24], sizes : [%c64, %c64], strides : [%c512, %c1], reuse : [seq = false, spat = true, temp = true] : memref<*xf32> to memref<?x?xf32, strided<[?, ?], offset: ?>>
              %alloc = memref.alloc() : memref<64x64xf32>
              loom.copy %25, %alloc, interconnect : [], broadcast : [1, 1] : memref<?x?xf32, strided<[?, ?], offset: ?>> to memref<64x64xf32>
              %26 = bufferization.to_tensor %alloc restrict writable : memref<64x64xf32> to tensor<64x64xf32>
              %27 = arith.muli %22, %c512 : index
              %28 = arith.addi %27, %17 : index
              %29 = loom.reinterpret_cast %arg1 to offset : [%28], sizes : [%c64, %c64], strides : [%c512, %c1], reuse : [seq = false, spat = true, temp = true] : memref<*xf32> to memref<?x?xf32, strided<[?, ?], offset: ?>>
              %alloc_0 = memref.alloc() : memref<64x64xf32>
              loom.copy %29, %alloc_0, interconnect : [@vertical_links], broadcast : [8, 1] : memref<?x?xf32, strided<[?, ?], offset: ?>> to memref<64x64xf32>
              %30 = bufferization.to_tensor %alloc_0 restrict writable : memref<64x64xf32> to tensor<64x64xf32>
              %31 = linalg.matmul ins(%26, %30 : tensor<64x64xf32>, tensor<64x64xf32>) outs(%15 : tensor<64x64xf32>) -> tensor<64x64xf32>
              %32 = linalg.generic {indexing_maps = [affine_map<(d0, d1) -> (d0, d1)>, affine_map<(d0, d1) -> (d0, d1)>, affine_map<(d0, d1) -> (d0, d1)>], iterator_types = ["parallel", "parallel"]} ins(%arg14, %31 : tensor<64x64xf32>, tensor<64x64xf32>) outs(%arg14 : tensor<64x64xf32>) {
              ^bb0(%in: f32, %in_1: f32, %out: f32):
                %33 = arith.addf %in, %in_1 : f32
                linalg.yield %33 : f32
              } -> tensor<64x64xf32>
              scf.yield %32 : tensor<64x64xf32>
            }
            %19 = arith.muli %16, %c512 : index
            %20 = arith.addi %19, %17 : index
            %21 = loom.reinterpret_cast %arg2 to offset : [%20], sizes : [%c64, %c64], strides : [%c512, %c1], reuse : [seq = false, spat = false, temp = false] : memref<*xf32> to memref<?x?xf32, strided<[?, ?], offset: ?>>
            bufferization.materialize_in_destination %18 in writable %21 : (tensor<64x64xf32>, memref<?x?xf32, strided<[?, ?], offset: ?>>) -> ()
          }
        }
      } {loom.mapped_to = @y}
    } {loom.mapped_to = @x}
    return
  }
  func.func @matmul_kernel__d0i0_d1i1__f01__h_d(%arg0: memref<*xf32> {tt.divisibility = 16 : i32}, %arg1: memref<*xf32> {tt.divisibility = 16 : i32}, %arg2: memref<*xf32> {tt.divisibility = 16 : i32}, %arg3: index, %arg4: index, %arg5: index, %arg6: index, %arg7: index, %arg8: index) {
    %c8 = arith.constant 8 : index
    %c0 = arith.constant 0 : index
    %cst = arith.constant 0.000000e+00 : f32
    %c64 = arith.constant 64 : index
    %c1 = arith.constant 1 : index
    %c512 = arith.constant 512 : index
    affine.parallel (%arg9) = (0) to (8) {
      affine.parallel (%arg10) = (0) to (8) {
        affine.for %arg11 = 0 to affine_map<()[s0] -> (s0 ceildiv 8)>()[%arg3] {
          affine.for %arg12 = 0 to affine_map<()[s0] -> (s0 ceildiv 8)>()[%arg4] {
            %12 = affine.apply affine_map<(d0, d1) -> (d0 * 8 + d1)>(%arg10, %arg12)
            %13 = affine.apply affine_map<(d0, d1) -> (d0 * 8 + d1)>(%arg9, %arg11)
            %14 = tensor.empty() : tensor<64x64xf32>
            %15 = linalg.fill ins(%cst : f32) outs(%14 : tensor<64x64xf32>) -> tensor<64x64xf32>
            %16 = arith.muli %13, %c64 : index
            %17 = arith.muli %12, %c64 : index
            %18 = scf.for %arg13 = %c0 to %c8 step %c1 iter_args(%arg14 = %15) -> (tensor<64x64xf32>) {
              %22 = arith.muli %arg13, %c64 : index
              %23 = arith.muli %16, %c512 : index
              %24 = arith.addi %23, %22 : index
              %25 = loom.reinterpret_cast %arg0 to offset : [%24], sizes : [%c64, %c64], strides : [%c512, %c1], reuse : [seq = false, spat = true, temp = true] : memref<*xf32> to memref<?x?xf32, strided<[?, ?], offset: ?>>
              %alloc = memref.alloc() : memref<64x64xf32>
              loom.copy %25, %alloc, interconnect : [@horizontal_links], broadcast : [1, 8] : memref<?x?xf32, strided<[?, ?], offset: ?>> to memref<64x64xf32>
              %26 = bufferization.to_tensor %alloc restrict writable : memref<64x64xf32> to tensor<64x64xf32>
              %27 = arith.muli %22, %c512 : index
              %28 = arith.addi %27, %17 : index
              %29 = loom.reinterpret_cast %arg1 to offset : [%28], sizes : [%c64, %c64], strides : [%c512, %c1], reuse : [seq = false, spat = true, temp = true] : memref<*xf32> to memref<?x?xf32, strided<[?, ?], offset: ?>>
              %alloc_0 = memref.alloc() : memref<64x64xf32>
              loom.copy %29, %alloc_0, interconnect : [], broadcast : [1, 1] : memref<?x?xf32, strided<[?, ?], offset: ?>> to memref<64x64xf32>
              %30 = bufferization.to_tensor %alloc_0 restrict writable : memref<64x64xf32> to tensor<64x64xf32>
              %31 = linalg.matmul ins(%26, %30 : tensor<64x64xf32>, tensor<64x64xf32>) outs(%15 : tensor<64x64xf32>) -> tensor<64x64xf32>
              %32 = linalg.generic {indexing_maps = [affine_map<(d0, d1) -> (d0, d1)>, affine_map<(d0, d1) -> (d0, d1)>, affine_map<(d0, d1) -> (d0, d1)>], iterator_types = ["parallel", "parallel"]} ins(%arg14, %31 : tensor<64x64xf32>, tensor<64x64xf32>) outs(%arg14 : tensor<64x64xf32>) {
              ^bb0(%in: f32, %in_1: f32, %out: f32):
                %33 = arith.addf %in, %in_1 : f32
                linalg.yield %33 : f32
              } -> tensor<64x64xf32>
              scf.yield %32 : tensor<64x64xf32>
            }
            %19 = arith.muli %16, %c512 : index
            %20 = arith.addi %19, %17 : index
            %21 = loom.reinterpret_cast %arg2 to offset : [%20], sizes : [%c64, %c64], strides : [%c512, %c1], reuse : [seq = false, spat = false, temp = false] : memref<*xf32> to memref<?x?xf32, strided<[?, ?], offset: ?>>
            bufferization.materialize_in_destination %18 in writable %21 : (tensor<64x64xf32>, memref<?x?xf32, strided<[?, ?], offset: ?>>) -> ()
          }
        }
      } {loom.mapped_to = @y}
    } {loom.mapped_to = @x}
    return
  }
  func.func @matmul_kernel__d0i0_d1i1__f01__h_v(%arg0: memref<*xf32> {tt.divisibility = 16 : i32}, %arg1: memref<*xf32> {tt.divisibility = 16 : i32}, %arg2: memref<*xf32> {tt.divisibility = 16 : i32}, %arg3: index, %arg4: index, %arg5: index, %arg6: index, %arg7: index, %arg8: index) {
    %c8 = arith.constant 8 : index
    %c0 = arith.constant 0 : index
    %cst = arith.constant 0.000000e+00 : f32
    %c64 = arith.constant 64 : index
    %c1 = arith.constant 1 : index
    %c512 = arith.constant 512 : index
    affine.parallel (%arg9) = (0) to (8) {
      affine.parallel (%arg10) = (0) to (8) {
        affine.for %arg11 = 0 to affine_map<()[s0] -> (s0 ceildiv 8)>()[%arg3] {
          affine.for %arg12 = 0 to affine_map<()[s0] -> (s0 ceildiv 8)>()[%arg4] {
            %12 = affine.apply affine_map<(d0, d1) -> (d0 * 8 + d1)>(%arg10, %arg12)
            %13 = affine.apply affine_map<(d0, d1) -> (d0 * 8 + d1)>(%arg9, %arg11)
            %14 = tensor.empty() : tensor<64x64xf32>
            %15 = linalg.fill ins(%cst : f32) outs(%14 : tensor<64x64xf32>) -> tensor<64x64xf32>
            %16 = arith.muli %13, %c64 : index
            %17 = arith.muli %12, %c64 : index
            %18 = scf.for %arg13 = %c0 to %c8 step %c1 iter_args(%arg14 = %15) -> (tensor<64x64xf32>) {
              %22 = arith.muli %arg13, %c64 : index
              %23 = arith.muli %16, %c512 : index
              %24 = arith.addi %23, %22 : index
              %25 = loom.reinterpret_cast %arg0 to offset : [%24], sizes : [%c64, %c64], strides : [%c512, %c1], reuse : [seq = false, spat = true, temp = true] : memref<*xf32> to memref<?x?xf32, strided<[?, ?], offset: ?>>
              %alloc = memref.alloc() : memref<64x64xf32>
              loom.copy %25, %alloc, interconnect : [@horizontal_links], broadcast : [1, 8] : memref<?x?xf32, strided<[?, ?], offset: ?>> to memref<64x64xf32>
              %26 = bufferization.to_tensor %alloc restrict writable : memref<64x64xf32> to tensor<64x64xf32>
              %27 = arith.muli %22, %c512 : index
              %28 = arith.addi %27, %17 : index
              %29 = loom.reinterpret_cast %arg1 to offset : [%28], sizes : [%c64, %c64], strides : [%c512, %c1], reuse : [seq = false, spat = true, temp = true] : memref<*xf32> to memref<?x?xf32, strided<[?, ?], offset: ?>>
              %alloc_0 = memref.alloc() : memref<64x64xf32>
              loom.copy %29, %alloc_0, interconnect : [@vertical_links], broadcast : [8, 1] : memref<?x?xf32, strided<[?, ?], offset: ?>> to memref<64x64xf32>
              %30 = bufferization.to_tensor %alloc_0 restrict writable : memref<64x64xf32> to tensor<64x64xf32>
              %31 = linalg.matmul ins(%26, %30 : tensor<64x64xf32>, tensor<64x64xf32>) outs(%15 : tensor<64x64xf32>) -> tensor<64x64xf32>
              %32 = linalg.generic {indexing_maps = [affine_map<(d0, d1) -> (d0, d1)>, affine_map<(d0, d1) -> (d0, d1)>, affine_map<(d0, d1) -> (d0, d1)>], iterator_types = ["parallel", "parallel"]} ins(%arg14, %31 : tensor<64x64xf32>, tensor<64x64xf32>) outs(%arg14 : tensor<64x64xf32>) {
              ^bb0(%in: f32, %in_1: f32, %out: f32):
                %33 = arith.addf %in, %in_1 : f32
                linalg.yield %33 : f32
              } -> tensor<64x64xf32>
              scf.yield %32 : tensor<64x64xf32>
            }
            %19 = arith.muli %16, %c512 : index
            %20 = arith.addi %19, %17 : index
            %21 = loom.reinterpret_cast %arg2 to offset : [%20], sizes : [%c64, %c64], strides : [%c512, %c1], reuse : [seq = false, spat = false, temp = false] : memref<*xf32> to memref<?x?xf32, strided<[?, ?], offset: ?>>
            bufferization.materialize_in_destination %18 in writable %21 : (tensor<64x64xf32>, memref<?x?xf32, strided<[?, ?], offset: ?>>) -> ()
          }
        }
      } {loom.mapped_to = @y}
    } {loom.mapped_to = @x}
    return
  }
  func.func @matmul_kernel__d0i0_d1i1__f01__hoist_block_0__d_d(%arg0: memref<*xf32> {tt.divisibility = 16 : i32}, %arg1: memref<*xf32> {tt.divisibility = 16 : i32}, %arg2: memref<*xf32> {tt.divisibility = 16 : i32}, %arg3: index, %arg4: index, %arg5: index, %arg6: index, %arg7: index, %arg8: index) {
    %c32768 = arith.constant 32768 : index
    %c8 = arith.constant 8 : index
    %c0 = arith.constant 0 : index
    %cst = arith.constant 0.000000e+00 : f32
    %c64 = arith.constant 64 : index
    %c1 = arith.constant 1 : index
    %c512 = arith.constant 512 : index
    affine.parallel (%arg9) = (0) to (8) {
      affine.parallel (%arg10) = (0) to (8) {
        affine.for %arg11 = 0 to affine_map<()[s0] -> (s0 ceildiv 8)>()[%arg3] {
          affine.for %arg12 = 0 to affine_map<()[s0] -> (s0 ceildiv 8)>()[%arg4] {
            %12 = affine.apply affine_map<(d0, d1) -> (d0 * 8 + d1)>(%arg10, %arg12)
            %13 = affine.apply affine_map<(d0, d1) -> (d0 * 8 + d1)>(%arg9, %arg11)
            %14 = tensor.empty() : tensor<64x64xf32>
            %15 = linalg.fill ins(%cst : f32) outs(%14 : tensor<64x64xf32>) -> tensor<64x64xf32>
            %16 = arith.muli %13, %c64 : index
            %17 = arith.muli %12, %c64 : index
            %18 = arith.muli %16, %c512 : index
            %19 = loom.reinterpret_cast %arg0 to offset : [%18], sizes : [%c8, %c64, %c64], strides : [%c32768, %c512, %c1], reuse : [seq = false, spat = true, temp = true] : memref<*xf32> to memref<?x?x?xf32, strided<[?, ?, ?], offset: ?>>
            %alloc = memref.alloc() : memref<8x64x64xf32>
            loom.copy %19, %alloc, interconnect : [], broadcast : [1, 1] : memref<?x?x?xf32, strided<[?, ?, ?], offset: ?>> to memref<8x64x64xf32>
            %20 = scf.for %arg13 = %c0 to %c8 step %c1 iter_args(%arg14 = %15) -> (tensor<64x64xf32>) {
              %24 = arith.muli %arg13, %c64 : index
              %subview = memref.subview %alloc[%arg13, 0, 0] [1, 64, 64] [1, 1, 1] : memref<8x64x64xf32> to memref<64x64xf32, strided<[64, 1], offset: ?>>
              %25 = bufferization.to_tensor %subview restrict writable : memref<64x64xf32, strided<[64, 1], offset: ?>> to tensor<64x64xf32>
              %26 = arith.muli %24, %c512 : index
              %27 = arith.addi %26, %17 : index
              %28 = loom.reinterpret_cast %arg1 to offset : [%27], sizes : [%c64, %c64], strides : [%c512, %c1], reuse : [seq = false, spat = true, temp = true] : memref<*xf32> to memref<?x?xf32, strided<[?, ?], offset: ?>>
              %alloc_0 = memref.alloc() : memref<64x64xf32>
              loom.copy %28, %alloc_0, interconnect : [], broadcast : [1, 1] : memref<?x?xf32, strided<[?, ?], offset: ?>> to memref<64x64xf32>
              %29 = bufferization.to_tensor %alloc_0 restrict writable : memref<64x64xf32> to tensor<64x64xf32>
              %30 = linalg.matmul ins(%25, %29 : tensor<64x64xf32>, tensor<64x64xf32>) outs(%15 : tensor<64x64xf32>) -> tensor<64x64xf32>
              %31 = linalg.generic {indexing_maps = [affine_map<(d0, d1) -> (d0, d1)>, affine_map<(d0, d1) -> (d0, d1)>, affine_map<(d0, d1) -> (d0, d1)>], iterator_types = ["parallel", "parallel"]} ins(%arg14, %30 : tensor<64x64xf32>, tensor<64x64xf32>) outs(%arg14 : tensor<64x64xf32>) {
              ^bb0(%in: f32, %in_1: f32, %out: f32):
                %32 = arith.addf %in, %in_1 : f32
                linalg.yield %32 : f32
              } -> tensor<64x64xf32>
              scf.yield %31 : tensor<64x64xf32>
            }
            %21 = arith.muli %16, %c512 : index
            %22 = arith.addi %21, %17 : index
            %23 = loom.reinterpret_cast %arg2 to offset : [%22], sizes : [%c64, %c64], strides : [%c512, %c1], reuse : [seq = false, spat = false, temp = false] : memref<*xf32> to memref<?x?xf32, strided<[?, ?], offset: ?>>
            bufferization.materialize_in_destination %20 in writable %23 : (tensor<64x64xf32>, memref<?x?xf32, strided<[?, ?], offset: ?>>) -> ()
          }
        }
      } {loom.mapped_to = @y}
    } {loom.mapped_to = @x}
    return
  }
  func.func @matmul_kernel__d0i0_d1i1__f01__hoist_block_0__d_v(%arg0: memref<*xf32> {tt.divisibility = 16 : i32}, %arg1: memref<*xf32> {tt.divisibility = 16 : i32}, %arg2: memref<*xf32> {tt.divisibility = 16 : i32}, %arg3: index, %arg4: index, %arg5: index, %arg6: index, %arg7: index, %arg8: index) {
    %c32768 = arith.constant 32768 : index
    %c8 = arith.constant 8 : index
    %c0 = arith.constant 0 : index
    %cst = arith.constant 0.000000e+00 : f32
    %c64 = arith.constant 64 : index
    %c1 = arith.constant 1 : index
    %c512 = arith.constant 512 : index
    affine.parallel (%arg9) = (0) to (8) {
      affine.parallel (%arg10) = (0) to (8) {
        affine.for %arg11 = 0 to affine_map<()[s0] -> (s0 ceildiv 8)>()[%arg3] {
          affine.for %arg12 = 0 to affine_map<()[s0] -> (s0 ceildiv 8)>()[%arg4] {
            %12 = affine.apply affine_map<(d0, d1) -> (d0 * 8 + d1)>(%arg10, %arg12)
            %13 = affine.apply affine_map<(d0, d1) -> (d0 * 8 + d1)>(%arg9, %arg11)
            %14 = tensor.empty() : tensor<64x64xf32>
            %15 = linalg.fill ins(%cst : f32) outs(%14 : tensor<64x64xf32>) -> tensor<64x64xf32>
            %16 = arith.muli %13, %c64 : index
            %17 = arith.muli %12, %c64 : index
            %18 = arith.muli %16, %c512 : index
            %19 = loom.reinterpret_cast %arg0 to offset : [%18], sizes : [%c8, %c64, %c64], strides : [%c32768, %c512, %c1], reuse : [seq = false, spat = true, temp = true] : memref<*xf32> to memref<?x?x?xf32, strided<[?, ?, ?], offset: ?>>
            %alloc = memref.alloc() : memref<8x64x64xf32>
            loom.copy %19, %alloc, interconnect : [], broadcast : [1, 1] : memref<?x?x?xf32, strided<[?, ?, ?], offset: ?>> to memref<8x64x64xf32>
            %20 = scf.for %arg13 = %c0 to %c8 step %c1 iter_args(%arg14 = %15) -> (tensor<64x64xf32>) {
              %24 = arith.muli %arg13, %c64 : index
              %subview = memref.subview %alloc[%arg13, 0, 0] [1, 64, 64] [1, 1, 1] : memref<8x64x64xf32> to memref<64x64xf32, strided<[64, 1], offset: ?>>
              %25 = bufferization.to_tensor %subview restrict writable : memref<64x64xf32, strided<[64, 1], offset: ?>> to tensor<64x64xf32>
              %26 = arith.muli %24, %c512 : index
              %27 = arith.addi %26, %17 : index
              %28 = loom.reinterpret_cast %arg1 to offset : [%27], sizes : [%c64, %c64], strides : [%c512, %c1], reuse : [seq = false, spat = true, temp = true] : memref<*xf32> to memref<?x?xf32, strided<[?, ?], offset: ?>>
              %alloc_0 = memref.alloc() : memref<64x64xf32>
              loom.copy %28, %alloc_0, interconnect : [@vertical_links], broadcast : [8, 1] : memref<?x?xf32, strided<[?, ?], offset: ?>> to memref<64x64xf32>
              %29 = bufferization.to_tensor %alloc_0 restrict writable : memref<64x64xf32> to tensor<64x64xf32>
              %30 = linalg.matmul ins(%25, %29 : tensor<64x64xf32>, tensor<64x64xf32>) outs(%15 : tensor<64x64xf32>) -> tensor<64x64xf32>
              %31 = linalg.generic {indexing_maps = [affine_map<(d0, d1) -> (d0, d1)>, affine_map<(d0, d1) -> (d0, d1)>, affine_map<(d0, d1) -> (d0, d1)>], iterator_types = ["parallel", "parallel"]} ins(%arg14, %30 : tensor<64x64xf32>, tensor<64x64xf32>) outs(%arg14 : tensor<64x64xf32>) {
              ^bb0(%in: f32, %in_1: f32, %out: f32):
                %32 = arith.addf %in, %in_1 : f32
                linalg.yield %32 : f32
              } -> tensor<64x64xf32>
              scf.yield %31 : tensor<64x64xf32>
            }
            %21 = arith.muli %16, %c512 : index
            %22 = arith.addi %21, %17 : index
            %23 = loom.reinterpret_cast %arg2 to offset : [%22], sizes : [%c64, %c64], strides : [%c512, %c1], reuse : [seq = false, spat = false, temp = false] : memref<*xf32> to memref<?x?xf32, strided<[?, ?], offset: ?>>
            bufferization.materialize_in_destination %20 in writable %23 : (tensor<64x64xf32>, memref<?x?xf32, strided<[?, ?], offset: ?>>) -> ()
          }
        }
      } {loom.mapped_to = @y}
    } {loom.mapped_to = @x}
    return
  }
  func.func @matmul_kernel__d0i0_d1i1__f01__hoist_block_0__h_d(%arg0: memref<*xf32> {tt.divisibility = 16 : i32}, %arg1: memref<*xf32> {tt.divisibility = 16 : i32}, %arg2: memref<*xf32> {tt.divisibility = 16 : i32}, %arg3: index, %arg4: index, %arg5: index, %arg6: index, %arg7: index, %arg8: index) {
    %c32768 = arith.constant 32768 : index
    %c8 = arith.constant 8 : index
    %c0 = arith.constant 0 : index
    %cst = arith.constant 0.000000e+00 : f32
    %c64 = arith.constant 64 : index
    %c1 = arith.constant 1 : index
    %c512 = arith.constant 512 : index
    affine.parallel (%arg9) = (0) to (8) {
      affine.parallel (%arg10) = (0) to (8) {
        affine.for %arg11 = 0 to affine_map<()[s0] -> (s0 ceildiv 8)>()[%arg3] {
          affine.for %arg12 = 0 to affine_map<()[s0] -> (s0 ceildiv 8)>()[%arg4] {
            %12 = affine.apply affine_map<(d0, d1) -> (d0 * 8 + d1)>(%arg10, %arg12)
            %13 = affine.apply affine_map<(d0, d1) -> (d0 * 8 + d1)>(%arg9, %arg11)
            %14 = tensor.empty() : tensor<64x64xf32>
            %15 = linalg.fill ins(%cst : f32) outs(%14 : tensor<64x64xf32>) -> tensor<64x64xf32>
            %16 = arith.muli %13, %c64 : index
            %17 = arith.muli %12, %c64 : index
            %18 = arith.muli %16, %c512 : index
            %19 = loom.reinterpret_cast %arg0 to offset : [%18], sizes : [%c8, %c64, %c64], strides : [%c32768, %c512, %c1], reuse : [seq = false, spat = true, temp = true] : memref<*xf32> to memref<?x?x?xf32, strided<[?, ?, ?], offset: ?>>
            %alloc = memref.alloc() : memref<8x64x64xf32>
            loom.copy %19, %alloc, interconnect : [@horizontal_links], broadcast : [1, 8] : memref<?x?x?xf32, strided<[?, ?, ?], offset: ?>> to memref<8x64x64xf32>
            %20 = scf.for %arg13 = %c0 to %c8 step %c1 iter_args(%arg14 = %15) -> (tensor<64x64xf32>) {
              %24 = arith.muli %arg13, %c64 : index
              %subview = memref.subview %alloc[%arg13, 0, 0] [1, 64, 64] [1, 1, 1] : memref<8x64x64xf32> to memref<64x64xf32, strided<[64, 1], offset: ?>>
              %25 = bufferization.to_tensor %subview restrict writable : memref<64x64xf32, strided<[64, 1], offset: ?>> to tensor<64x64xf32>
              %26 = arith.muli %24, %c512 : index
              %27 = arith.addi %26, %17 : index
              %28 = loom.reinterpret_cast %arg1 to offset : [%27], sizes : [%c64, %c64], strides : [%c512, %c1], reuse : [seq = false, spat = true, temp = true] : memref<*xf32> to memref<?x?xf32, strided<[?, ?], offset: ?>>
              %alloc_0 = memref.alloc() : memref<64x64xf32>
              loom.copy %28, %alloc_0, interconnect : [], broadcast : [1, 1] : memref<?x?xf32, strided<[?, ?], offset: ?>> to memref<64x64xf32>
              %29 = bufferization.to_tensor %alloc_0 restrict writable : memref<64x64xf32> to tensor<64x64xf32>
              %30 = linalg.matmul ins(%25, %29 : tensor<64x64xf32>, tensor<64x64xf32>) outs(%15 : tensor<64x64xf32>) -> tensor<64x64xf32>
              %31 = linalg.generic {indexing_maps = [affine_map<(d0, d1) -> (d0, d1)>, affine_map<(d0, d1) -> (d0, d1)>, affine_map<(d0, d1) -> (d0, d1)>], iterator_types = ["parallel", "parallel"]} ins(%arg14, %30 : tensor<64x64xf32>, tensor<64x64xf32>) outs(%arg14 : tensor<64x64xf32>) {
              ^bb0(%in: f32, %in_1: f32, %out: f32):
                %32 = arith.addf %in, %in_1 : f32
                linalg.yield %32 : f32
              } -> tensor<64x64xf32>
              scf.yield %31 : tensor<64x64xf32>
            }
            %21 = arith.muli %16, %c512 : index
            %22 = arith.addi %21, %17 : index
            %23 = loom.reinterpret_cast %arg2 to offset : [%22], sizes : [%c64, %c64], strides : [%c512, %c1], reuse : [seq = false, spat = false, temp = false] : memref<*xf32> to memref<?x?xf32, strided<[?, ?], offset: ?>>
            bufferization.materialize_in_destination %20 in writable %23 : (tensor<64x64xf32>, memref<?x?xf32, strided<[?, ?], offset: ?>>) -> ()
          }
        }
      } {loom.mapped_to = @y}
    } {loom.mapped_to = @x}
    return
  }
  func.func @matmul_kernel__d0i0_d1i1__f01__hoist_block_0__h_v(%arg0: memref<*xf32> {tt.divisibility = 16 : i32}, %arg1: memref<*xf32> {tt.divisibility = 16 : i32}, %arg2: memref<*xf32> {tt.divisibility = 16 : i32}, %arg3: index, %arg4: index, %arg5: index, %arg6: index, %arg7: index, %arg8: index) {
    %c32768 = arith.constant 32768 : index
    %c8 = arith.constant 8 : index
    %c0 = arith.constant 0 : index
    %cst = arith.constant 0.000000e+00 : f32
    %c64 = arith.constant 64 : index
    %c1 = arith.constant 1 : index
    %c512 = arith.constant 512 : index
    affine.parallel (%arg9) = (0) to (8) {
      affine.parallel (%arg10) = (0) to (8) {
        affine.for %arg11 = 0 to affine_map<()[s0] -> (s0 ceildiv 8)>()[%arg3] {
          affine.for %arg12 = 0 to affine_map<()[s0] -> (s0 ceildiv 8)>()[%arg4] {
            %12 = affine.apply affine_map<(d0, d1) -> (d0 * 8 + d1)>(%arg10, %arg12)
            %13 = affine.apply affine_map<(d0, d1) -> (d0 * 8 + d1)>(%arg9, %arg11)
            %14 = tensor.empty() : tensor<64x64xf32>
            %15 = linalg.fill ins(%cst : f32) outs(%14 : tensor<64x64xf32>) -> tensor<64x64xf32>
            %16 = arith.muli %13, %c64 : index
            %17 = arith.muli %12, %c64 : index
            %18 = arith.muli %16, %c512 : index
            %19 = loom.reinterpret_cast %arg0 to offset : [%18], sizes : [%c8, %c64, %c64], strides : [%c32768, %c512, %c1], reuse : [seq = false, spat = true, temp = true] : memref<*xf32> to memref<?x?x?xf32, strided<[?, ?, ?], offset: ?>>
            %alloc = memref.alloc() : memref<8x64x64xf32>
            loom.copy %19, %alloc, interconnect : [@horizontal_links], broadcast : [1, 8] : memref<?x?x?xf32, strided<[?, ?, ?], offset: ?>> to memref<8x64x64xf32>
            %20 = scf.for %arg13 = %c0 to %c8 step %c1 iter_args(%arg14 = %15) -> (tensor<64x64xf32>) {
              %24 = arith.muli %arg13, %c64 : index
              %subview = memref.subview %alloc[%arg13, 0, 0] [1, 64, 64] [1, 1, 1] : memref<8x64x64xf32> to memref<64x64xf32, strided<[64, 1], offset: ?>>
              %25 = bufferization.to_tensor %subview restrict writable : memref<64x64xf32, strided<[64, 1], offset: ?>> to tensor<64x64xf32>
              %26 = arith.muli %24, %c512 : index
              %27 = arith.addi %26, %17 : index
              %28 = loom.reinterpret_cast %arg1 to offset : [%27], sizes : [%c64, %c64], strides : [%c512, %c1], reuse : [seq = false, spat = true, temp = true] : memref<*xf32> to memref<?x?xf32, strided<[?, ?], offset: ?>>
              %alloc_0 = memref.alloc() : memref<64x64xf32>
              loom.copy %28, %alloc_0, interconnect : [@vertical_links], broadcast : [8, 1] : memref<?x?xf32, strided<[?, ?], offset: ?>> to memref<64x64xf32>
              %29 = bufferization.to_tensor %alloc_0 restrict writable : memref<64x64xf32> to tensor<64x64xf32>
              %30 = linalg.matmul ins(%25, %29 : tensor<64x64xf32>, tensor<64x64xf32>) outs(%15 : tensor<64x64xf32>) -> tensor<64x64xf32>
              %31 = linalg.generic {indexing_maps = [affine_map<(d0, d1) -> (d0, d1)>, affine_map<(d0, d1) -> (d0, d1)>, affine_map<(d0, d1) -> (d0, d1)>], iterator_types = ["parallel", "parallel"]} ins(%arg14, %30 : tensor<64x64xf32>, tensor<64x64xf32>) outs(%arg14 : tensor<64x64xf32>) {
              ^bb0(%in: f32, %in_1: f32, %out: f32):
                %32 = arith.addf %in, %in_1 : f32
                linalg.yield %32 : f32
              } -> tensor<64x64xf32>
              scf.yield %31 : tensor<64x64xf32>
            }
            %21 = arith.muli %16, %c512 : index
            %22 = arith.addi %21, %17 : index
            %23 = loom.reinterpret_cast %arg2 to offset : [%22], sizes : [%c64, %c64], strides : [%c512, %c1], reuse : [seq = false, spat = false, temp = false] : memref<*xf32> to memref<?x?xf32, strided<[?, ?], offset: ?>>
            bufferization.materialize_in_destination %20 in writable %23 : (tensor<64x64xf32>, memref<?x?xf32, strided<[?, ?], offset: ?>>) -> ()
          }
        }
      } {loom.mapped_to = @y}
    } {loom.mapped_to = @x}
    return
  }
  func.func @matmul_kernel__d0i0_d1i1__f01__hoist_block_1__d_d(%arg0: memref<*xf32> {tt.divisibility = 16 : i32}, %arg1: memref<*xf32> {tt.divisibility = 16 : i32}, %arg2: memref<*xf32> {tt.divisibility = 16 : i32}, %arg3: index, %arg4: index, %arg5: index, %arg6: index, %arg7: index, %arg8: index) {
    %c32768 = arith.constant 32768 : index
    %c8 = arith.constant 8 : index
    %c0 = arith.constant 0 : index
    %cst = arith.constant 0.000000e+00 : f32
    %c64 = arith.constant 64 : index
    %c1 = arith.constant 1 : index
    %c512 = arith.constant 512 : index
    affine.parallel (%arg9) = (0) to (8) {
      affine.parallel (%arg10) = (0) to (8) {
        affine.for %arg11 = 0 to affine_map<()[s0] -> (s0 ceildiv 8)>()[%arg3] {
          affine.for %arg12 = 0 to affine_map<()[s0] -> (s0 ceildiv 8)>()[%arg4] {
            %12 = affine.apply affine_map<(d0, d1) -> (d0 * 8 + d1)>(%arg10, %arg12)
            %13 = affine.apply affine_map<(d0, d1) -> (d0 * 8 + d1)>(%arg9, %arg11)
            %14 = tensor.empty() : tensor<64x64xf32>
            %15 = linalg.fill ins(%cst : f32) outs(%14 : tensor<64x64xf32>) -> tensor<64x64xf32>
            %16 = arith.muli %13, %c64 : index
            %17 = arith.muli %12, %c64 : index
            %18 = loom.reinterpret_cast %arg1 to offset : [%17], sizes : [%c8, %c64, %c64], strides : [%c32768, %c512, %c1], reuse : [seq = false, spat = true, temp = true] : memref<*xf32> to memref<?x?x?xf32, strided<[?, ?, ?], offset: ?>>
            %alloc = memref.alloc() : memref<8x64x64xf32>
            loom.copy %18, %alloc, interconnect : [], broadcast : [1, 1] : memref<?x?x?xf32, strided<[?, ?, ?], offset: ?>> to memref<8x64x64xf32>
            %19 = scf.for %arg13 = %c0 to %c8 step %c1 iter_args(%arg14 = %15) -> (tensor<64x64xf32>) {
              %23 = arith.muli %arg13, %c64 : index
              %24 = arith.muli %16, %c512 : index
              %25 = arith.addi %24, %23 : index
              %26 = loom.reinterpret_cast %arg0 to offset : [%25], sizes : [%c64, %c64], strides : [%c512, %c1], reuse : [seq = false, spat = true, temp = true] : memref<*xf32> to memref<?x?xf32, strided<[?, ?], offset: ?>>
              %alloc_0 = memref.alloc() : memref<64x64xf32>
              loom.copy %26, %alloc_0, interconnect : [], broadcast : [1, 1] : memref<?x?xf32, strided<[?, ?], offset: ?>> to memref<64x64xf32>
              %27 = bufferization.to_tensor %alloc_0 restrict writable : memref<64x64xf32> to tensor<64x64xf32>
              %subview = memref.subview %alloc[%arg13, 0, 0] [1, 64, 64] [1, 1, 1] : memref<8x64x64xf32> to memref<64x64xf32, strided<[64, 1], offset: ?>>
              %28 = bufferization.to_tensor %subview restrict writable : memref<64x64xf32, strided<[64, 1], offset: ?>> to tensor<64x64xf32>
              %29 = linalg.matmul ins(%27, %28 : tensor<64x64xf32>, tensor<64x64xf32>) outs(%15 : tensor<64x64xf32>) -> tensor<64x64xf32>
              %30 = linalg.generic {indexing_maps = [affine_map<(d0, d1) -> (d0, d1)>, affine_map<(d0, d1) -> (d0, d1)>, affine_map<(d0, d1) -> (d0, d1)>], iterator_types = ["parallel", "parallel"]} ins(%arg14, %29 : tensor<64x64xf32>, tensor<64x64xf32>) outs(%arg14 : tensor<64x64xf32>) {
              ^bb0(%in: f32, %in_1: f32, %out: f32):
                %31 = arith.addf %in, %in_1 : f32
                linalg.yield %31 : f32
              } -> tensor<64x64xf32>
              scf.yield %30 : tensor<64x64xf32>
            }
            %20 = arith.muli %16, %c512 : index
            %21 = arith.addi %20, %17 : index
            %22 = loom.reinterpret_cast %arg2 to offset : [%21], sizes : [%c64, %c64], strides : [%c512, %c1], reuse : [seq = false, spat = false, temp = false] : memref<*xf32> to memref<?x?xf32, strided<[?, ?], offset: ?>>
            bufferization.materialize_in_destination %19 in writable %22 : (tensor<64x64xf32>, memref<?x?xf32, strided<[?, ?], offset: ?>>) -> ()
          }
        }
      } {loom.mapped_to = @y}
    } {loom.mapped_to = @x}
    return
  }
  func.func @matmul_kernel__d0i0_d1i1__f01__hoist_block_1__d_h(%arg0: memref<*xf32> {tt.divisibility = 16 : i32}, %arg1: memref<*xf32> {tt.divisibility = 16 : i32}, %arg2: memref<*xf32> {tt.divisibility = 16 : i32}, %arg3: index, %arg4: index, %arg5: index, %arg6: index, %arg7: index, %arg8: index) {
    %c32768 = arith.constant 32768 : index
    %c8 = arith.constant 8 : index
    %c0 = arith.constant 0 : index
    %cst = arith.constant 0.000000e+00 : f32
    %c64 = arith.constant 64 : index
    %c1 = arith.constant 1 : index
    %c512 = arith.constant 512 : index
    affine.parallel (%arg9) = (0) to (8) {
      affine.parallel (%arg10) = (0) to (8) {
        affine.for %arg11 = 0 to affine_map<()[s0] -> (s0 ceildiv 8)>()[%arg3] {
          affine.for %arg12 = 0 to affine_map<()[s0] -> (s0 ceildiv 8)>()[%arg4] {
            %12 = affine.apply affine_map<(d0, d1) -> (d0 * 8 + d1)>(%arg10, %arg12)
            %13 = affine.apply affine_map<(d0, d1) -> (d0 * 8 + d1)>(%arg9, %arg11)
            %14 = tensor.empty() : tensor<64x64xf32>
            %15 = linalg.fill ins(%cst : f32) outs(%14 : tensor<64x64xf32>) -> tensor<64x64xf32>
            %16 = arith.muli %13, %c64 : index
            %17 = arith.muli %12, %c64 : index
            %18 = loom.reinterpret_cast %arg1 to offset : [%17], sizes : [%c8, %c64, %c64], strides : [%c32768, %c512, %c1], reuse : [seq = false, spat = true, temp = true] : memref<*xf32> to memref<?x?x?xf32, strided<[?, ?, ?], offset: ?>>
            %alloc = memref.alloc() : memref<8x64x64xf32>
            loom.copy %18, %alloc, interconnect : [], broadcast : [1, 1] : memref<?x?x?xf32, strided<[?, ?, ?], offset: ?>> to memref<8x64x64xf32>
            %19 = scf.for %arg13 = %c0 to %c8 step %c1 iter_args(%arg14 = %15) -> (tensor<64x64xf32>) {
              %23 = arith.muli %arg13, %c64 : index
              %24 = arith.muli %16, %c512 : index
              %25 = arith.addi %24, %23 : index
              %26 = loom.reinterpret_cast %arg0 to offset : [%25], sizes : [%c64, %c64], strides : [%c512, %c1], reuse : [seq = false, spat = true, temp = true] : memref<*xf32> to memref<?x?xf32, strided<[?, ?], offset: ?>>
              %alloc_0 = memref.alloc() : memref<64x64xf32>
              loom.copy %26, %alloc_0, interconnect : [@horizontal_links], broadcast : [1, 8] : memref<?x?xf32, strided<[?, ?], offset: ?>> to memref<64x64xf32>
              %27 = bufferization.to_tensor %alloc_0 restrict writable : memref<64x64xf32> to tensor<64x64xf32>
              %subview = memref.subview %alloc[%arg13, 0, 0] [1, 64, 64] [1, 1, 1] : memref<8x64x64xf32> to memref<64x64xf32, strided<[64, 1], offset: ?>>
              %28 = bufferization.to_tensor %subview restrict writable : memref<64x64xf32, strided<[64, 1], offset: ?>> to tensor<64x64xf32>
              %29 = linalg.matmul ins(%27, %28 : tensor<64x64xf32>, tensor<64x64xf32>) outs(%15 : tensor<64x64xf32>) -> tensor<64x64xf32>
              %30 = linalg.generic {indexing_maps = [affine_map<(d0, d1) -> (d0, d1)>, affine_map<(d0, d1) -> (d0, d1)>, affine_map<(d0, d1) -> (d0, d1)>], iterator_types = ["parallel", "parallel"]} ins(%arg14, %29 : tensor<64x64xf32>, tensor<64x64xf32>) outs(%arg14 : tensor<64x64xf32>) {
              ^bb0(%in: f32, %in_1: f32, %out: f32):
                %31 = arith.addf %in, %in_1 : f32
                linalg.yield %31 : f32
              } -> tensor<64x64xf32>
              scf.yield %30 : tensor<64x64xf32>
            }
            %20 = arith.muli %16, %c512 : index
            %21 = arith.addi %20, %17 : index
            %22 = loom.reinterpret_cast %arg2 to offset : [%21], sizes : [%c64, %c64], strides : [%c512, %c1], reuse : [seq = false, spat = false, temp = false] : memref<*xf32> to memref<?x?xf32, strided<[?, ?], offset: ?>>
            bufferization.materialize_in_destination %19 in writable %22 : (tensor<64x64xf32>, memref<?x?xf32, strided<[?, ?], offset: ?>>) -> ()
          }
        }
      } {loom.mapped_to = @y}
    } {loom.mapped_to = @x}
    return
  }
  func.func @matmul_kernel__d0i0_d1i1__f01__hoist_block_1__v_d(%arg0: memref<*xf32> {tt.divisibility = 16 : i32}, %arg1: memref<*xf32> {tt.divisibility = 16 : i32}, %arg2: memref<*xf32> {tt.divisibility = 16 : i32}, %arg3: index, %arg4: index, %arg5: index, %arg6: index, %arg7: index, %arg8: index) {
    %c32768 = arith.constant 32768 : index
    %c8 = arith.constant 8 : index
    %c0 = arith.constant 0 : index
    %cst = arith.constant 0.000000e+00 : f32
    %c64 = arith.constant 64 : index
    %c1 = arith.constant 1 : index
    %c512 = arith.constant 512 : index
    affine.parallel (%arg9) = (0) to (8) {
      affine.parallel (%arg10) = (0) to (8) {
        affine.for %arg11 = 0 to affine_map<()[s0] -> (s0 ceildiv 8)>()[%arg3] {
          affine.for %arg12 = 0 to affine_map<()[s0] -> (s0 ceildiv 8)>()[%arg4] {
            %12 = affine.apply affine_map<(d0, d1) -> (d0 * 8 + d1)>(%arg10, %arg12)
            %13 = affine.apply affine_map<(d0, d1) -> (d0 * 8 + d1)>(%arg9, %arg11)
            %14 = tensor.empty() : tensor<64x64xf32>
            %15 = linalg.fill ins(%cst : f32) outs(%14 : tensor<64x64xf32>) -> tensor<64x64xf32>
            %16 = arith.muli %13, %c64 : index
            %17 = arith.muli %12, %c64 : index
            %18 = loom.reinterpret_cast %arg1 to offset : [%17], sizes : [%c8, %c64, %c64], strides : [%c32768, %c512, %c1], reuse : [seq = false, spat = true, temp = true] : memref<*xf32> to memref<?x?x?xf32, strided<[?, ?, ?], offset: ?>>
            %alloc = memref.alloc() : memref<8x64x64xf32>
            loom.copy %18, %alloc, interconnect : [@vertical_links], broadcast : [8, 1] : memref<?x?x?xf32, strided<[?, ?, ?], offset: ?>> to memref<8x64x64xf32>
            %19 = scf.for %arg13 = %c0 to %c8 step %c1 iter_args(%arg14 = %15) -> (tensor<64x64xf32>) {
              %23 = arith.muli %arg13, %c64 : index
              %24 = arith.muli %16, %c512 : index
              %25 = arith.addi %24, %23 : index
              %26 = loom.reinterpret_cast %arg0 to offset : [%25], sizes : [%c64, %c64], strides : [%c512, %c1], reuse : [seq = false, spat = true, temp = true] : memref<*xf32> to memref<?x?xf32, strided<[?, ?], offset: ?>>
              %alloc_0 = memref.alloc() : memref<64x64xf32>
              loom.copy %26, %alloc_0, interconnect : [], broadcast : [1, 1] : memref<?x?xf32, strided<[?, ?], offset: ?>> to memref<64x64xf32>
              %27 = bufferization.to_tensor %alloc_0 restrict writable : memref<64x64xf32> to tensor<64x64xf32>
              %subview = memref.subview %alloc[%arg13, 0, 0] [1, 64, 64] [1, 1, 1] : memref<8x64x64xf32> to memref<64x64xf32, strided<[64, 1], offset: ?>>
              %28 = bufferization.to_tensor %subview restrict writable : memref<64x64xf32, strided<[64, 1], offset: ?>> to tensor<64x64xf32>
              %29 = linalg.matmul ins(%27, %28 : tensor<64x64xf32>, tensor<64x64xf32>) outs(%15 : tensor<64x64xf32>) -> tensor<64x64xf32>
              %30 = linalg.generic {indexing_maps = [affine_map<(d0, d1) -> (d0, d1)>, affine_map<(d0, d1) -> (d0, d1)>, affine_map<(d0, d1) -> (d0, d1)>], iterator_types = ["parallel", "parallel"]} ins(%arg14, %29 : tensor<64x64xf32>, tensor<64x64xf32>) outs(%arg14 : tensor<64x64xf32>) {
              ^bb0(%in: f32, %in_1: f32, %out: f32):
                %31 = arith.addf %in, %in_1 : f32
                linalg.yield %31 : f32
              } -> tensor<64x64xf32>
              scf.yield %30 : tensor<64x64xf32>
            }
            %20 = arith.muli %16, %c512 : index
            %21 = arith.addi %20, %17 : index
            %22 = loom.reinterpret_cast %arg2 to offset : [%21], sizes : [%c64, %c64], strides : [%c512, %c1], reuse : [seq = false, spat = false, temp = false] : memref<*xf32> to memref<?x?xf32, strided<[?, ?], offset: ?>>
            bufferization.materialize_in_destination %19 in writable %22 : (tensor<64x64xf32>, memref<?x?xf32, strided<[?, ?], offset: ?>>) -> ()
          }
        }
      } {loom.mapped_to = @y}
    } {loom.mapped_to = @x}
    return
  }
  func.func @matmul_kernel__d0i0_d1i1__f01__hoist_block_1__v_h(%arg0: memref<*xf32> {tt.divisibility = 16 : i32}, %arg1: memref<*xf32> {tt.divisibility = 16 : i32}, %arg2: memref<*xf32> {tt.divisibility = 16 : i32}, %arg3: index, %arg4: index, %arg5: index, %arg6: index, %arg7: index, %arg8: index) {
    %c32768 = arith.constant 32768 : index
    %c8 = arith.constant 8 : index
    %c0 = arith.constant 0 : index
    %cst = arith.constant 0.000000e+00 : f32
    %c64 = arith.constant 64 : index
    %c1 = arith.constant 1 : index
    %c512 = arith.constant 512 : index
    affine.parallel (%arg9) = (0) to (8) {
      affine.parallel (%arg10) = (0) to (8) {
        affine.for %arg11 = 0 to affine_map<()[s0] -> (s0 ceildiv 8)>()[%arg3] {
          affine.for %arg12 = 0 to affine_map<()[s0] -> (s0 ceildiv 8)>()[%arg4] {
            %12 = affine.apply affine_map<(d0, d1) -> (d0 * 8 + d1)>(%arg10, %arg12)
            %13 = affine.apply affine_map<(d0, d1) -> (d0 * 8 + d1)>(%arg9, %arg11)
            %14 = tensor.empty() : tensor<64x64xf32>
            %15 = linalg.fill ins(%cst : f32) outs(%14 : tensor<64x64xf32>) -> tensor<64x64xf32>
            %16 = arith.muli %13, %c64 : index
            %17 = arith.muli %12, %c64 : index
            %18 = loom.reinterpret_cast %arg1 to offset : [%17], sizes : [%c8, %c64, %c64], strides : [%c32768, %c512, %c1], reuse : [seq = false, spat = true, temp = true] : memref<*xf32> to memref<?x?x?xf32, strided<[?, ?, ?], offset: ?>>
            %alloc = memref.alloc() : memref<8x64x64xf32>
            loom.copy %18, %alloc, interconnect : [@vertical_links], broadcast : [8, 1] : memref<?x?x?xf32, strided<[?, ?, ?], offset: ?>> to memref<8x64x64xf32>
            %19 = scf.for %arg13 = %c0 to %c8 step %c1 iter_args(%arg14 = %15) -> (tensor<64x64xf32>) {
              %23 = arith.muli %arg13, %c64 : index
              %24 = arith.muli %16, %c512 : index
              %25 = arith.addi %24, %23 : index
              %26 = loom.reinterpret_cast %arg0 to offset : [%25], sizes : [%c64, %c64], strides : [%c512, %c1], reuse : [seq = false, spat = true, temp = true] : memref<*xf32> to memref<?x?xf32, strided<[?, ?], offset: ?>>
              %alloc_0 = memref.alloc() : memref<64x64xf32>
              loom.copy %26, %alloc_0, interconnect : [@horizontal_links], broadcast : [1, 8] : memref<?x?xf32, strided<[?, ?], offset: ?>> to memref<64x64xf32>
              %27 = bufferization.to_tensor %alloc_0 restrict writable : memref<64x64xf32> to tensor<64x64xf32>
              %subview = memref.subview %alloc[%arg13, 0, 0] [1, 64, 64] [1, 1, 1] : memref<8x64x64xf32> to memref<64x64xf32, strided<[64, 1], offset: ?>>
              %28 = bufferization.to_tensor %subview restrict writable : memref<64x64xf32, strided<[64, 1], offset: ?>> to tensor<64x64xf32>
              %29 = linalg.matmul ins(%27, %28 : tensor<64x64xf32>, tensor<64x64xf32>) outs(%15 : tensor<64x64xf32>) -> tensor<64x64xf32>
              %30 = linalg.generic {indexing_maps = [affine_map<(d0, d1) -> (d0, d1)>, affine_map<(d0, d1) -> (d0, d1)>, affine_map<(d0, d1) -> (d0, d1)>], iterator_types = ["parallel", "parallel"]} ins(%arg14, %29 : tensor<64x64xf32>, tensor<64x64xf32>) outs(%arg14 : tensor<64x64xf32>) {
              ^bb0(%in: f32, %in_1: f32, %out: f32):
                %31 = arith.addf %in, %in_1 : f32
                linalg.yield %31 : f32
              } -> tensor<64x64xf32>
              scf.yield %30 : tensor<64x64xf32>
            }
            %20 = arith.muli %16, %c512 : index
            %21 = arith.addi %20, %17 : index
            %22 = loom.reinterpret_cast %arg2 to offset : [%21], sizes : [%c64, %c64], strides : [%c512, %c1], reuse : [seq = false, spat = false, temp = false] : memref<*xf32> to memref<?x?xf32, strided<[?, ?], offset: ?>>
            bufferization.materialize_in_destination %19 in writable %22 : (tensor<64x64xf32>, memref<?x?xf32, strided<[?, ?], offset: ?>>) -> ()
          }
        }
      } {loom.mapped_to = @y}
    } {loom.mapped_to = @x}
    return
  }
  func.func @matmul_kernel__d0i0_d1i1__f10__d_d(%arg0: memref<*xf32> {tt.divisibility = 16 : i32}, %arg1: memref<*xf32> {tt.divisibility = 16 : i32}, %arg2: memref<*xf32> {tt.divisibility = 16 : i32}, %arg3: index, %arg4: index, %arg5: index, %arg6: index, %arg7: index, %arg8: index) {
    %c8 = arith.constant 8 : index
    %c0 = arith.constant 0 : index
    %cst = arith.constant 0.000000e+00 : f32
    %c64 = arith.constant 64 : index
    %c1 = arith.constant 1 : index
    %c512 = arith.constant 512 : index
    affine.parallel (%arg9) = (0) to (8) {
      affine.parallel (%arg10) = (0) to (8) {
        affine.for %arg11 = 0 to affine_map<()[s0] -> (s0 ceildiv 8)>()[%arg4] {
          affine.for %arg12 = 0 to affine_map<()[s0] -> (s0 ceildiv 8)>()[%arg3] {
            %12 = affine.apply affine_map<(d0, d1) -> (d0 * 8 + d1)>(%arg10, %arg11)
            %13 = affine.apply affine_map<(d0, d1) -> (d0 * 8 + d1)>(%arg9, %arg12)
            %14 = tensor.empty() : tensor<64x64xf32>
            %15 = linalg.fill ins(%cst : f32) outs(%14 : tensor<64x64xf32>) -> tensor<64x64xf32>
            %16 = arith.muli %13, %c64 : index
            %17 = arith.muli %12, %c64 : index
            %18 = scf.for %arg13 = %c0 to %c8 step %c1 iter_args(%arg14 = %15) -> (tensor<64x64xf32>) {
              %22 = arith.muli %arg13, %c64 : index
              %23 = arith.muli %16, %c512 : index
              %24 = arith.addi %23, %22 : index
              %25 = loom.reinterpret_cast %arg0 to offset : [%24], sizes : [%c64, %c64], strides : [%c512, %c1], reuse : [seq = false, spat = true, temp = true] : memref<*xf32> to memref<?x?xf32, strided<[?, ?], offset: ?>>
              %alloc = memref.alloc() : memref<64x64xf32>
              loom.copy %25, %alloc, interconnect : [], broadcast : [1, 1] : memref<?x?xf32, strided<[?, ?], offset: ?>> to memref<64x64xf32>
              %26 = bufferization.to_tensor %alloc restrict writable : memref<64x64xf32> to tensor<64x64xf32>
              %27 = arith.muli %22, %c512 : index
              %28 = arith.addi %27, %17 : index
              %29 = loom.reinterpret_cast %arg1 to offset : [%28], sizes : [%c64, %c64], strides : [%c512, %c1], reuse : [seq = false, spat = true, temp = true] : memref<*xf32> to memref<?x?xf32, strided<[?, ?], offset: ?>>
              %alloc_0 = memref.alloc() : memref<64x64xf32>
              loom.copy %29, %alloc_0, interconnect : [], broadcast : [1, 1] : memref<?x?xf32, strided<[?, ?], offset: ?>> to memref<64x64xf32>
              %30 = bufferization.to_tensor %alloc_0 restrict writable : memref<64x64xf32> to tensor<64x64xf32>
              %31 = linalg.matmul ins(%26, %30 : tensor<64x64xf32>, tensor<64x64xf32>) outs(%15 : tensor<64x64xf32>) -> tensor<64x64xf32>
              %32 = linalg.generic {indexing_maps = [affine_map<(d0, d1) -> (d0, d1)>, affine_map<(d0, d1) -> (d0, d1)>, affine_map<(d0, d1) -> (d0, d1)>], iterator_types = ["parallel", "parallel"]} ins(%arg14, %31 : tensor<64x64xf32>, tensor<64x64xf32>) outs(%arg14 : tensor<64x64xf32>) {
              ^bb0(%in: f32, %in_1: f32, %out: f32):
                %33 = arith.addf %in, %in_1 : f32
                linalg.yield %33 : f32
              } -> tensor<64x64xf32>
              scf.yield %32 : tensor<64x64xf32>
            }
            %19 = arith.muli %16, %c512 : index
            %20 = arith.addi %19, %17 : index
            %21 = loom.reinterpret_cast %arg2 to offset : [%20], sizes : [%c64, %c64], strides : [%c512, %c1], reuse : [seq = false, spat = false, temp = false] : memref<*xf32> to memref<?x?xf32, strided<[?, ?], offset: ?>>
            bufferization.materialize_in_destination %18 in writable %21 : (tensor<64x64xf32>, memref<?x?xf32, strided<[?, ?], offset: ?>>) -> ()
          }
        }
      } {loom.mapped_to = @y}
    } {loom.mapped_to = @x}
    return
  }
  func.func @matmul_kernel__d0i0_d1i1__f10__d_v(%arg0: memref<*xf32> {tt.divisibility = 16 : i32}, %arg1: memref<*xf32> {tt.divisibility = 16 : i32}, %arg2: memref<*xf32> {tt.divisibility = 16 : i32}, %arg3: index, %arg4: index, %arg5: index, %arg6: index, %arg7: index, %arg8: index) {
    %c8 = arith.constant 8 : index
    %c0 = arith.constant 0 : index
    %cst = arith.constant 0.000000e+00 : f32
    %c64 = arith.constant 64 : index
    %c1 = arith.constant 1 : index
    %c512 = arith.constant 512 : index
    affine.parallel (%arg9) = (0) to (8) {
      affine.parallel (%arg10) = (0) to (8) {
        affine.for %arg11 = 0 to affine_map<()[s0] -> (s0 ceildiv 8)>()[%arg4] {
          affine.for %arg12 = 0 to affine_map<()[s0] -> (s0 ceildiv 8)>()[%arg3] {
            %12 = affine.apply affine_map<(d0, d1) -> (d0 * 8 + d1)>(%arg10, %arg11)
            %13 = affine.apply affine_map<(d0, d1) -> (d0 * 8 + d1)>(%arg9, %arg12)
            %14 = tensor.empty() : tensor<64x64xf32>
            %15 = linalg.fill ins(%cst : f32) outs(%14 : tensor<64x64xf32>) -> tensor<64x64xf32>
            %16 = arith.muli %13, %c64 : index
            %17 = arith.muli %12, %c64 : index
            %18 = scf.for %arg13 = %c0 to %c8 step %c1 iter_args(%arg14 = %15) -> (tensor<64x64xf32>) {
              %22 = arith.muli %arg13, %c64 : index
              %23 = arith.muli %16, %c512 : index
              %24 = arith.addi %23, %22 : index
              %25 = loom.reinterpret_cast %arg0 to offset : [%24], sizes : [%c64, %c64], strides : [%c512, %c1], reuse : [seq = false, spat = true, temp = true] : memref<*xf32> to memref<?x?xf32, strided<[?, ?], offset: ?>>
              %alloc = memref.alloc() : memref<64x64xf32>
              loom.copy %25, %alloc, interconnect : [], broadcast : [1, 1] : memref<?x?xf32, strided<[?, ?], offset: ?>> to memref<64x64xf32>
              %26 = bufferization.to_tensor %alloc restrict writable : memref<64x64xf32> to tensor<64x64xf32>
              %27 = arith.muli %22, %c512 : index
              %28 = arith.addi %27, %17 : index
              %29 = loom.reinterpret_cast %arg1 to offset : [%28], sizes : [%c64, %c64], strides : [%c512, %c1], reuse : [seq = false, spat = true, temp = true] : memref<*xf32> to memref<?x?xf32, strided<[?, ?], offset: ?>>
              %alloc_0 = memref.alloc() : memref<64x64xf32>
              loom.copy %29, %alloc_0, interconnect : [@vertical_links], broadcast : [8, 1] : memref<?x?xf32, strided<[?, ?], offset: ?>> to memref<64x64xf32>
              %30 = bufferization.to_tensor %alloc_0 restrict writable : memref<64x64xf32> to tensor<64x64xf32>
              %31 = linalg.matmul ins(%26, %30 : tensor<64x64xf32>, tensor<64x64xf32>) outs(%15 : tensor<64x64xf32>) -> tensor<64x64xf32>
              %32 = linalg.generic {indexing_maps = [affine_map<(d0, d1) -> (d0, d1)>, affine_map<(d0, d1) -> (d0, d1)>, affine_map<(d0, d1) -> (d0, d1)>], iterator_types = ["parallel", "parallel"]} ins(%arg14, %31 : tensor<64x64xf32>, tensor<64x64xf32>) outs(%arg14 : tensor<64x64xf32>) {
              ^bb0(%in: f32, %in_1: f32, %out: f32):
                %33 = arith.addf %in, %in_1 : f32
                linalg.yield %33 : f32
              } -> tensor<64x64xf32>
              scf.yield %32 : tensor<64x64xf32>
            }
            %19 = arith.muli %16, %c512 : index
            %20 = arith.addi %19, %17 : index
            %21 = loom.reinterpret_cast %arg2 to offset : [%20], sizes : [%c64, %c64], strides : [%c512, %c1], reuse : [seq = false, spat = false, temp = false] : memref<*xf32> to memref<?x?xf32, strided<[?, ?], offset: ?>>
            bufferization.materialize_in_destination %18 in writable %21 : (tensor<64x64xf32>, memref<?x?xf32, strided<[?, ?], offset: ?>>) -> ()
          }
        }
      } {loom.mapped_to = @y}
    } {loom.mapped_to = @x}
    return
  }
…
    affine.parallel (%arg9) = (0) to (8) {
      affine.parallel (%arg10) = (0) to (8) {
        affine.for %arg11 = 0 to %arg3 {
          affine.for %arg12 = 0 to affine_map<()[s0] -> ((s0 ceildiv 8) ceildiv 8)>()[%arg4] {
            %12 = affine.apply affine_map<(d0, d1, d2) -> (d0 * 8 + d1 * 8 + d2)>(%arg9, %arg10, %arg12)
            %13 = tensor.empty() : tensor<64x64xf32>
            %14 = linalg.fill ins(%cst : f32) outs(%13 : tensor<64x64xf32>) -> tensor<64x64xf32>
            %15 = arith.muli %arg11, %c64 : index
            %16 = arith.muli %12, %c64 : index
            %17 = loom.reinterpret_cast %arg1 to offset : [%16], sizes : [%c8, %c64, %c64], strides : [%c32768, %c512, %c1], reuse : [seq = false, spat = false, temp = true] : memref<*xf32> to memref<?x?x?xf32, strided<[?, ?, ?], offset: ?>>
            %alloc = memref.alloc() : memref<8x64x64xf32>
            loom.copy %17, %alloc, interconnect : [], broadcast : [1, 1] : memref<?x?x?xf32, strided<[?, ?, ?], offset: ?>> to memref<8x64x64xf32>
            %18 = scf.for %arg13 = %c0 to %c8 step %c1 iter_args(%arg14 = %14) -> (tensor<64x64xf32>) {
              %22 = arith.muli %arg13, %c64 : index
              %23 = arith.muli %15, %c512 : index
              %24 = arith.addi %23, %22 : index
              %25 = loom.reinterpret_cast %arg0 to offset : [%24], sizes : [%c64, %c64], strides : [%c512, %c1], reuse : [seq = false, spat = true, temp = true] : memref<*xf32> to memref<?x?xf32, strided<[?, ?], offset: ?>>
              %alloc_0 = memref.alloc() : memref<64x64xf32>
              loom.copy %25, %alloc_0, interconnect : [@vertical_links], broadcast : [8, 1] : memref<?x?xf32, strided<[?, ?], offset: ?>> to memref<64x64xf32>
              %26 = bufferization.to_tensor %alloc_0 restrict writable : memref<64x64xf32> to tensor<64x64xf32>
              %subview = memref.subview %alloc[%arg13, 0, 0] [1, 64, 64] [1, 1, 1] : memref<8x64x64xf32> to memref<64x64xf32, strided<[64, 1], offset: ?>>
              %27 = bufferization.to_tensor %subview restrict writable : memref<64x64xf32, strided<[64, 1], offset: ?>> to tensor<64x64xf32>
              %28 = linalg.matmul ins(%26, %27 : tensor<64x64xf32>, tensor<64x64xf32>) outs(%14 : tensor<64x64xf32>) -> tensor<64x64xf32>
              %29 = linalg.generic {indexing_maps = [affine_map<(d0, d1) -> (d0, d1)>, affine_map<(d0, d1) -> (d0, d1)>, affine_map<(d0, d1) -> (d0, d1)>], iterator_types = ["parallel", "parallel"]} ins(%arg14, %28 : tensor<64x64xf32>, tensor<64x64xf32>) outs(%arg14 : tensor<64x64xf32>) {
              ^bb0(%in: f32, %in_1: f32, %out: f32):
                %30 = arith.addf %in, %in_1 : f32
                linalg.yield %30 : f32
              } -> tensor<64x64xf32>
              scf.yield %29 : tensor<64x64xf32>
            }
            %19 = arith.muli %15, %c512 : index
            %20 = arith.addi %19, %16 : index
            %21 = loom.reinterpret_cast %arg2 to offset : [%20], sizes : [%c64, %c64], strides : [%c512, %c1], reuse : [seq = false, spat = false, temp = false] : memref<*xf32> to memref<?x?xf32, strided<[?, ?], offset: ?>>
            bufferization.materialize_in_destination %18 in writable %21 : (tensor<64x64xf32>, memref<?x?xf32, strided<[?, ?], offset: ?>>) -> ()
          }
        }
      } {loom.mapped_to = @y}
    } {loom.mapped_to = @x}
    return
  }
  func.func @matmul_kernel__d0i1_d1i1__f10__d_d(%arg0: memref<*xf32> {tt.divisibility = 16 : i32}, %arg1: memref<*xf32> {tt.divisibility = 16 : i32}, %arg2: memref<*xf32> {tt.divisibility = 16 : i32}, %arg3: index, %arg4: index, %arg5: index, %arg6: index, %arg7: index, %arg8: index) {
    %c8 = arith.constant 8 : index
    %c0 = arith.constant 0 : index
    %cst = arith.constant 0.000000e+00 : f32
    %c64 = arith.constant 64 : index
    %c1 = arith.constant 1 : index
    %c512 = arith.constant 512 : index
    affine.parallel (%arg9) = (0) to (8) {
      affine.parallel (%arg10) = (0) to (8) {
        affine.for %arg11 = 0 to affine_map<()[s0] -> ((s0 ceildiv 8) ceildiv 8)>()[%arg4] {
          affine.for %arg12 = 0 to %arg3 {
            %12 = affine.apply affine_map<(d0, d1, d2) -> (d0 * 8 + d1 * 8 + d2)>(%arg9, %arg10, %arg11)
            %13 = tensor.empty() : tensor<64x64xf32>
            %14 = linalg.fill ins(%cst : f32) outs(%13 : tensor<64x64xf32>) -> tensor<64x64xf32>
            %15 = arith.muli %arg12, %c64 : index
            %16 = arith.muli %12, %c64 : index
            %17 = scf.for %arg13 = %c0 to %c8 step %c1 iter_args(%arg14 = %14) -> (tensor<64x64xf32>) {
              %21 = arith.muli %arg13, %c64 : index
              %22 = arith.muli %15, %c512 : index
              %23 = arith.addi %22, %21 : index
              %24 = loom.reinterpret_cast %arg0 to offset : [%23], sizes : [%c64, %c64], strides : [%c512, %c1], reuse : [seq = false, spat = true, temp = true] : memref<*xf32> to memref<?x?xf32, strided<[?, ?], offset: ?>>
              %alloc = memref.alloc() : memref<64x64xf32>
              loom.copy %24, %alloc, interconnect : [], broadcast : [1, 1] : memref<?x?xf32, strided<[?, ?], offset: ?>> to memref<64x64xf32>
              %25 = bufferization.to_tensor %alloc restrict writable : memref<64x64xf32> to tensor<64x64xf32>
              %26 = arith.muli %21, %c512 : index
              %27 = arith.addi %26, %16 : index
              %28 = loom.reinterpret_cast %arg1 to offset : [%27], sizes : [%c64, %c64], strides : [%c512, %c1], reuse : [seq = false, spat = false, temp = true] : memref<*xf32> to memref<?x?xf32, strided<[?, ?], offset: ?>>
              %alloc_0 = memref.alloc() : memref<64x64xf32>
              loom.copy %28, %alloc_0, interconnect : [], broadcast : [1, 1] : memref<?x?xf32, strided<[?, ?], offset: ?>> to memref<64x64xf32>
              %29 = bufferization.to_tensor %alloc_0 restrict writable : memref<64x64xf32> to tensor<64x64xf32>
              %30 = linalg.matmul ins(%25, %29 : tensor<64x64xf32>, tensor<64x64xf32>) outs(%14 : tensor<64x64xf32>) -> tensor<64x64xf32>
              %31 = linalg.generic {indexing_maps = [affine_map<(d0, d1) -> (d0, d1)>, affine_map<(d0, d1) -> (d0, d1)>, affine_map<(d0, d1) -> (d0, d1)>], iterator_types = ["parallel", "parallel"]} ins(%arg14, %30 : tensor<64x64xf32>, tensor<64x64xf32>) outs(%arg14 : tensor<64x64xf32>) {
              ^bb0(%in: f32, %in_1: f32, %out: f32):
                %32 = arith.addf %in, %in_1 : f32
                linalg.yield %32 : f32
              } -> tensor<64x64xf32>
              scf.yield %31 : tensor<64x64xf32>
            }
            %18 = arith.muli %15, %c512 : index
            %19 = arith.addi %18, %16 : index
            %20 = loom.reinterpret_cast %arg2 to offset : [%19], sizes : [%c64, %c64], strides : [%c512, %c1], reuse : [seq = false, spat = false, temp = false] : memref<*xf32> to memref<?x?xf32, strided<[?, ?], offset: ?>>
            bufferization.materialize_in_destination %17 in writable %20 : (tensor<64x64xf32>, memref<?x?xf32, strided<[?, ?], offset: ?>>) -> ()
          }
        }
      } {loom.mapped_to = @y}
    } {loom.mapped_to = @x}
    return
  }
  func.func @matmul_kernel__d0i1_d1i1__f10__a_d(%arg0: memref<*xf32> {tt.divisibility = 16 : i32}, %arg1: memref<*xf32> {tt.divisibility = 16 : i32}, %arg2: memref<*xf32> {tt.divisibility = 16 : i32}, %arg3: index, %arg4: index, %arg5: index, %arg6: index, %arg7: index, %arg8: index) {
    %c8 = arith.constant 8 : index
    %c0 = arith.constant 0 : index
    %cst = arith.constant 0.000000e+00 : f32
    %c64 = arith.constant 64 : index
    %c1 = arith.constant 1 : index
    %c512 = arith.constant 512 : index
    affine.parallel (%arg9) = (0) to (8) {
      affine.parallel (%arg10) = (0) to (8) {
        affine.for %arg11 = 0 to affine_map<()[s0] -> ((s0 ceildiv 8) ceildiv 8)>()[%arg4] {
          affine.for %arg12 = 0 to %arg3 {
            %12 = affine.apply affine_map<(d0, d1, d2) -> (d0 * 8 + d1 * 8 + d2)>(%arg9, %arg10, %arg11)
            %13 = tensor.empty() : tensor<64x64xf32>
            %14 = linalg.fill ins(%cst : f32) outs(%13 : tensor<64x64xf32>) -> tensor<64x64xf32>
            %15 = arith.muli %arg12, %c64 : index
            %16 = arith.muli %12, %c64 : index
            %17 = scf.for %arg13 = %c0 to %c8 step %c1 iter_args(%arg14 = %14) -> (tensor<64x64xf32>) {
              %21 = arith.muli %arg13, %c64 : index
              %22 = arith.muli %15, %c512 : index
              %23 = arith.addi %22, %21 : index
              %24 = loom.reinterpret_cast %arg0 to offset : [%23], sizes : [%c64, %c64], strides : [%c512, %c1], reuse : [seq = false, spat = true, temp = true] : memref<*xf32> to memref<?x?xf32, strided<[?, ?], offset: ?>>
              %alloc = memref.alloc() : memref<64x64xf32>
              loom.copy %24, %alloc, interconnect : [@horizontal_links, @vertical_links], broadcast : [8, 8] : memref<?x?xf32, strided<[?, ?], offset: ?>> to memref<64x64xf32>
              %25 = bufferization.to_tensor %alloc restrict writable : memref<64x64xf32> to tensor<64x64xf32>
              %26 = arith.muli %21, %c512 : index
              %27 = arith.addi %26, %16 : index
              %28 = loom.reinterpret_cast %arg1 to offset : [%27], sizes : [%c64, %c64], strides : [%c512, %c1], reuse : [seq = false, spat = false, temp = true] : memref<*xf32> to memref<?x?xf32, strided<[?, ?], offset: ?>>
              %alloc_0 = memref.alloc() : memref<64x64xf32>
              loom.copy %28, %alloc_0, interconnect : [], broadcast : [1, 1] : memref<?x?xf32, strided<[?, ?], offset: ?>> to memref<64x64xf32>
              %29 = bufferization.to_tensor %alloc_0 restrict writable : memref<64x64xf32> to tensor<64x64xf32>
              %30 = linalg.matmul ins(%25, %29 : tensor<64x64xf32>, tensor<64x64xf32>) outs(%14 : tensor<64x64xf32>) -> tensor<64x64xf32>
              %31 = linalg.generic {indexing_maps = [affine_map<(d0, d1) -> (d0, d1)>, affine_map<(d0, d1) -> (d0, d1)>, affine_map<(d0, d1) -> (d0, d1)>], iterator_types = ["parallel", "parallel"]} ins(%arg14, %30 : tensor<64x64xf32>, tensor<64x64xf32>) outs(%arg14 : tensor<64x64xf32>) {
              ^bb0(%in: f32, %in_1: f32, %out: f32):
                %32 = arith.addf %in, %in_1 : f32
                linalg.yield %32 : f32
              } -> tensor<64x64xf32>
              scf.yield %31 : tensor<64x64xf32>
            }
            %18 = arith.muli %15, %c512 : index
            %19 = arith.addi %18, %16 : index
            %20 = loom.reinterpret_cast %arg2 to offset : [%19], sizes : [%c64, %c64], strides : [%c512, %c1], reuse : [seq = false, spat = false, temp = false] : memref<*xf32> to memref<?x?xf32, strided<[?, ?], offset: ?>>
            bufferization.materialize_in_destination %17 in writable %20 : (tensor<64x64xf32>, memref<?x?xf32, strided<[?, ?], offset: ?>>) -> ()
          }
        }
      } {loom.mapped_to = @y}
    } {loom.mapped_to = @x}
    return
  }
  func.func @matmul_kernel__d0i1_d1i1__f10__h_d(%arg0: memref<*xf32> {tt.divisibility = 16 : i32}, %arg1: memref<*xf32> {tt.divisibility = 16 : i32}, %arg2: memref<*xf32> {tt.divisibility = 16 : i32}, %arg3: index, %arg4: index, %arg5: index, %arg6: index, %arg7: index, %arg8: index) {
    %c8 = arith.constant 8 : index
    %c0 = arith.constant 0 : index
    %cst = arith.constant 0.000000e+00 : f32
    %c64 = arith.constant 64 : index
    %c1 = arith.constant 1 : index
    %c512 = arith.constant 512 : index
    affine.parallel (%arg9) = (0) to (8) {
      affine.parallel (%arg10) = (0) to (8) {
        affine.for %arg11 = 0 to affine_map<()[s0] -> ((s0 ceildiv 8) ceildiv 8)>()[%arg4] {
          affine.for %arg12 = 0 to %arg3 {
            %12 = affine.apply affine_map<(d0, d1, d2) -> (d0 * 8 + d1 * 8 + d2)>(%arg9, %arg10, %arg11)
            %13 = tensor.empty() : tensor<64x64xf32>
            %14 = linalg.fill ins(%cst : f32) outs(%13 : tensor<64x64xf32>) -> tensor<64x64xf32>
            %15 = arith.muli %arg12, %c64 : index
            %16 = arith.muli %12, %c64 : index
            %17 = scf.for %arg13 = %c0 to %c8 step %c1 iter_args(%arg14 = %14) -> (tensor<64x64xf32>) {
              %21 = arith.muli %arg13, %c64 : index
              %22 = arith.muli %15, %c512 : index
              %23 = arith.addi %22, %21 : index
              %24 = loom.reinterpret_cast %arg0 to offset : [%23], sizes : [%c64, %c64], strides : [%c512, %c1], reuse : [seq = false, spat = true, temp = true] : memref<*xf32> to memref<?x?xf32, strided<[?, ?], offset: ?>>
              %alloc = memref.alloc() : memref<64x64xf32>
              loom.copy %24, %alloc, interconnect : [@horizontal_links], broadcast : [1, 8] : memref<?x?xf32, strided<[?, ?], offset: ?>> to memref<64x64xf32>
              %25 = bufferization.to_tensor %alloc restrict writable : memref<64x64xf32> to tensor<64x64xf32>
              %26 = arith.muli %21, %c512 : index
              %27 = arith.addi %26, %16 : index
              %28 = loom.reinterpret_cast %arg1 to offset : [%27], sizes : [%c64, %c64], strides : [%c512, %c1], reuse : [seq = false, spat = false, temp = true] : memref<*xf32> to memref<?x?xf32, strided<[?, ?], offset: ?>>
              %alloc_0 = memref.alloc() : memref<64x64xf32>
              loom.copy %28, %alloc_0, interconnect : [], broadcast : [1, 1] : memref<?x?xf32, strided<[?, ?], offset: ?>> to memref<64x64xf32>
              %29 = bufferization.to_tensor %alloc_0 restrict writable : memref<64x64xf32> to tensor<64x64xf32>
              %30 = linalg.matmul ins(%25, %29 : tensor<64x64xf32>, tensor<64x64xf32>) outs(%14 : tensor<64x64xf32>) -> tensor<64x64xf32>
              %31 = linalg.generic {indexing_maps = [affine_map<(d0, d1) -> (d0, d1)>, affine_map<(d0, d1) -> (d0, d1)>, affine_map<(d0, d1) -> (d0, d1)>], iterator_types = ["parallel", "parallel"]} ins(%arg14, %30 : tensor<64x64xf32>, tensor<64x64xf32>) outs(%arg14 : tensor<64x64xf32>) {
              ^bb0(%in: f32, %in_1: f32, %out: f32):
                %32 = arith.addf %in, %in_1 : f32
                linalg.yield %32 : f32
              } -> tensor<64x64xf32>
              scf.yield %31 : tensor<64x64xf32>
            }
            %18 = arith.muli %15, %c512 : index
            %19 = arith.addi %18, %16 : index
            %20 = loom.reinterpret_cast %arg2 to offset : [%19], sizes : [%c64, %c64], strides : [%c512, %c1], reuse : [seq = false, spat = false, temp = false] : memref<*xf32> to memref<?x?xf32, strided<[?, ?], offset: ?>>
            bufferization.materialize_in_destination %17 in writable %20 : (tensor<64x64xf32>, memref<?x?xf32, strided<[?, ?], offset: ?>>) -> ()
          }
        }
      } {loom.mapped_to = @y}
    } {loom.mapped_to = @x}
    return
  }
  func.func @matmul_kernel__d0i1_d1i1__f10__v_d(%arg0: memref<*xf32> {tt.divisibility = 16 : i32}, %arg1: memref<*xf32> {tt.divisibility = 16 : i32}, %arg2: memref<*xf32> {tt.divisibility = 16 : i32}, %arg3: index, %arg4: index, %arg5: index, %arg6: index, %arg7: index, %arg8: index) {
    %c8 = arith.constant 8 : index
    %c0 = arith.constant 0 : index
    %cst = arith.constant 0.000000e+00 : f32
    %c64 = arith.constant 64 : index
    %c1 = arith.constant 1 : index
    %c512 = arith.constant 512 : index
    affine.parallel (%arg9) = (0) to (8) {
      affine.parallel (%arg10) = (0) to (8) {
        affine.for %arg11 = 0 to affine_map<()[s0] -> ((s0 ceildiv 8) ceildiv 8)>()[%arg4] {
          affine.for %arg12 = 0 to %arg3 {
            %12 = affine.apply affine_map<(d0, d1, d2) -> (d0 * 8 + d1 * 8 + d2)>(%arg9, %arg10, %arg11)
            %13 = tensor.empty() : tensor<64x64xf32>
            %14 = linalg.fill ins(%cst : f32) outs(%13 : tensor<64x64xf32>) -> tensor<64x64xf32>
            %15 = arith.muli %arg12, %c64 : index
            %16 = arith.muli %12, %c64 : index
            %17 = scf.for %arg13 = %c0 to %c8 step %c1 iter_args(%arg14 = %14) -> (tensor<64x64xf32>) {
              %21 = arith.muli %arg13, %c64 : index
              %22 = arith.muli %15, %c512 : index
              %23 = arith.addi %22, %21 : index
              %24 = loom.reinterpret_cast %arg0 to offset : [%23], sizes : [%c64, %c64], strides : [%c512, %c1], reuse : [seq = false, spat = true, temp = true] : memref<*xf32> to memref<?x?xf32, strided<[?, ?], offset: ?>>
              %alloc = memref.alloc() : memref<64x64xf32>
              loom.copy %24, %alloc, interconnect : [@vertical_links], broadcast : [8, 1] : memref<?x?xf32, strided<[?, ?], offset: ?>> to memref<64x64xf32>
              %25 = bufferization.to_tensor %alloc restrict writable : memref<64x64xf32> to tensor<64x64xf32>
              %26 = arith.muli %21, %c512 : index
              %27 = arith.addi %26, %16 : index
              %28 = loom.reinterpret_cast %arg1 to offset : [%27], sizes : [%c64, %c64], strides : [%c512, %c1], reuse : [seq = false, spat = false, temp = true] : memref<*xf32> to memref<?x?xf32, strided<[?, ?], offset: ?>>
              %alloc_0 = memref.alloc() : memref<64x64xf32>
              loom.copy %28, %alloc_0, interconnect : [], broadcast : [1, 1] : memref<?x?xf32, strided<[?, ?], offset: ?>> to memref<64x64xf32>
              %29 = bufferization.to_tensor %alloc_0 restrict writable : memref<64x64xf32> to tensor<64x64xf32>
              %30 = linalg.matmul ins(%25, %29 : tensor<64x64xf32>, tensor<64x64xf32>) outs(%14 : tensor<64x64xf32>) -> tensor<64x64xf32>
              %31 = linalg.generic {indexing_maps = [affine_map<(d0, d1) -> (d0, d1)>, affine_map<(d0, d1) -> (d0, d1)>, affine_map<(d0, d1) -> (d0, d1)>], iterator_types = ["parallel", "parallel"]} ins(%arg14, %30 : tensor<64x64xf32>, tensor<64x64xf32>) outs(%arg14 : tensor<64x64xf32>) {
              ^bb0(%in: f32, %in_1: f32, %out: f32):
                %32 = arith.addf %in, %in_1 : f32
                linalg.yield %32 : f32
              } -> tensor<64x64xf32>
              scf.yield %31 : tensor<64x64xf32>
            }
            %18 = arith.muli %15, %c512 : index
            %19 = arith.addi %18, %16 : index
            %20 = loom.reinterpret_cast %arg2 to offset : [%19], sizes : [%c64, %c64], strides : [%c512, %c1], reuse : [seq = false, spat = false, temp = false] : memref<*xf32> to memref<?x?xf32, strided<[?, ?], offset: ?>>
            bufferization.materialize_in_destination %17 in writable %20 : (tensor<64x64xf32>, memref<?x?xf32, strided<[?, ?], offset: ?>>) -> ()
          }
        }
      } {loom.mapped_to = @y}
    } {loom.mapped_to = @x}
    return
  }
  func.func @matmul_kernel__d0i1_d1i1__f10__hoist_block_0__d_d(%arg0: memref<*xf32> {tt.divisibility = 16 : i32}, %arg1: memref<*xf32> {tt.divisibility = 16 : i32}, %arg2: memref<*xf32> {tt.divisibility = 16 : i32}, %arg3: index, %arg4: index, %arg5: index, %arg6: index, %arg7: index, %arg8: index) {
    %c32768 = arith.constant 32768 : index
    %c8 = arith.constant 8 : index
    %c0 = arith.constant 0 : index
    %cst = arith.constant 0.000000e+00 : f32
    %c64 = arith.constant 64 : index
    %c1 = arith.constant 1 : index
    %c512 = arith.constant 512 : index
    affine.parallel (%arg9) = (0) to (8) {
      affine.parallel (%arg10) = (0) to (8) {
        affine.for %arg11 = 0 to affine_map<()[s0] -> ((s0 ceildiv 8) ceildiv 8)>()[%arg4] {
          affine.for %arg12 = 0 to %arg3 {
            %12 = affine.apply affine_map<(d0, d1, d2) -> (d0 * 8 + d1 * 8 + d2)>(%arg9, %arg10, %arg11)
            %13 = tensor.empty() : tensor<64x64xf32>
            %14 = linalg.fill ins(%cst : f32) outs(%13 : tensor<64x64xf32>) -> tensor<64x64xf32>
            %15 = arith.muli %arg12, %c64 : index
            %16 = arith.muli %12, %c64 : index
            %17 = arith.muli %15, %c512 : index
            %18 = loom.reinterpret_cast %arg0 to offset : [%17], sizes : [%c8, %c64, %c64], strides : [%c32768, %c512, %c1], reuse : [seq = false, spat = true, temp = true] : memref<*xf32> to memref<?x?x?xf32, strided<[?, ?, ?], offset: ?>>
            %alloc = memref.alloc() : memref<8x64x64xf32>
            loom.copy %18, %alloc, interconnect : [], broadcast : [1, 1] : memref<?x?x?xf32, strided<[?, ?, ?], offset: ?>> to memref<8x64x64xf32>
            %19 = scf.for %arg13 = %c0 to %c8 step %c1 iter_args(%arg14 = %14) -> (tensor<64x64xf32>) {
              %23 = arith.muli %arg13, %c64 : index
              %subview = memref.subview %alloc[%arg13, 0, 0] [1, 64, 64] [1, 1, 1] : memref<8x64x64xf32> to memref<64x64xf32, strided<[64, 1], offset: ?>>
              %24 = bufferization.to_tensor %subview restrict writable : memref<64x64xf32, strided<[64, 1], offset: ?>> to tensor<64x64xf32>
              %25 = arith.muli %23, %c512 : index
              %26 = arith.addi %25, %16 : index
              %27 = loom.reinterpret_cast %arg1 to offset : [%26], sizes : [%c64, %c64], strides : [%c512, %c1], reuse : [seq = false, spat = false, temp = true] : memref<*xf32> to memref<?x?xf32, strided<[?, ?], offset: ?>>
              %alloc_0 = memref.alloc() : memref<64x64xf32>
              loom.copy %27, %alloc_0, interconnect : [], broadcast : [1, 1] : memref<?x?xf32, strided<[?, ?], offset: ?>> to memref<64x64xf32>
              %28 = bufferization.to_tensor %alloc_0 restrict writable : memref<64x64xf32> to tensor<64x64xf32>
              %29 = linalg.matmul ins(%24, %28 : tensor<64x64xf32>, tensor<64x64xf32>) outs(%14 : tensor<64x64xf32>) -> tensor<64x64xf32>
              %30 = linalg.generic {indexing_maps = [affine_map<(d0, d1) -> (d0, d1)>, affine_map<(d0, d1) -> (d0, d1)>, affine_map<(d0, d1) -> (d0, d1)>], iterator_types = ["parallel", "parallel"]} ins(%arg14, %29 : tensor<64x64xf32>, tensor<64x64xf32>) outs(%arg14 : tensor<64x64xf32>) {
              ^bb0(%in: f32, %in_1: f32, %out: f32):
                %31 = arith.addf %in, %in_1 : f32
                linalg.yield %31 : f32
              } -> tensor<64x64xf32>
              scf.yield %30 : tensor<64x64xf32>
            }
            %20 = arith.muli %15, %c512 : index
            %21 = arith.addi %20, %16 : index
            %22 = loom.reinterpret_cast %arg2 to offset : [%21], sizes : [%c64, %c64], strides : [%c512, %c1], reuse : [seq = false, spat = false, temp = false] : memref<*xf32> to memref<?x?xf32, strided<[?, ?], offset: ?>>
            bufferization.materialize_in_destination %19 in writable %22 : (tensor<64x64xf32>, memref<?x?xf32, strided<[?, ?], offset: ?>>) -> ()
          }
        }
      } {loom.mapped_to = @y}
    } {loom.mapped_to = @x}
    return
  }
  func.func @matmul_kernel__d0i1_d1i1__f10__hoist_block_0__a_d(%arg0: memref<*xf32> {tt.divisibility = 16 : i32}, %arg1: memref<*xf32> {tt.divisibility = 16 : i32}, %arg2: memref<*xf32> {tt.divisibility = 16 : i32}, %arg3: index, %arg4: index, %arg5: index, %arg6: index, %arg7: index, %arg8: index) {
    %c32768 = arith.constant 32768 : index
    %c8 = arith.constant 8 : index
    %c0 = arith.constant 0 : index
    %cst = arith.constant 0.000000e+00 : f32
    %c64 = arith.constant 64 : index
    %c1 = arith.constant 1 : index
    %c512 = arith.constant 512 : index
    affine.parallel (%arg9) = (0) to (8) {
      affine.parallel (%arg10) = (0) to (8) {
        affine.for %arg11 = 0 to affine_map<()[s0] -> ((s0 ceildiv 8) ceildiv 8)>()[%arg4] {
          affine.for %arg12 = 0 to %arg3 {
            %12 = affine.apply affine_map<(d0, d1, d2) -> (d0 * 8 + d1 * 8 + d2)>(%arg9, %arg10, %arg11)
            %13 = tensor.empty() : tensor<64x64xf32>
            %14 = linalg.fill ins(%cst : f32) outs(%13 : tensor<64x64xf32>) -> tensor<64x64xf32>
            %15 = arith.muli %arg12, %c64 : index
            %16 = arith.muli %12, %c64 : index
            %17 = arith.muli %15, %c512 : index
            %18 = loom.reinterpret_cast %arg0 to offset : [%17], sizes : [%c8, %c64, %c64], strides : [%c32768, %c512, %c1], reuse : [seq = false, spat = true, temp = true] : memref<*xf32> to memref<?x?x?xf32, strided<[?, ?, ?], offset: ?>>
            %alloc = memref.alloc() : memref<8x64x64xf32>
            loom.copy %18, %alloc, interconnect : [@horizontal_links, @vertical_links], broadcast : [8, 8] : memref<?x?x?xf32, strided<[?, ?, ?], offset: ?>> to memref<8x64x64xf32>
            %19 = scf.for %arg13 = %c0 to %c8 step %c1 iter_args(%arg14 = %14) -> (tensor<64x64xf32>) {
              %23 = arith.muli %arg13, %c64 : index
              %subview = memref.subview %alloc[%arg13, 0, 0] [1, 64, 64] [1, 1, 1] : memref<8x64x64xf32> to memref<64x64xf32, strided<[64, 1], offset: ?>>
              %24 = bufferization.to_tensor %subview restrict writable : memref<64x64xf32, strided<[64, 1], offset: ?>> to tensor<64x64xf32>
              %25 = arith.muli %23, %c512 : index
              %26 = arith.addi %25, %16 : index
              %27 = loom.reinterpret_cast %arg1 to offset : [%26], sizes : [%c64, %c64], strides : [%c512, %c1], reuse : [seq = false, spat = false, temp = true] : memref<*xf32> to memref<?x?xf32, strided<[?, ?], offset: ?>>
              %alloc_0 = memref.alloc() : memref<64x64xf32>
              loom.copy %27, %alloc_0, interconnect : [], broadcast : [1, 1] : memref<?x?xf32, strided<[?, ?], offset: ?>> to memref<64x64xf32>
              %28 = bufferization.to_tensor %alloc_0 restrict writable : memref<64x64xf32> to tensor<64x64xf32>
              %29 = linalg.matmul ins(%24, %28 : tensor<64x64xf32>, tensor<64x64xf32>) outs(%14 : tensor<64x64xf32>) -> tensor<64x64xf32>
              %30 = linalg.generic {indexing_maps = [affine_map<(d0, d1) -> (d0, d1)>, affine_map<(d0, d1) -> (d0, d1)>, affine_map<(d0, d1) -> (d0, d1)>], iterator_types = ["parallel", "parallel"]} ins(%arg14, %29 : tensor<64x64xf32>, tensor<64x64xf32>) outs(%arg14 : tensor<64x64xf32>) {
              ^bb0(%in: f32, %in_1: f32, %out: f32):
                %31 = arith.addf %in, %in_1 : f32
                linalg.yield %31 : f32
              } -> tensor<64x64xf32>
              scf.yield %30 : tensor<64x64xf32>
            }
            %20 = arith.muli %15, %c512 : index
            %21 = arith.addi %20, %16 : index
            %22 = loom.reinterpret_cast %arg2 to offset : [%21], sizes : [%c64, %c64], strides : [%c512, %c1], reuse : [seq = false, spat = false, temp = false] : memref<*xf32> to memref<?x?xf32, strided<[?, ?], offset: ?>>
            bufferization.materialize_in_destination %19 in writable %22 : (tensor<64x64xf32>, memref<?x?xf32, strided<[?, ?], offset: ?>>) -> ()
          }
        }
      } {loom.mapped_to = @y}
    } {loom.mapped_to = @x}
    return
  }
  func.func @matmul_kernel__d0i1_d1i1__f10__hoist_block_0__h_d(%arg0: memref<*xf32> {tt.divisibility = 16 : i32}, %arg1: memref<*xf32> {tt.divisibility = 16 : i32}, %arg2: memref<*xf32> {tt.divisibility = 16 : i32}, %arg3: index, %arg4: index, %arg5: index, %arg6: index, %arg7: index, %arg8: index) {
    %c32768 = arith.constant 32768 : index
    %c8 = arith.constant 8 : index
    %c0 = arith.constant 0 : index
    %cst = arith.constant 0.000000e+00 : f32
    %c64 = arith.constant 64 : index
    %c1 = arith.constant 1 : index
    %c512 = arith.constant 512 : index
    affine.parallel (%arg9) = (0) to (8) {
      affine.parallel (%arg10) = (0) to (8) {
        affine.for %arg11 = 0 to affine_map<()[s0] -> ((s0 ceildiv 8) ceildiv 8)>()[%arg4] {
          affine.for %arg12 = 0 to %arg3 {
            %12 = affine.apply affine_map<(d0, d1, d2) -> (d0 * 8 + d1 * 8 + d2)>(%arg9, %arg10, %arg11)
            %13 = tensor.empty() : tensor<64x64xf32>
            %14 = linalg.fill ins(%cst : f32) outs(%13 : tensor<64x64xf32>) -> tensor<64x64xf32>
            %15 = arith.muli %arg12, %c64 : index
            %16 = arith.muli %12, %c64 : index
            %17 = arith.muli %15, %c512 : index
            %18 = loom.reinterpret_cast %arg0 to offset : [%17], sizes : [%c8, %c64, %c64], strides : [%c32768, %c512, %c1], reuse : [seq = false, spat = true, temp = true] : memref<*xf32> to memref<?x?x?xf32, strided<[?, ?, ?], offset: ?>>
            %alloc = memref.alloc() : memref<8x64x64xf32>
            loom.copy %18, %alloc, interconnect : [@horizontal_links], broadcast : [1, 8] : memref<?x?x?xf32, strided<[?, ?, ?], offset: ?>> to memref<8x64x64xf32>
            %19 = scf.for %arg13 = %c0 to %c8 step %c1 iter_args(%arg14 = %14) -> (tensor<64x64xf32>) {
              %23 = arith.muli %arg13, %c64 : index
              %subview = memref.subview %alloc[%arg13, 0, 0] [1, 64, 64] [1, 1, 1] : memref<8x64x64xf32> to memref<64x64xf32, strided<[64, 1], offset: ?>>
              %24 = bufferization.to_tensor %subview restrict writable : memref<64x64xf32, strided<[64, 1], offset: ?>> to tensor<64x64xf32>
              %25 = arith.muli %23, %c512 : index
              %26 = arith.addi %25, %16 : index
              %27 = loom.reinterpret_cast %arg1 to offset : [%26], sizes : [%c64, %c64], strides : [%c512, %c1], reuse : [seq = false, spat = false, temp = true] : memref<*xf32> to memref<?x?xf32, strided<[?, ?], offset: ?>>
              %alloc_0 = memref.alloc() : memref<64x64xf32>
              loom.copy %27, %alloc_0, interconnect : [], broadcast : [1, 1] : memref<?x?xf32, strided<[?, ?], offset: ?>> to memref<64x64xf32>
              %28 = bufferization.to_tensor %alloc_0 restrict writable : memref<64x64xf32> to tensor<64x64xf32>
              %29 = linalg.matmul ins(%24, %28 : tensor<64x64xf32>, tensor<64x64xf32>) outs(%14 : tensor<64x64xf32>) -> tensor<64x64xf32>
              %30 = linalg.generic {indexing_maps = [affine_map<(d0, d1) -> (d0, d1)>, affine_map<(d0, d1) -> (d0, d1)>, affine_map<(d0, d1) -> (d0, d1)>], iterator_types = ["parallel", "parallel"]} ins(%arg14, %29 : tensor<64x64xf32>, tensor<64x64xf32>) outs(%arg14 : tensor<64x64xf32>) {
              ^bb0(%in: f32, %in_1: f32, %out: f32):
                %31 = arith.addf %in, %in_1 : f32
                linalg.yield %31 : f32
              } -> tensor<64x64xf32>
              scf.yield %30 : tensor<64x64xf32>
            }
            %20 = arith.muli %15, %c512 : index
            %21 = arith.addi %20, %16 : index
            %22 = loom.reinterpret_cast %arg2 to offset : [%21], sizes : [%c64, %c64], strides : [%c512, %c1], reuse : [seq = false, spat = false, temp = false] : memref<*xf32> to memref<?x?xf32, strided<[?, ?], offset: ?>>
            bufferization.materialize_in_destination %19 in writable %22 : (tensor<64x64xf32>, memref<?x?xf32, strided<[?, ?], offset: ?>>) -> ()
          }
        }
      } {loom.mapped_to = @y}
    } {loom.mapped_to = @x}
    return
  }
  func.func @matmul_kernel__d0i1_d1i1__f10__hoist_block_0__v_d(%arg0: memref<*xf32> {tt.divisibility = 16 : i32}, %arg1: memref<*xf32> {tt.divisibility = 16 : i32}, %arg2: memref<*xf32> {tt.divisibility = 16 : i32}, %arg3: index, %arg4: index, %arg5: index, %arg6: index, %arg7: index, %arg8: index) {
    %c32768 = arith.constant 32768 : index
    %c8 = arith.constant 8 : index
    %c0 = arith.constant 0 : index
    %cst = arith.constant 0.000000e+00 : f32
    %c64 = arith.constant 64 : index
    %c1 = arith.constant 1 : index
    %c512 = arith.constant 512 : index
    affine.parallel (%arg9) = (0) to (8) {
      affine.parallel (%arg10) = (0) to (8) {
        affine.for %arg11 = 0 to affine_map<()[s0] -> ((s0 ceildiv 8) ceildiv 8)>()[%arg4] {
          affine.for %arg12 = 0 to %arg3 {
            %12 = affine.apply affine_map<(d0, d1, d2) -> (d0 * 8 + d1 * 8 + d2)>(%arg9, %arg10, %arg11)
            %13 = tensor.empty() : tensor<64x64xf32>
            %14 = linalg.fill ins(%cst : f32) outs(%13 : tensor<64x64xf32>) -> tensor<64x64xf32>
            %15 = arith.muli %arg12, %c64 : index
            %16 = arith.muli %12, %c64 : index
            %17 = arith.muli %15, %c512 : index
            %18 = loom.reinterpret_cast %arg0 to offset : [%17], sizes : [%c8, %c64, %c64], strides : [%c32768, %c512, %c1], reuse : [seq = false, spat = true, temp = true] : memref<*xf32> to memref<?x?x?xf32, strided<[?, ?, ?], offset: ?>>
            %alloc = memref.alloc() : memref<8x64x64xf32>
            loom.copy %18, %alloc, interconnect : [@vertical_links], broadcast : [8, 1] : memref<?x?x?xf32, strided<[?, ?, ?], offset: ?>> to memref<8x64x64xf32>
            %19 = scf.for %arg13 = %c0 to %c8 step %c1 iter_args(%arg14 = %14) -> (tensor<64x64xf32>) {
              %23 = arith.muli %arg13, %c64 : index
              %subview = memref.subview %alloc[%arg13, 0, 0] [1, 64, 64] [1, 1, 1] : memref<8x64x64xf32> to memref<64x64xf32, strided<[64, 1], offset: ?>>
              %24 = bufferization.to_tensor %subview restrict writable : memref<64x64xf32, strided<[64, 1], offset: ?>> to tensor<64x64xf32>
              %25 = arith.muli %23, %c512 : index
              %26 = arith.addi %25, %16 : index
              %27 = loom.reinterpret_cast %arg1 to offset : [%26], sizes : [%c64, %c64], strides : [%c512, %c1], reuse : [seq = false, spat = false, temp = true] : memref<*xf32> to memref<?x?xf32, strided<[?, ?], offset: ?>>
              %alloc_0 = memref.alloc() : memref<64x64xf32>
              loom.copy %27, %alloc_0, interconnect : [], broadcast : [1, 1] : memref<?x?xf32, strided<[?, ?], offset: ?>> to memref<64x64xf32>
              %28 = bufferization.to_tensor %alloc_0 restrict writable : memref<64x64xf32> to tensor<64x64xf32>
              %29 = linalg.matmul ins(%24, %28 : tensor<64x64xf32>, tensor<64x64xf32>) outs(%14 : tensor<64x64xf32>) -> tensor<64x64xf32>
              %30 = linalg.generic {indexing_maps = [affine_map<(d0, d1) -> (d0, d1)>, affine_map<(d0, d1) -> (d0, d1)>, affine_map<(d0, d1) -> (d0, d1)>], iterator_types = ["parallel", "parallel"]} ins(%arg14, %29 : tensor<64x64xf32>, tensor<64x64xf32>) outs(%arg14 : tensor<64x64xf32>) {
              ^bb0(%in: f32, %in_1: f32, %out: f32):
                %31 = arith.addf %in, %in_1 : f32
                linalg.yield %31 : f32
              } -> tensor<64x64xf32>
              scf.yield %30 : tensor<64x64xf32>
            }
            %20 = arith.muli %15, %c512 : index
            %21 = arith.addi %20, %16 : index
            %22 = loom.reinterpret_cast %arg2 to offset : [%21], sizes : [%c64, %c64], strides : [%c512, %c1], reuse : [seq = false, spat = false, temp = false] : memref<*xf32> to memref<?x?xf32, strided<[?, ?], offset: ?>>
            bufferization.materialize_in_destination %19 in writable %22 : (tensor<64x64xf32>, memref<?x?xf32, strided<[?, ?], offset: ?>>) -> ()
          }
        }
      } {loom.mapped_to = @y}
    } {loom.mapped_to = @x}
    return
  }
  func.func @matmul_kernel__d0i1_d1i1__f10__hoist_block_1__d_d(%arg0: memref<*xf32> {tt.divisibility = 16 : i32}, %arg1: memref<*xf32> {tt.divisibility = 16 : i32}, %arg2: memref<*xf32> {tt.divisibility = 16 : i32}, %arg3: index, %arg4: index, %arg5: index, %arg6: index, %arg7: index, %arg8: index) {
    %c32768 = arith.constant 32768 : index
    %c8 = arith.constant 8 : index
    %c0 = arith.constant 0 : index
    %cst = arith.constant 0.000000e+00 : f32
    %c64 = arith.constant 64 : index
    %c1 = arith.constant 1 : index
    %c512 = arith.constant 512 : index
    affine.parallel (%arg9) = (0) to (8) {
      affine.parallel (%arg10) = (0) to (8) {
        affine.for %arg11 = 0 to affine_map<()[s0] -> ((s0 ceildiv 8) ceildiv 8)>()[%arg4] {
          affine.for %arg12 = 0 to %arg3 {
            %12 = affine.apply affine_map<(d0, d1, d2) -> (d0 * 8 + d1 * 8 + d2)>(%arg9, %arg10, %arg11)
            %13 = tensor.empty() : tensor<64x64xf32>
            %14 = linalg.fill ins(%cst : f32) outs(%13 : tensor<64x64xf32>) -> tensor<64x64xf32>
            %15 = arith.muli %arg12, %c64 : index
            %16 = arith.muli %12, %c64 : index
            %17 = loom.reinterpret_cast %arg1 to offset : [%16], sizes : [%c8, %c64, %c64], strides : [%c32768, %c512, %c1], reuse : [seq = false, spat = false, temp = true] : memref<*xf32> to memref<?x?x?xf32, strided<[?, ?, ?], offset: ?>>
            %alloc = memref.alloc() : memref<8x64x64xf32>
            loom.copy %17, %alloc, interconnect : [], broadcast : [1, 1] : memref<?x?x?xf32, strided<[?, ?, ?], offset: ?>> to memref<8x64x64xf32>
            %18 = scf.for %arg13 = %c0 to %c8 step %c1 iter_args(%arg14 = %14) -> (tensor<64x64xf32>) {
              %22 = arith.muli %arg13, %c64 : index
              %23 = arith.muli %15, %c512 : index
              %24 = arith.addi %23, %22 : index
              %25 = loom.reinterpret_cast %arg0 to offset : [%24], sizes : [%c64, %c64], strides : [%c512, %c1], reuse : [seq = false, spat = true, temp = true] : memref<*xf32> to memref<?x?xf32, strided<[?, ?], offset: ?>>
              %alloc_0 = memref.alloc() : memref<64x64xf32>
              loom.copy %25, %alloc_0, interconnect : [], broadcast : [1, 1] : memref<?x?xf32, strided<[?, ?], offset: ?>> to memref<64x64xf32>
              %26 = bufferization.to_tensor %alloc_0 restrict writable : memref<64x64xf32> to tensor<64x64xf32>
              %subview = memref.subview %alloc[%arg13, 0, 0] [1, 64, 64] [1, 1, 1] : memref<8x64x64xf32> to memref<64x64xf32, strided<[64, 1], offset: ?>>
              %27 = bufferization.to_tensor %subview restrict writable : memref<64x64xf32, strided<[64, 1], offset: ?>> to tensor<64x64xf32>
              %28 = linalg.matmul ins(%26, %27 : tensor<64x64xf32>, tensor<64x64xf32>) outs(%14 : tensor<64x64xf32>) -> tensor<64x64xf32>
              %29 = linalg.generic {indexing_maps = [affine_map<(d0, d1) -> (d0, d1)>, affine_map<(d0, d1) -> (d0, d1)>, affine_map<(d0, d1) -> (d0, d1)>], iterator_types = ["parallel", "parallel"]} ins(%arg14, %28 : tensor<64x64xf32>, tensor<64x64xf32>) outs(%arg14 : tensor<64x64xf32>) {
              ^bb0(%in: f32, %in_1: f32, %out: f32):
                %30 = arith.addf %in, %in_1 : f32
                linalg.yield %30 : f32
              } -> tensor<64x64xf32>
              scf.yield %29 : tensor<64x64xf32>
            }
            %19 = arith.muli %15, %c512 : index
            %20 = arith.addi %19, %16 : index
            %21 = loom.reinterpret_cast %arg2 to offset : [%20], sizes : [%c64, %c64], strides : [%c512, %c1], reuse : [seq = false, spat = false, temp = false] : memref<*xf32> to memref<?x?xf32, strided<[?, ?], offset: ?>>
            bufferization.materialize_in_destination %18 in writable %21 : (tensor<64x64xf32>, memref<?x?xf32, strided<[?, ?], offset: ?>>) -> ()
          }
        }
      } {loom.mapped_to = @y}
    } {loom.mapped_to = @x}
    return
  }
  func.func @matmul_kernel__d0i1_d1i1__f10__hoist_block_1__d_a(%arg0: memref<*xf32> {tt.divisibility = 16 : i32}, %arg1: memref<*xf32> {tt.divisibility = 16 : i32}, %arg2: memref<*xf32> {tt.divisibility = 16 : i32}, %arg3: index, %arg4: index, %arg5: index, %arg6: index, %arg7: index, %arg8: index) {
    %c32768 = arith.constant 32768 : index
    %c8 = arith.constant 8 : index
    %c0 = arith.constant 0 : index
    %cst = arith.constant 0.000000e+00 : f32
    %c64 = arith.constant 64 : index
    %c1 = arith.constant 1 : index
    %c512 = arith.constant 512 : index
    affine.parallel (%arg9) = (0) to (8) {
      affine.parallel (%arg10) = (0) to (8) {
        affine.for %arg11 = 0 to affine_map<()[s0] -> ((s0 ceildiv 8) ceildiv 8)>()[%arg4] {
          affine.for %arg12 = 0 to %arg3 {
            %12 = affine.apply affine_map<(d0, d1, d2) -> (d0 * 8 + d1 * 8 + d2)>(%arg9, %arg10, %arg11)
            %13 = tensor.empty() : tensor<64x64xf32>
            %14 = linalg.fill ins(%cst : f32) outs(%13 : tensor<64x64xf32>) -> tensor<64x64xf32>
            %15 = arith.muli %arg12, %c64 : index
            %16 = arith.muli %12, %c64 : index
            %17 = loom.reinterpret_cast %arg1 to offset : [%16], sizes : [%c8, %c64, %c64], strides : [%c32768, %c512, %c1], reuse : [seq = false, spat = false, temp = true] : memref<*xf32> to memref<?x?x?xf32, strided<[?, ?, ?], offset: ?>>
            %alloc = memref.alloc() : memref<8x64x64xf32>
            loom.copy %17, %alloc, interconnect : [], broadcast : [1, 1] : memref<?x?x?xf32, strided<[?, ?, ?], offset: ?>> to memref<8x64x64xf32>
            %18 = scf.for %arg13 = %c0 to %c8 step %c1 iter_args(%arg14 = %14) -> (tensor<64x64xf32>) {
              %22 = arith.muli %arg13, %c64 : index
              %23 = arith.muli %15, %c512 : index
              %24 = arith.addi %23, %22 : index
              %25 = loom.reinterpret_cast %arg0 to offset : [%24], sizes : [%c64, %c64], strides : [%c512, %c1], reuse : [seq = false, spat = true, temp = true] : memref<*xf32> to memref<?x?xf32, strided<[?, ?], offset: ?>>
              %alloc_0 = memref.alloc() : memref<64x64xf32>
              loom.copy %25, %alloc_0, interconnect : [@horizontal_links, @vertical_links], broadcast : [8, 8] : memref<?x?xf32, strided<[?, ?], offset: ?>> to memref<64x64xf32>
              %26 = bufferization.to_tensor %alloc_0 restrict writable : memref<64x64xf32> to tensor<64x64xf32>
              %subview = memref.subview %alloc[%arg13, 0, 0] [1, 64, 64] [1, 1, 1] : memref<8x64x64xf32> to memref<64x64xf32, strided<[64, 1], offset: ?>>
              %27 = bufferization.to_tensor %subview restrict writable : memref<64x64xf32, strided<[64, 1], offset: ?>> to tensor<64x64xf32>
              %28 = linalg.matmul ins(%26, %27 : tensor<64x64xf32>, tensor<64x64xf32>) outs(%14 : tensor<64x64xf32>) -> tensor<64x64xf32>
              %29 = linalg.generic {indexing_maps = [affine_map<(d0, d1) -> (d0, d1)>, affine_map<(d0, d1) -> (d0, d1)>, affine_map<(d0, d1) -> (d0, d1)>], iterator_types = ["parallel", "parallel"]} ins(%arg14, %28 : tensor<64x64xf32>, tensor<64x64xf32>) outs(%arg14 : tensor<64x64xf32>) {
              ^bb0(%in: f32, %in_1: f32, %out: f32):
                %30 = arith.addf %in, %in_1 : f32
                linalg.yield %30 : f32
              } -> tensor<64x64xf32>
              scf.yield %29 : tensor<64x64xf32>
            }
            %19 = arith.muli %15, %c512 : index
            %20 = arith.addi %19, %16 : index
            %21 = loom.reinterpret_cast %arg2 to offset : [%20], sizes : [%c64, %c64], strides : [%c512, %c1], reuse : [seq = false, spat = false, temp = false] : memref<*xf32> to memref<?x?xf32, strided<[?, ?], offset: ?>>
            bufferization.materialize_in_destination %18 in writable %21 : (tensor<64x64xf32>, memref<?x?xf32, strided<[?, ?], offset: ?>>) -> ()
          }
        }
      } {loom.mapped_to = @y}
    } {loom.mapped_to = @x}
    return
  }
  func.func @matmul_kernel__d0i1_d1i1__f10__hoist_block_1__d_h(%arg0: memref<*xf32> {tt.divisibility = 16 : i32}, %arg1: memref<*xf32> {tt.divisibility = 16 : i32}, %arg2: memref<*xf32> {tt.divisibility = 16 : i32}, %arg3: index, %arg4: index, %arg5: index, %arg6: index, %arg7: index, %arg8: index) {
    %c32768 = arith.constant 32768 : index
    %c8 = arith.constant 8 : index
    %c0 = arith.constant 0 : index
    %cst = arith.constant 0.000000e+00 : f32
    %c64 = arith.constant 64 : index
    %c1 = arith.constant 1 : index
    %c512 = arith.constant 512 : index
    affine.parallel (%arg9) = (0) to (8) {
      affine.parallel (%arg10) = (0) to (8) {
        affine.for %arg11 = 0 to affine_map<()[s0] -> ((s0 ceildiv 8) ceildiv 8)>()[%arg4] {
          affine.for %arg12 = 0 to %arg3 {
            %12 = affine.apply affine_map<(d0, d1, d2) -> (d0 * 8 + d1 * 8 + d2)>(%arg9, %arg10, %arg11)
            %13 = tensor.empty() : tensor<64x64xf32>
            %14 = linalg.fill ins(%cst : f32) outs(%13 : tensor<64x64xf32>) -> tensor<64x64xf32>
            %15 = arith.muli %arg12, %c64 : index
            %16 = arith.muli %12, %c64 : index
            %17 = loom.reinterpret_cast %arg1 to offset : [%16], sizes : [%c8, %c64, %c64], strides : [%c32768, %c512, %c1], reuse : [seq = false, spat = false, temp = true] : memref<*xf32> to memref<?x?x?xf32, strided<[?, ?, ?], offset: ?>>
            %alloc = memref.alloc() : memref<8x64x64xf32>
            loom.copy %17, %alloc, interconnect : [], broadcast : [1, 1] : memref<?x?x?xf32, strided<[?, ?, ?], offset: ?>> to memref<8x64x64xf32>
            %18 = scf.for %arg13 = %c0 to %c8 step %c1 iter_args(%arg14 = %14) -> (tensor<64x64xf32>) {
              %22 = arith.muli %arg13, %c64 : index
              %23 = arith.muli %15, %c512 : index
              %24 = arith.addi %23, %22 : index
              %25 = loom.reinterpret_cast %arg0 to offset : [%24], sizes : [%c64, %c64], strides : [%c512, %c1], reuse : [seq = false, spat = true, temp = true] : memref<*xf32> to memref<?x?xf32, strided<[?, ?], offset: ?>>
              %alloc_0 = memref.alloc() : memref<64x64xf32>
              loom.copy %25, %alloc_0, interconnect : [@horizontal_links], broadcast : [1, 8] : memref<?x?xf32, strided<[?, ?], offset: ?>> to memref<64x64xf32>
              %26 = bufferization.to_tensor %alloc_0 restrict writable : memref<64x64xf32> to tensor<64x64xf32>
              %subview = memref.subview %alloc[%arg13, 0, 0] [1, 64, 64] [1, 1, 1] : memref<8x64x64xf32> to memref<64x64xf32, strided<[64, 1], offset: ?>>
              %27 = bufferization.to_tensor %subview restrict writable : memref<64x64xf32, strided<[64, 1], offset: ?>> to tensor<64x64xf32>
              %28 = linalg.matmul ins(%26, %27 : tensor<64x64xf32>, tensor<64x64xf32>) outs(%14 : tensor<64x64xf32>) -> tensor<64x64xf32>
              %29 = linalg.generic {indexing_maps = [affine_map<(d0, d1) -> (d0, d1)>, affine_map<(d0, d1) -> (d0, d1)>, affine_map<(d0, d1) -> (d0, d1)>], iterator_types = ["parallel", "parallel"]} ins(%arg14, %28 : tensor<64x64xf32>, tensor<64x64xf32>) outs(%arg14 : tensor<64x64xf32>) {
              ^bb0(%in: f32, %in_1: f32, %out: f32):
                %30 = arith.addf %in, %in_1 : f32
                linalg.yield %30 : f32
              } -> tensor<64x64xf32>
              scf.yield %29 : tensor<64x64xf32>
            }
            %19 = arith.muli %15, %c512 : index
            %20 = arith.addi %19, %16 : index
            %21 = loom.reinterpret_cast %arg2 to offset : [%20], sizes : [%c64, %c64], strides : [%c512, %c1], reuse : [seq = false, spat = false, temp = false] : memref<*xf32> to memref<?x?xf32, strided<[?, ?], offset: ?>>
            bufferization.materialize_in_destination %18 in writable %21 : (tensor<64x64xf32>, memref<?x?xf32, strided<[?, ?], offset: ?>>) -> ()
          }
        }
      } {loom.mapped_to = @y}
    } {loom.mapped_to = @x}
    return
  }
  func.func @matmul_kernel__d0i1_d1i1__f10__hoist_block_1__d_v(%arg0: memref<*xf32> {tt.divisibility = 16 : i32}, %arg1: memref<*xf32> {tt.divisibility = 16 : i32}, %arg2: memref<*xf32> {tt.divisibility = 16 : i32}, %arg3: index, %arg4: index, %arg5: index, %arg6: index, %arg7: index, %arg8: index) {
    %c32768 = arith.constant 32768 : index
    %c8 = arith.constant 8 : index
    %c0 = arith.constant 0 : index
    %cst = arith.constant 0.000000e+00 : f32
    %c64 = arith.constant 64 : index
    %c1 = arith.constant 1 : index
    %c512 = arith.constant 512 : index
    affine.parallel (%arg9) = (0) to (8) {
      affine.parallel (%arg10) = (0) to (8) {
        affine.for %arg11 = 0 to affine_map<()[s0] -> ((s0 ceildiv 8) ceildiv 8)>()[%arg4] {
          affine.for %arg12 = 0 to %arg3 {
            %12 = affine.apply affine_map<(d0, d1, d2) -> (d0 * 8 + d1 * 8 + d2)>(%arg9, %arg10, %arg11)
            %13 = tensor.empty() : tensor<64x64xf32>
            %14 = linalg.fill ins(%cst : f32) outs(%13 : tensor<64x64xf32>) -> tensor<64x64xf32>
            %15 = arith.muli %arg12, %c64 : index
            %16 = arith.muli %12, %c64 : index
            %17 = loom.reinterpret_cast %arg1 to offset : [%16], sizes : [%c8, %c64, %c64], strides : [%c32768, %c512, %c1], reuse : [seq = false, spat = false, temp = true] : memref<*xf32> to memref<?x?x?xf32, strided<[?, ?, ?], offset: ?>>
            %alloc = memref.alloc() : memref<8x64x64xf32>
            loom.copy %17, %alloc, interconnect : [], broadcast : [1, 1] : memref<?x?x?xf32, strided<[?, ?, ?], offset: ?>> to memref<8x64x64xf32>
            %18 = scf.for %arg13 = %c0 to %c8 step %c1 iter_args(%arg14 = %14) -> (tensor<64x64xf32>) {
              %22 = arith.muli %arg13, %c64 : index
              %23 = arith.muli %15, %c512 : index
              %24 = arith.addi %23, %22 : index
              %25 = loom.reinterpret_cast %arg0 to offset : [%24], sizes : [%c64, %c64], strides : [%c512, %c1], reuse : [seq = false, spat = true, temp = true] : memref<*xf32> to memref<?x?xf32, strided<[?, ?], offset: ?>>
              %alloc_0 = memref.alloc() : memref<64x64xf32>
              loom.copy %25, %alloc_0, interconnect : [@vertical_links], broadcast : [8, 1] : memref<?x?xf32, strided<[?, ?], offset: ?>> to memref<64x64xf32>
              %26 = bufferization.to_tensor %alloc_0 restrict writable : memref<64x64xf32> to tensor<64x64xf32>
              %subview = memref.subview %alloc[%arg13, 0, 0] [1, 64, 64] [1, 1, 1] : memref<8x64x64xf32> to memref<64x64xf32, strided<[64, 1], offset: ?>>
              %27 = bufferization.to_tensor %subview restrict writable : memref<64x64xf32, strided<[64, 1], offset: ?>> to tensor<64x64xf32>
              %28 = linalg.matmul ins(%26, %27 : tensor<64x64xf32>, tensor<64x64xf32>) outs(%14 : tensor<64x64xf32>) -> tensor<64x64xf32>
              %29 = linalg.generic {indexing_maps = [affine_map<(d0, d1) -> (d0, d1)>, affine_map<(d0, d1) -> (d0, d1)>, affine_map<(d0, d1) -> (d0, d1)>], iterator_types = ["parallel", "parallel"]} ins(%arg14, %28 : tensor<64x64xf32>, tensor<64x64xf32>) outs(%arg14 : tensor<64x64xf32>) {
              ^bb0(%in: f32, %in_1: f32, %out: f32):
                %30 = arith.addf %in, %in_1 : f32
                linalg.yield %30 : f32
              } -> tensor<64x64xf32>
              scf.yield %29 : tensor<64x64xf32>
            }
            %19 = arith.muli %15, %c512 : index
            %20 = arith.addi %19, %16 : index
            %21 = loom.reinterpret_cast %arg2 to offset : [%20], sizes : [%c64, %c64], strides : [%c512, %c1], reuse : [seq = false, spat = false, temp = false] : memref<*xf32> to memref<?x?xf32, strided<[?, ?], offset: ?>>
            bufferization.materialize_in_destination %18 in writable %21 : (tensor<64x64xf32>, memref<?x?xf32, strided<[?, ?], offset: ?>>) -> ()
          }
        }
      } {loom.mapped_to = @y}
    } {loom.mapped_to = @x}
    return
  }
}
