#loc = loc("/home/zhenyu/tmd/test/Dialect/Triton/mm_normal/mm.py":8:0)
module {
  tt.func public @matmul_kernel(%arg0: !tt.ptr<f32> {tt.divisibility = 16 : i32} loc("/home/zhenyu/tmd/test/Dialect/Triton/mm_normal/mm.py":8:0), %arg1: !tt.ptr<f32> {tt.divisibility = 16 : i32} loc("/home/zhenyu/tmd/test/Dialect/Triton/mm_normal/mm.py":8:0), %arg2: !tt.ptr<f32> {tt.divisibility = 16 : i32} loc("/home/zhenyu/tmd/test/Dialect/Triton/mm_normal/mm.py":8:0), %arg3: i32 {tt.divisibility = 16 : i32} loc("/home/zhenyu/tmd/test/Dialect/Triton/mm_normal/mm.py":8:0), %arg4: i32 {tt.divisibility = 16 : i32} loc("/home/zhenyu/tmd/test/Dialect/Triton/mm_normal/mm.py":8:0), %arg5: i32 {tt.divisibility = 16 : i32} loc("/home/zhenyu/tmd/test/Dialect/Triton/mm_normal/mm.py":8:0), %arg6: i32 {tt.divisibility = 16 : i32} loc("/home/zhenyu/tmd/test/Dialect/Triton/mm_normal/mm.py":8:0), %arg7: i32 {tt.divisibility = 16 : i32} loc("/home/zhenyu/tmd/test/Dialect/Triton/mm_normal/mm.py":8:0), %arg8: i32 {tt.divisibility = 16 : i32} loc("/home/zhenyu/tmd/test/Dialect/Triton/mm_normal/mm.py":8:0)) attributes {noinline = false} {
    %cst = arith.constant dense<0> : tensor<1x64xi64> loc(#loc1)
    %cst_0 = arith.constant dense<0> : tensor<64x1xi64> loc(#loc1)
    %c31_i32 = arith.constant 31 : i32 loc(#loc1)
    %c63_i32 = arith.constant 63 : i32 loc(#loc1)
    %c1_i32 = arith.constant 1 : i32 loc(#loc1)
    %c0_i32 = arith.constant 0 : i32 loc(#loc1)
    %cst_1 = arith.constant dense<0.000000e+00> : tensor<64x64xf32> loc(#loc1)
    %c32_i32 = arith.constant 32 : i32 loc(#loc1)
    %c64_i32 = arith.constant 64 : i32 loc(#loc1)
    %c8_i32 = arith.constant 8 : i32 loc(#loc1)
    %0 = tt.get_program_id x : i32 loc(#loc2)
    %1 = arith.addi %arg4, %c63_i32 : i32 loc(#loc27)
    %2 = arith.divsi %1, %c64_i32 : i32 loc(#loc28)
    %3 = arith.muli %2, %c8_i32 : i32 loc(#loc6)
    %4 = arith.divsi %0, %3 : i32 loc(#loc7)
    %5 = arith.muli %4, %c8_i32 : i32 loc(#loc8)
    %6 = arith.remsi %0, %c8_i32 : i32 loc(#loc9)
    %7 = arith.addi %5, %6 : i32 loc(#loc10)
    %8 = arith.divsi %0, %c8_i32 : i32 loc(#loc11)
    %9 = arith.remsi %8, %2 : i32 loc(#loc12)
    %10 = arith.muli %7, %c64_i32 : i32 loc(#loc13)
    %11 = arith.muli %9, %c64_i32 : i32 loc(#loc14)
    %12 = arith.addi %arg5, %c31_i32 : i32 loc(#loc29)
    %13 = arith.divsi %12, %c32_i32 : i32 loc(#loc30)
    %14 = arith.extsi %arg6 : i32 to i64 loc(#loc16)
    %15 = arith.extsi %10 : i32 to i64 loc(#loc16)
    %16 = arith.extsi %arg7 : i32 to i64 loc(#loc17)
    %17 = arith.extsi %11 : i32 to i64 loc(#loc17)
    %18 = tt.splat %arg0 : !tt.ptr<f32> -> tensor<64x32x!tt.ptr<f32>> loc(#loc18)
    %19 = tt.splat %15 : i64 -> tensor<64xi64> loc(#loc18)
    %20 = tt.make_range {end = 64 : i32, start = 0 : i32} : tensor<64xi32> loc(#loc18)
    %21 = arith.extsi %20 : tensor<64xi32> to tensor<64xi64> loc(#loc18)
    %22 = arith.addi %19, %21 : tensor<64xi64> loc(#loc18)
    %23 = tt.expand_dims %22 {axis = 1 : i32} : tensor<64xi64> -> tensor<64x1xi64> loc(#loc18)
    %24 = tt.splat %14 : i64 -> tensor<64x1xi64> loc(#loc18)
    %25 = arith.muli %23, %24 : tensor<64x1xi64> loc(#loc18)
    %26 = tt.broadcast %25 : tensor<64x1xi64> -> tensor<64x32xi64> loc(#loc18)
    %27 = tt.make_range {end = 32 : i32, start = 0 : i32} : tensor<32xi32> loc(#loc18)
    %28 = arith.extsi %27 : tensor<32xi32> to tensor<32xi64> loc(#loc18)
    %29 = tt.splat %arg1 : !tt.ptr<f32> -> tensor<32x64x!tt.ptr<f32>> loc(#loc19)
    %30 = tt.splat %16 : i64 -> tensor<32x1xi64> loc(#loc19)
    %31 = tt.splat %17 : i64 -> tensor<64xi64> loc(#loc19)
    %32 = arith.addi %31, %21 : tensor<64xi64> loc(#loc19)
    %33 = tt.expand_dims %32 {axis = 0 : i32} : tensor<64xi64> -> tensor<1x64xi64> loc(#loc19)
    %34 = tt.broadcast %33 : tensor<1x64xi64> -> tensor<32x64xi64> loc(#loc19)
    %35 = scf.for %arg9 = %c0_i32 to %13 step %c1_i32 iter_args(%arg10 = %cst_1) -> (tensor<64x64xf32>)  : i32 {
      %57 = arith.muli %arg9, %c32_i32 : i32 loc(#loc21)
      %58 = arith.extsi %57 : i32 to i64 loc(#loc16)
      %59 = tt.splat %58 : i64 -> tensor<32xi64> loc(#loc18)
      %60 = arith.addi %59, %28 : tensor<32xi64> loc(#loc18)
      %61 = tt.expand_dims %60 {axis = 0 : i32} : tensor<32xi64> -> tensor<1x32xi64> loc(#loc18)
      %62 = tt.broadcast %61 : tensor<1x32xi64> -> tensor<64x32xi64> loc(#loc18)
      %63 = arith.addi %26, %62 : tensor<64x32xi64> loc(#loc18)
      %64 = tt.addptr %18, %63 : tensor<64x32x!tt.ptr<f32>>, tensor<64x32xi64> loc(#loc18)
      %65 = tt.load %64 : tensor<64x32x!tt.ptr<f32>> loc(#loc18)
      %66 = tt.expand_dims %60 {axis = 1 : i32} : tensor<32xi64> -> tensor<32x1xi64> loc(#loc19)
      %67 = arith.muli %66, %30 : tensor<32x1xi64> loc(#loc19)
      %68 = tt.broadcast %67 : tensor<32x1xi64> -> tensor<32x64xi64> loc(#loc19)
      %69 = arith.addi %68, %34 : tensor<32x64xi64> loc(#loc19)
      %70 = tt.addptr %29, %69 : tensor<32x64x!tt.ptr<f32>>, tensor<32x64xi64> loc(#loc19)
      %71 = tt.load %70 : tensor<32x64x!tt.ptr<f32>> loc(#loc19)
      %72 = tt.dot %65, %71, %arg10 : tensor<64x32xf32> * tensor<32x64xf32> -> tensor<64x64xf32> loc(#loc22)
      scf.yield %72 : tensor<64x64xf32> loc(#loc23)
    } loc(#loc20)
    %36 = arith.extsi %arg3 : i32 to i64 loc(#loc24)
    %37 = arith.extsi %arg4 : i32 to i64 loc(#loc24)
    %38 = arith.extsi %arg8 : i32 to i64 loc(#loc24)
    %39 = tt.splat %arg2 : !tt.ptr<f32> -> tensor<64x64x!tt.ptr<f32>> loc(#loc25)
    %40 = tt.splat %38 : i64 -> tensor<64x1xi64> loc(#loc25)
    %41 = arith.muli %23, %40 : tensor<64x1xi64> loc(#loc25)
    %42 = tt.broadcast %41 : tensor<64x1xi64> -> tensor<64x64xi64> loc(#loc25)
    %43 = tt.broadcast %33 : tensor<1x64xi64> -> tensor<64x64xi64> loc(#loc25)
    %44 = arith.addi %42, %43 : tensor<64x64xi64> loc(#loc25)
    %45 = tt.addptr %39, %44 : tensor<64x64x!tt.ptr<f32>>, tensor<64x64xi64> loc(#loc25)
    %46 = arith.cmpi sge, %23, %cst_0 : tensor<64x1xi64> loc(#loc25)
    %47 = tt.splat %36 : i64 -> tensor<64x1xi64> loc(#loc25)
    %48 = arith.cmpi slt, %23, %47 : tensor<64x1xi64> loc(#loc25)
    %49 = arith.andi %46, %48 : tensor<64x1xi1> loc(#loc25)
    %50 = tt.broadcast %49 : tensor<64x1xi1> -> tensor<64x64xi1> loc(#loc25)
    %51 = arith.cmpi sge, %33, %cst : tensor<1x64xi64> loc(#loc25)
    %52 = tt.splat %37 : i64 -> tensor<1x64xi64> loc(#loc25)
    %53 = arith.cmpi slt, %33, %52 : tensor<1x64xi64> loc(#loc25)
    %54 = arith.andi %51, %53 : tensor<1x64xi1> loc(#loc25)
    %55 = tt.broadcast %54 : tensor<1x64xi1> -> tensor<64x64xi1> loc(#loc25)
    %56 = arith.andi %50, %55 : tensor<64x64xi1> loc(#loc25)
    tt.store %45, %35, %56 : tensor<64x64x!tt.ptr<f32>> loc(#loc25)
    tt.return loc(#loc26)
  } loc(#loc)
} loc(#loc)
#loc1 = loc(unknown)
#loc2 = loc("/home/zhenyu/tmd/test/Dialect/Triton/mm_normal/mm.py":34:24)
#loc3 = loc("/home/zhenyu/triton/python/triton/language/standard.py":40:22)
#loc4 = loc("/home/zhenyu/tmd/test/Dialect/Triton/mm_normal/mm.py":36:27)
#loc5 = loc("/home/zhenyu/triton/python/triton/language/standard.py":40:28)
#loc6 = loc("/home/zhenyu/tmd/test/Dialect/Triton/mm_normal/mm.py":38:34)
#loc7 = loc("/home/zhenyu/tmd/test/Dialect/Triton/mm_normal/mm.py":38:24)
#loc8 = loc("/home/zhenyu/tmd/test/Dialect/Triton/mm_normal/mm.py":39:27)
#loc9 = loc("/home/zhenyu/tmd/test/Dialect/Triton/mm_normal/mm.py":40:33)
#loc10 = loc("/home/zhenyu/tmd/test/Dialect/Triton/mm_normal/mm.py":40:27)
#loc11 = loc("/home/zhenyu/tmd/test/Dialect/Triton/mm_normal/mm.py":41:24)
#loc12 = loc("/home/zhenyu/tmd/test/Dialect/Triton/mm_normal/mm.py":41:35)
#loc13 = loc("/home/zhenyu/tmd/test/Dialect/Triton/mm_normal/mm.py":43:21)
#loc14 = loc("/home/zhenyu/tmd/test/Dialect/Triton/mm_normal/mm.py":44:21)
#loc15 = loc("/home/zhenyu/tmd/test/Dialect/Triton/mm_normal/mm.py":48:34)
#loc16 = loc("/home/zhenyu/tmd/test/Dialect/Triton/mm_normal/mm.py":57:12)
#loc17 = loc("/home/zhenyu/tmd/test/Dialect/Triton/mm_normal/mm.py":66:12)
#loc18 = loc("/home/zhenyu/tmd/test/Dialect/Triton/mm_normal/mm.py":72:20)
#loc19 = loc("/home/zhenyu/tmd/test/Dialect/Triton/mm_normal/mm.py":73:20)
#loc20 = loc("/home/zhenyu/tmd/test/Dialect/Triton/mm_normal/mm.py":48:23)
#loc21 = loc("/home/zhenyu/tmd/test/Dialect/Triton/mm_normal/mm.py":49:22)
#loc22 = loc("/home/zhenyu/tmd/test/Dialect/Triton/mm_normal/mm.py":74:25)
#loc23 = loc("/home/zhenyu/tmd/test/Dialect/Triton/mm_normal/mm.py":74:8)
#loc24 = loc("/home/zhenyu/tmd/test/Dialect/Triton/mm_normal/mm.py":82:8)
#loc25 = loc("/home/zhenyu/tmd/test/Dialect/Triton/mm_normal/mm.py":84:22)
#loc26 = loc("/home/zhenyu/tmd/test/Dialect/Triton/mm_normal/mm.py":84:4)
#loc27 = loc(callsite(#loc3 at #loc4))
#loc28 = loc(callsite(#loc5 at #loc4))
#loc29 = loc(callsite(#loc3 at #loc15))
#loc30 = loc(callsite(#loc5 at #loc15))
