#loc = loc("/home/zhenyu/tmd/test/Dialect/Triton/mm_fixed_strides/mm.py":8:0)
#loc2 = loc("/home/zhenyu/tmd/test/Dialect/Triton/mm_fixed_strides/mm.py":66:25)
#loc15 = loc("/tmp/tmp3dpg6fex/tt.mlir":37:64)
#map = affine_map<(d0, d1) -> (d0, d1)>
module {
  func.func @matmul_kernel(%arg0: memref<*xf32> {tt.divisibility = 16 : i32} loc("/home/zhenyu/tmd/test/Dialect/Triton/mm_fixed_strides/mm.py":8:0), %arg1: memref<*xf32> {tt.divisibility = 16 : i32} loc("/home/zhenyu/tmd/test/Dialect/Triton/mm_fixed_strides/mm.py":8:0), %arg2: memref<*xf32> {tt.divisibility = 16 : i32} loc("/home/zhenyu/tmd/test/Dialect/Triton/mm_fixed_strides/mm.py":8:0), %arg3: i32 {tt.divisibility = 16 : i32} loc("/home/zhenyu/tmd/test/Dialect/Triton/mm_fixed_strides/mm.py":8:0), %arg4: i32 {tt.divisibility = 16 : i32} loc("/home/zhenyu/tmd/test/Dialect/Triton/mm_fixed_strides/mm.py":8:0), %arg5: i32 {tt.divisibility = 16 : i32} loc("/home/zhenyu/tmd/test/Dialect/Triton/mm_fixed_strides/mm.py":8:0), %arg6: i32 loc("/home/zhenyu/tmd/test/Dialect/Triton/mm_fixed_strides/mm.py":8:0), %arg7: i32 loc("/home/zhenyu/tmd/test/Dialect/Triton/mm_fixed_strides/mm.py":8:0), %arg8: i32 loc("/home/zhenyu/tmd/test/Dialect/Triton/mm_fixed_strides/mm.py":8:0), %arg9: i32 loc("/home/zhenyu/tmd/test/Dialect/Triton/mm_fixed_strides/mm.py":8:0), %arg10: i32 loc("/home/zhenyu/tmd/test/Dialect/Triton/mm_fixed_strides/mm.py":8:0), %arg11: i32 loc("/home/zhenyu/tmd/test/Dialect/Triton/mm_fixed_strides/mm.py":8:0)) {
    %cst = arith.constant 0.000000e+00 : f32 loc(#loc1)
    %c1_i32 = arith.constant 1 : i32 loc(#loc1)
    %c31_i32 = arith.constant 31 : i32 loc(#loc1)
    %c512 = arith.constant 512 : index loc(#loc1)
    %c64 = arith.constant 64 : index loc(#loc1)
    %c0_i32 = arith.constant 0 : i32 loc(#loc1)
    %c32_i32 = arith.constant 32 : i32 loc(#loc1)
    %c64_i32 = arith.constant 64 : i32 loc(#loc1)
    %0 = tensor.empty() : tensor<64x64xf32> loc(#loc2)
    %1 = linalg.fill ins(%cst : f32) outs(%0 : tensor<64x64xf32>) -> tensor<64x64xf32> loc(#loc2)
    %2 = arith.muli %arg9, %c64_i32 : i32 loc(#loc3)
    %3 = arith.muli %arg10, %c64_i32 : i32 loc(#loc4)
    %4 = arith.addi %arg5, %c31_i32 : i32 loc(#loc18)
    %5 = arith.divsi %4, %c32_i32 : i32 loc(#loc19)
    %6 = arith.index_cast %2 : i32 to index loc(#loc20)
    %7 = arith.index_cast %3 : i32 to index loc(#loc21)
    %8 = scf.for %arg12 = %c0_i32 to %5 step %c1_i32 iter_args(%arg13 = %1) -> (tensor<64x64xf32>)  : i32 {
      %25 = arith.muli %arg12, %c32_i32 : i32 loc(#loc12)
      %26 = arith.index_cast %25 : i32 to index loc(#loc22)
      %27 = arith.muli %6, %c512 : index loc(#loc14)
      %28 = arith.addi %27, %26 : index loc(#loc14)
      %reinterpret_cast_0 = memref.reinterpret_cast %arg0 to offset: [%28], sizes: [64, 32], strides: [512, 1] : memref<*xf32> to memref<64x32xf32, strided<[512, 1], offset: ?>> loc(#loc14)
      %alloc = memref.alloc() : memref<64x32xf32> loc(#loc14)
      memref.copy %reinterpret_cast_0, %alloc : memref<64x32xf32, strided<[512, 1], offset: ?>> to memref<64x32xf32> loc(#loc14)
      %29 = bufferization.to_tensor %alloc restrict writable : memref<64x32xf32> to tensor<64x32xf32> loc(#loc14)
      %30 = arith.muli %26, %c512 : index loc(#loc13)
      %31 = arith.addi %30, %7 : index loc(#loc13)
      %reinterpret_cast_1 = memref.reinterpret_cast %arg1 to offset: [%31], sizes: [32, 64], strides: [512, 1] : memref<*xf32> to memref<32x64xf32, strided<[512, 1], offset: ?>> loc(#loc13)
      %alloc_2 = memref.alloc() : memref<32x64xf32> loc(#loc13)
      memref.copy %reinterpret_cast_1, %alloc_2 : memref<32x64xf32, strided<[512, 1], offset: ?>> to memref<32x64xf32> loc(#loc13)
      %32 = bufferization.to_tensor %alloc_2 restrict writable : memref<32x64xf32> to tensor<32x64xf32> loc(#loc13)
      %33 = linalg.matmul ins(%29, %32 : tensor<64x32xf32>, tensor<32x64xf32>) outs(%1 : tensor<64x64xf32>) -> tensor<64x64xf32> loc(#loc2)
      %34 = linalg.generic {indexing_maps = [#map, #map, #map], iterator_types = ["parallel", "parallel"]} ins(%arg13, %33 : tensor<64x64xf32>, tensor<64x64xf32>) outs(%arg13 : tensor<64x64xf32>) {
      ^bb0(%in: f32 loc("/tmp/tmp3dpg6fex/tt.mlir":37:64), %in_3: f32 loc("/home/zhenyu/tmd/test/Dialect/Triton/mm_fixed_strides/mm.py":66:25), %out: f32 loc("/tmp/tmp3dpg6fex/tt.mlir":37:64)):
        %35 = arith.addf %in, %in_3 : f32 loc(#loc2)
        linalg.yield %35 : f32 loc(#loc2)
      } -> tensor<64x64xf32> loc(#loc2)
      scf.yield %34 : tensor<64x64xf32> loc(#loc16)
    } loc(#loc11)
    %9 = arith.muli %6, %c512 : index loc(#loc14)
    %10 = arith.addi %9, %7 : index loc(#loc8)
    %reinterpret_cast = memref.reinterpret_cast %arg2 to offset: [%10], sizes: [64, 64], strides: [512, 1] : memref<*xf32> to memref<64x64xf32, strided<[512, 1], offset: ?>> loc(#loc8)
    %11 = arith.addi %6, %c64 : index loc(#loc8)
    %12 = arith.index_cast %arg3 : i32 to index loc(#loc23)
    %13 = arith.minsi %11, %12 : index loc(#loc8)
    %14 = arith.maxsi %13, %6 : index loc(#loc8)
    %15 = arith.subi %14, %6 : index loc(#loc8)
    %16 = arith.minsi %15, %c64 : index loc(#loc8)
    %17 = arith.addi %7, %c64 : index loc(#loc8)
    %18 = arith.index_cast %arg4 : i32 to index loc(#loc23)
    %19 = arith.minsi %17, %18 : index loc(#loc8)
    %20 = arith.maxsi %19, %7 : index loc(#loc8)
    %21 = arith.subi %20, %7 : index loc(#loc8)
    %22 = arith.minsi %21, %c64 : index loc(#loc8)
    %23 = arith.minsi %16, %c64 : index loc(#loc8)
    %24 = arith.minsi %22, %c64 : index loc(#loc8)
    %extracted_slice = tensor.extract_slice %8[0, 0] [%23, %24] [1, 1] : tensor<64x64xf32> to tensor<?x?xf32> loc(#loc8)
    %subview = memref.subview %reinterpret_cast[0, 0] [%23, %24] [1, 1] : memref<64x64xf32, strided<[512, 1], offset: ?>> to memref<?x?xf32, strided<[512, 1], offset: ?>> loc(#loc8)
    bufferization.materialize_in_destination %extracted_slice in writable %subview : (tensor<?x?xf32>, memref<?x?xf32, strided<[512, 1], offset: ?>>) -> () loc(#loc8)
    return loc(#loc)
  } loc(#loc)
} loc(#loc)
#loc1 = loc(unknown)
#loc3 = loc("/home/zhenyu/tmd/test/Dialect/Triton/mm_fixed_strides/mm.py":35:21)
#loc4 = loc("/home/zhenyu/tmd/test/Dialect/Triton/mm_fixed_strides/mm.py":36:21)
#loc5 = loc("/home/zhenyu/triton/python/triton/language/standard.py":40:22)
#loc6 = loc("/home/zhenyu/tmd/test/Dialect/Triton/mm_fixed_strides/mm.py":40:34)
#loc7 = loc("/home/zhenyu/triton/python/triton/language/standard.py":40:28)
#loc8 = loc("/home/zhenyu/tmd/test/Dialect/Triton/mm_fixed_strides/mm.py":76:22)
#loc9 = loc("/home/zhenyu/tmd/test/Dialect/Triton/mm_fixed_strides/mm.py":49:12)
#loc10 = loc("/home/zhenyu/tmd/test/Dialect/Triton/mm_fixed_strides/mm.py":58:12)
#loc11 = loc("/home/zhenyu/tmd/test/Dialect/Triton/mm_fixed_strides/mm.py":40:23)
#loc12 = loc("/home/zhenyu/tmd/test/Dialect/Triton/mm_fixed_strides/mm.py":41:22)
#loc13 = loc("/home/zhenyu/tmd/test/Dialect/Triton/mm_fixed_strides/mm.py":65:20)
#loc14 = loc("/home/zhenyu/tmd/test/Dialect/Triton/mm_fixed_strides/mm.py":64:20)
#loc16 = loc("/home/zhenyu/tmd/test/Dialect/Triton/mm_fixed_strides/mm.py":66:8)
#loc17 = loc("/home/zhenyu/tmd/test/Dialect/Triton/mm_fixed_strides/mm.py":74:8)
#loc18 = loc(callsite(#loc5 at #loc6))
#loc19 = loc(callsite(#loc7 at #loc6))
#loc20 = loc(fused[#loc8, #loc9])
#loc21 = loc(fused[#loc8, #loc10])
#loc22 = loc(fused[#loc13, #loc9])
#loc23 = loc(fused[#loc8, #loc17])

