#loc = loc("/home/zhenyu/loom/test/Dialect/Triton/mm_normal/mm.py":8:0)
module {
  tt.func public @matmul_kernel(%arg0: !tt.ptr<f32> {tt.divisibility = 16 : i32} loc("/home/zhenyu/loom/test/Dialect/Triton/mm_normal/mm.py":8:0), %arg1: !tt.ptr<f32> {tt.divisibility = 16 : i32} loc("/home/zhenyu/loom/test/Dialect/Triton/mm_normal/mm.py":8:0), %arg2: !tt.ptr<f32> {tt.divisibility = 16 : i32} loc("/home/zhenyu/loom/test/Dialect/Triton/mm_normal/mm.py":8:0), %arg3: i32 {tt.divisibility = 16 : i32} loc("/home/zhenyu/loom/test/Dialect/Triton/mm_normal/mm.py":8:0), %arg4: i32 {tt.divisibility = 16 : i32} loc("/home/zhenyu/loom/test/Dialect/Triton/mm_normal/mm.py":8:0), %arg5: i32 {tt.divisibility = 16 : i32} loc("/home/zhenyu/loom/test/Dialect/Triton/mm_normal/mm.py":8:0), %arg6: i32 {tt.divisibility = 16 : i32} loc("/home/zhenyu/loom/test/Dialect/Triton/mm_normal/mm.py":8:0), %arg7: i32 {tt.divisibility = 16 : i32} loc("/home/zhenyu/loom/test/Dialect/Triton/mm_normal/mm.py":8:0), %arg8: i32 {tt.divisibility = 16 : i32} loc("/home/zhenyu/loom/test/Dialect/Triton/mm_normal/mm.py":8:0)) attributes {noinline = false} {
    %cst = arith.constant dense<0> : tensor<1x64xi64> loc(#loc1)
    %cst_0 = arith.constant dense<0> : tensor<64x1xi64> loc(#loc1)
    %c31_i32 = arith.constant 31 : i32 loc(#loc1)
    %c1_i32 = arith.constant 1 : i32 loc(#loc1)
    %c0_i32 = arith.constant 0 : i32 loc(#loc1)
    %cst_1 = arith.constant dense<0.000000e+00> : tensor<64x64xf32> loc(#loc1)
    %c32_i32 = arith.constant 32 : i32 loc(#loc1)
    %c64_i32 = arith.constant 64 : i32 loc(#loc1)
    %0 = tt.get_program_id x : i32 loc(#loc2)
    %1 = tt.get_program_id y : i32 loc(#loc3)
    %2 = arith.muli %0, %c64_i32 : i32 loc(#loc4)
    %3 = arith.muli %1, %c64_i32 : i32 loc(#loc5)
    %4 = arith.addi %arg5, %c31_i32 : i32 loc(#loc20)
    %5 = arith.divsi %4, %c32_i32 : i32 loc(#loc21)
    %6 = arith.extsi %arg6 : i32 to i64 loc(#loc9)
    %7 = arith.extsi %2 : i32 to i64 loc(#loc9)
    %8 = arith.extsi %arg7 : i32 to i64 loc(#loc10)
    %9 = arith.extsi %3 : i32 to i64 loc(#loc10)
    %10 = tt.splat %arg0 : !tt.ptr<f32> -> tensor<64x32x!tt.ptr<f32>> loc(#loc11)
    %11 = tt.splat %7 : i64 -> tensor<64xi64> loc(#loc11)
    %12 = tt.make_range {end = 64 : i32, start = 0 : i32} : tensor<64xi32> loc(#loc11)
    %13 = arith.extsi %12 : tensor<64xi32> to tensor<64xi64> loc(#loc11)
    %14 = arith.addi %11, %13 : tensor<64xi64> loc(#loc11)
    %15 = tt.expand_dims %14 {axis = 1 : i32} : tensor<64xi64> -> tensor<64x1xi64> loc(#loc11)
    %16 = tt.splat %6 : i64 -> tensor<64x1xi64> loc(#loc11)
    %17 = arith.muli %15, %16 : tensor<64x1xi64> loc(#loc11)
    %18 = tt.broadcast %17 : tensor<64x1xi64> -> tensor<64x32xi64> loc(#loc11)
    %19 = tt.make_range {end = 32 : i32, start = 0 : i32} : tensor<32xi32> loc(#loc11)
    %20 = arith.extsi %19 : tensor<32xi32> to tensor<32xi64> loc(#loc11)
    %21 = tt.splat %arg1 : !tt.ptr<f32> -> tensor<32x64x!tt.ptr<f32>> loc(#loc12)
    %22 = tt.splat %8 : i64 -> tensor<32x1xi64> loc(#loc12)
    %23 = tt.splat %9 : i64 -> tensor<64xi64> loc(#loc12)
    %24 = arith.addi %23, %13 : tensor<64xi64> loc(#loc12)
    %25 = tt.expand_dims %24 {axis = 0 : i32} : tensor<64xi64> -> tensor<1x64xi64> loc(#loc12)
    %26 = tt.broadcast %25 : tensor<1x64xi64> -> tensor<32x64xi64> loc(#loc12)
    %27 = scf.for %arg9 = %c0_i32 to %5 step %c1_i32 iter_args(%arg10 = %cst_1) -> (tensor<64x64xf32>)  : i32 {
      %49 = arith.muli %arg9, %c32_i32 : i32 loc(#loc14)
      %50 = arith.extsi %49 : i32 to i64 loc(#loc9)
      %51 = tt.splat %50 : i64 -> tensor<32xi64> loc(#loc11)
      %52 = arith.addi %51, %20 : tensor<32xi64> loc(#loc11)
      %53 = tt.expand_dims %52 {axis = 0 : i32} : tensor<32xi64> -> tensor<1x32xi64> loc(#loc11)
      %54 = tt.broadcast %53 : tensor<1x32xi64> -> tensor<64x32xi64> loc(#loc11)
      %55 = arith.addi %18, %54 : tensor<64x32xi64> loc(#loc11)
      %56 = tt.addptr %10, %55 : tensor<64x32x!tt.ptr<f32>>, tensor<64x32xi64> loc(#loc11)
      %57 = tt.load %56 : tensor<64x32x!tt.ptr<f32>> loc(#loc11)
      %58 = tt.expand_dims %52 {axis = 1 : i32} : tensor<32xi64> -> tensor<32x1xi64> loc(#loc12)
      %59 = arith.muli %58, %22 : tensor<32x1xi64> loc(#loc12)
      %60 = tt.broadcast %59 : tensor<32x1xi64> -> tensor<32x64xi64> loc(#loc12)
      %61 = arith.addi %60, %26 : tensor<32x64xi64> loc(#loc12)
      %62 = tt.addptr %21, %61 : tensor<32x64x!tt.ptr<f32>>, tensor<32x64xi64> loc(#loc12)
      %63 = tt.load %62 : tensor<32x64x!tt.ptr<f32>> loc(#loc12)
      %64 = tt.dot %57, %63, %arg10 : tensor<64x32xf32> * tensor<32x64xf32> -> tensor<64x64xf32> loc(#loc15)
      scf.yield %64 : tensor<64x64xf32> loc(#loc16)
    } loc(#loc13)
    %28 = arith.extsi %arg3 : i32 to i64 loc(#loc17)
    %29 = arith.extsi %arg4 : i32 to i64 loc(#loc17)
    %30 = arith.extsi %arg8 : i32 to i64 loc(#loc17)
    %31 = tt.splat %arg2 : !tt.ptr<f32> -> tensor<64x64x!tt.ptr<f32>> loc(#loc18)
    %32 = tt.splat %30 : i64 -> tensor<64x1xi64> loc(#loc18)
    %33 = arith.muli %15, %32 : tensor<64x1xi64> loc(#loc18)
    %34 = tt.broadcast %33 : tensor<64x1xi64> -> tensor<64x64xi64> loc(#loc18)
    %35 = tt.broadcast %25 : tensor<1x64xi64> -> tensor<64x64xi64> loc(#loc18)
    %36 = arith.addi %34, %35 : tensor<64x64xi64> loc(#loc18)
    %37 = tt.addptr %31, %36 : tensor<64x64x!tt.ptr<f32>>, tensor<64x64xi64> loc(#loc18)
    %38 = arith.cmpi sge, %15, %cst_0 : tensor<64x1xi64> loc(#loc18)
    %39 = tt.splat %28 : i64 -> tensor<64x1xi64> loc(#loc18)
    %40 = arith.cmpi slt, %15, %39 : tensor<64x1xi64> loc(#loc18)
    %41 = arith.andi %38, %40 : tensor<64x1xi1> loc(#loc18)
    %42 = tt.broadcast %41 : tensor<64x1xi1> -> tensor<64x64xi1> loc(#loc18)
    %43 = arith.cmpi sge, %25, %cst : tensor<1x64xi64> loc(#loc18)
    %44 = tt.splat %29 : i64 -> tensor<1x64xi64> loc(#loc18)
    %45 = arith.cmpi slt, %25, %44 : tensor<1x64xi64> loc(#loc18)
    %46 = arith.andi %43, %45 : tensor<1x64xi1> loc(#loc18)
    %47 = tt.broadcast %46 : tensor<1x64xi1> -> tensor<64x64xi1> loc(#loc18)
    %48 = arith.andi %42, %47 : tensor<64x64xi1> loc(#loc18)
    tt.store %37, %27, %48 : tensor<64x64x!tt.ptr<f32>> loc(#loc18)
    tt.return loc(#loc19)
  } loc(#loc)
} loc(#loc)
#loc1 = loc(unknown)
#loc2 = loc("/home/zhenyu/loom/test/Dialect/Triton/mm_normal/mm.py":32:26)
#loc3 = loc("/home/zhenyu/loom/test/Dialect/Triton/mm_normal/mm.py":33:26)
#loc4 = loc("/home/zhenyu/loom/test/Dialect/Triton/mm_normal/mm.py":35:21)
#loc5 = loc("/home/zhenyu/loom/test/Dialect/Triton/mm_normal/mm.py":36:21)
#loc6 = loc("/home/zhenyu/triton/python/triton/language/standard.py":40:22)
#loc7 = loc("/home/zhenyu/loom/test/Dialect/Triton/mm_normal/mm.py":40:34)
#loc8 = loc("/home/zhenyu/triton/python/triton/language/standard.py":40:28)
#loc9 = loc("/home/zhenyu/loom/test/Dialect/Triton/mm_normal/mm.py":49:12)
#loc10 = loc("/home/zhenyu/loom/test/Dialect/Triton/mm_normal/mm.py":58:12)
#loc11 = loc("/home/zhenyu/loom/test/Dialect/Triton/mm_normal/mm.py":64:20)
#loc12 = loc("/home/zhenyu/loom/test/Dialect/Triton/mm_normal/mm.py":65:20)
#loc13 = loc("/home/zhenyu/loom/test/Dialect/Triton/mm_normal/mm.py":40:23)
#loc14 = loc("/home/zhenyu/loom/test/Dialect/Triton/mm_normal/mm.py":41:22)
#loc15 = loc("/home/zhenyu/loom/test/Dialect/Triton/mm_normal/mm.py":66:25)
#loc16 = loc("/home/zhenyu/loom/test/Dialect/Triton/mm_normal/mm.py":66:8)
#loc17 = loc("/home/zhenyu/loom/test/Dialect/Triton/mm_normal/mm.py":74:8)
#loc18 = loc("/home/zhenyu/loom/test/Dialect/Triton/mm_normal/mm.py":76:22)
#loc19 = loc("/home/zhenyu/loom/test/Dialect/Triton/mm_normal/mm.py":76:4)
#loc20 = loc(callsite(#loc6 at #loc7))
#loc21 = loc(callsite(#loc8 at #loc7))
